result/best_model_func3.pth (torch, 43629 bytes, 7 tensors)

model.0.weight f4 [70, 2]
00000000: 8da8 4041 7768 503c 5777 c4be e10e 2cbb
00000010: 922d b7be 48eb b3bb 489d 063f 0bf9 d339
00000020: aa68 03c0 0b60 f7bc 8c62 0fbf 3b0f 8ebc
00000030: 20fe e03e 7cfd a63c f63e 9a3f 55bb 543c
00000040: 6f84 83bf 9078 d3bc 2d65 f2c0 4bc9 66c1
00000050: ee95 1fbf 0783 96bb 77fd bf40 f9da be3d
00000060: 8bce b83e 7f1c 313b 9563 b540 7af2 cf3d
00000070: 9e7e 603f 47eb d13b bbcb b53e 4223 3cb8
00000080: a68b a2b9 7a6b 08bb 112b a13e 56f5 ae3b
00000090: e9ea 693e 2383 803c f0c1 1e40 ae23 683b
000000a0: 5386 a0be 038d 4cbc 1619 e53e d0d5 7e3c
000000b0: 3248 43b9 9173 abba 3214 99bf 5c7e 6d3b
000000c0: da05 8c3f 3e6e 893c eb0b 1bc0 8859 acbb
000000d0: d390 8c3e 92a0 ad3c be7c f0bf f071 afbc
000000e0: cdcf c2bf 63e3 5b3c fc6d b4bf 76bd e3bc
000000f0: 4614 9fbe 71d2 30bc 60dd df3e 2fb4 213a
00000100: 4664 0440 3c1b b33d 6ff9 a5be 9b19 61bc
00000110: ea0c 5eba 093d 133b 9cfb c4be 4a43 a0bb
00000120: b51a ef3e 8167 a33c 6760 d5be 093d 9ebc
00000130: 2013 bdbe 0f69 f7ba 4f49 fe40 a0e3 5c41
00000140: 6738 b8c0 2b06 9ebd 56f4 c8bf 7b00 1ebd
00000150: 80c9 283f 0311 f73a 1b1b 1641 4633 3b41
00000160: 29a8 b2be 236a 4bbb 4dcb b6be 7396 71bb
00000170: 979d 803b 54a9 e9ba 7cb7 5b40 6298 3a3c
00000180: 236a 673a 4d88 63ba 499d c93a 1f45 8fba
00000190: 811d ce3e 1fed e13b 4f6f fcbe fd4e babb
000001a0: 4c50 59bf a0ca 88ba 4ce9 5d40 1020 a73d
000001b0: e4c0 983e 62ef b13d c082 2840 8c6c aa3d
000001c0: 0557 233f 977a 933c 0509 2c3f 8ce6 9c3c
000001d0: 29f4 f5c0 051a 1bc1 dfde abbe 7585 ffbb
000001e0: 15a0 a03a c744 62bb d84a a33a b353 41bb
000001f0: bb80 513e be6a 9d3c bd9e 1ac1 bbbf 5bc1
00000200: 1a67 91c1 2efe 90be c36c ab3e aa4d 493c
00000210: 5715 afbe 1b0d b5bb a093 8240 ca51 a93d
00000220: 4db9 b5be f0ed 32bc f31b 573d b2b2 1c3d
12.04115 0.012720219 -0.383723 -0.0026253986 -0.35776955 -0.005490694 0.5258374 0.00040430608
-2.0532632 -0.030197164 -0.56009746 -0.017341247 0.43943882 0.020384543 1.2050464 0.012984117
-1.027479 -0.025814325 -7.5748506 -14.424144 -0.6233815 -0.0045932564 5.9996905 0.093191095
0.3609508 0.0027025042 5.668406 0.101536706 0.876932 0.006406221 0.35506997 -4.485553e-05
-0.00031003094 -0.0020816014 0.3147817 0.005339305 0.22843517 0.01568753 2.480587 0.0035421657
-0.3135248 -0.012484792 0.44745702 0.015553907 -0.00018623544 -0.0013080706 -1.1959288 0.0036238646
1.0939286 0.0167762 -2.4226024 -0.0052596964 0.27454242 0.02119473 -1.8788068 -0.021416634
-1.5219666 0.013420912 -1.4096065 -0.027800303 -0.31070155 -0.010792361 0.43723583 0.0006168512
2.0686202 0.08745429 -0.32416865 -0.013739015 -0.0008470552 0.00224668 -0.38473213 -0.004890834
0.46700063 0.019946815 -0.41675112 -0.019316213 -0.36928654 -0.0018875914 7.946449 13.8055725
-5.756885 -0.0771602 -1.5699565 -0.038574677 0.65932465 0.0018849674 9.381618 11.700018
-0.3489392 -0.0031038604 -0.3570198 -0.0036863356 0.003925036 -0.0017826953 3.433074 0.01138887
0.0008827766 -0.0008679673 0.0015381958 -0.0010930634 0.40256885 0.006894722 -0.49303672 -0.0056856857
-0.8488815 -0.0010436364 3.4673643 0.08160412 0.29834664 0.08688237 2.6329803 0.08321485
0.63804656 0.018002791 0.6720126 0.019152902 -7.6860547 -9.693852 -0.33568475 -0.0077978917
0.0012254739 -0.0034525858 0.0012458218 -0.0029499352 0.20459263 0.019215938 -9.663754 -13.734309
-18.175343 -0.28318924 0.33481416 0.012286583 -0.34195969 -0.005525244 4.0805206 0.08267553
-0.35492936 -0.0109209865 0.05251689 0.038256355

model.0.bias f4 [70]
00000000: ced2 07bf 88e6 3c40 7297 d73f 9a79 eabf
00000010: eae9 9f3f 2ad5 bb3f b887 57bf 9567 dfbe
00000020: 018e 843f bd99 ecbf 9cf8 a83f 9e58 423f
00000030: 91b4 1ec0 04a2 913f 4e08 e1bf 69ed 16c0
00000040: 58df 98ba d62e f0bf b5c1 44bf 45cc 96bf
00000050: 6a31 723f fb3b 3abf e196 0e3c a56d f23f
00000060: b76e e7bf ff86 3a3f f236 d1bf 3856 563f
00000070: 8397 773f 510a fc3e e0ad 543f 76a3 d9bf
00000080: 1a36 fe3f d5cd ef3f 7a4d fe3b 4bee 4440
00000090: 8413 9bbf 9786 733f 0e28 2c40 c9ce ea3f
000000a0: d2d3 903e c8ec 713d 8bdb 24c0 9226 6a40
000000b0: 452c 0e40 187b 1e40 0ba2 9abc 5a58 8bbe
000000c0: 219c 7ebc 8bac 1abc 9daf e7bf 9d42 9d3f
000000d0: 8eff 1340 507f 9f3f 6464 eb3f e5ec d73f
000000e0: 5323 63bf a888 42bf 7360 a4c0 6cf3 803f
000000f0: f150 503c 3f48 d6bb 55cf 45bf 850a 50bf
00000100: 34ba 8f3d a5e7 56bf d512 1240 0653 5f3f
00000110: 3ee6 663f cdf0 0ebf
-0.5305604 2.9515705 1.6843092 -1.831836 1.249326 1.4674428 -0.84191465 -0.43633714
1.0355836 -1.8484417 1.320087 0.7591647 -2.479771 1.1377568 -1.7580659 -2.3582404
-0.0011663241 -1.8764293 -0.76858073 -1.1781088 0.9460665 -0.7274777 0.0087029645 1.8939711
-1.8080662 0.7286224 -1.6344893 0.8372531 0.96715564 0.4922662 0.8307781 -1.7003009
1.986026 1.873469 0.007760701 3.0770442 -1.2115331 0.9512724 2.6899447 1.8344356
0.28286606 0.059063703 -2.5758998 3.6586041 2.221452 2.476263 -0.018876096 -0.27215844
-0.015540154 -0.0094405515 -1.8100468 1.2285954 2.3124728 1.2460728 1.8390012 1.686917
-0.88725775 -0.7598977 -5.1367736 1.0074286 0.01271461 -0.006539374 -0.7726949 -0.8126605
0.07017937 -0.8394721 2.2823994 0.8723606 0.9019507 -0.5583618

model.2.weight f4 [70, 70]
00000000: f7fe cbbe bc60 4ac0 e297 f2be dcc9 9c3d
00000010: 2297 2e3e 4b3c f6bd 46a8 d8be b1c2 6fbe
00000020: a0c2 c03d 7528 ee3e 0f92 eebc 1b00 85be
00000030: 40b0 f83f 409d a3be d312 fa3c 933d c23f
00000040: 0f55 85bd 1243 303f e9fe 563b 7c0b 6ebe
00000050: 3c68 883d 8d7f ddbe 8199 2d3d c9e4 163e
00000060: d0ae aebe 3c37 d63e 0a29 173e 98fe 473e
00000070: 2be4 ab3e fd31 f83e 19f3 9b3d 4833 a83e
00000080: a5c3 82be f99c 40bf 7453 cf3d a736 03c0
00000090: 0823 0cbd 7945 063e f1ca 02c0 fa0d fcbe
000000a0: e7bc 773e 89f2 553e e836 b93e c8f9 66be
000000b0: ae03 a9bf 3e96 dbbf 5c6a 93bc 006a b1be
000000c0: ae35 e4bd 7ce8 a1bd 5890 f23e 1c05 91bc
000000d0: 6025 afbd ab4f 7dbe 34fa aabe caae 9bbe
000000e0: b6ee a9be ffde a4bb 7ece 963e 0d3c 873d
000000f0: e53b e7bd 6651 e6bd e4d8 23bd 82e2 b93e
00000100: 46d2 a63e 2f93 0cbf 923b 9abf 6c81 6bbe
00000110: 0880 853e 20fc 813c f98c 1ebf 8290 0ebf
00000120: 5a09 aebe a9ff e13e cc57 023f ee7a 23be
00000130: dbe5 adbe 0658 5bbf 0195 133e 5a11 0a3f
00000140: 5aad 3cbe 1f2f 42bf d352 9e3e ae15 4bbf
00000150: 0336 a73e 78ec 813e 4849 25bf 57ac ca3e
00000160: d954 89be 07b0 3ebf c3b6 07be 0b5e 97be
00000170: c2b3 85be 2c91 c1be 36ec 9ebe 0e8f 023f
00000180: 5783 66be 105d 063f d1b6 ba3e c76e 013f
00000190: 5dde 9f3e 78d1 593e 3a50 4cbf 7253 cfbe
000001a0: 6b9d 983e 0d2a 1abf d7e6 c83e 24fc 96be
000001b0: 8dad 24bf 0355 31bf d001 6d3f 82de 6c3f
000001c0: 5c24 973e 190c 3cbf 506d d7be 75e4 eebe
000001d0: d516 83be 4c0a 6dbf 8416 b4be a9a7 bcbe
000001e0: ecdd c33e 7e41 2ebe c61a 8fbe 8878 33bf
000001f0: f970 58bf c34c 41bf a1bc f2be cc9d 543e
00000200: 785a 5d3f 93e1 4dbe 73bb 0f3e e116 33be
00000210: 800e 2bbe eca8 123f 8ed7 493f 529c 8bbe
00000220: 877c f93c 2803 4bbf 467d a53e a3e5 2a3e
00000230: d3ee 29bf 6726 ddbe 78b6 d6be caa3 f93e
00000240: 9376 403f 1a4f d3be ad3c b2be 24ae d4be
00000250: 5c52 6a3f 5d6a af3e 75a5 bbbd f3da 2ebf
00000260: 0eed f53e 8caa 36bf 4789 bb3e c7f9 9f3e
00000270: 5afe 0c3f 615f b03e 4126 203b 36c5 c9bf
00000280: b5a6 bebb b753 66be 35c2 eebe 221d 50be
00000290: e628 ce3d 65e4 4b3f e942 3a3e 4d26 483f
000002a0: 1997 163f 6a5f 063f 65ae c8bd c58f df3e
000002b0: c266 1bbf d6db cfbe 2a48 003f 244d b6be
000002c0: 62f0 993e eaf3 80bd dec8 9abe 5604 16bf
000002d0: 9d9d 9d3f 486b 703f bb5b a93e 2c10 27bf
000002e0: 6135 a8be 172d c6be 79a5 88be ce77 83bf
000002f0: 857a 0c3e 81b8 44be 789e 953e 1094 d6bd
00000300: d950 eebe 6537 21bf 0ec5 29bf beba 2bbf
00000310: a314 97bf 864d 043d e46f 1c3f 71c1 6fbe
00000320: 3b5a 10be 1868 ce3d a041 a23d 506a a43e
00000330: 8383 073f f49e ec3e 6dc8 c3bd 23fd 39bf
00000340: 2e82 c03c 2ddc cbbd 8ac8 d8be d22c a3be
00000350: c2bb b6be 434b c83e 5a7c e93e 0df3 83be
00000360: de47 34be 9841 46bf f5e2 453f 309e c83e
00000370: 2d93 66be 7f60 10bf 4748 af3e dc7b 13bf
00000380: 919a 663e c435 9d3e f775 22bf f0a9 c03e
00000390: 9c4e 09be 2522 6bbf 74d7 48be c185 1bbf
000003a0: 2e30 c1be c6c8 43be 184e 8abe 8827 f33e
000003b0: cff2 cebd 25b0 153f c255 6b3e c374 9e3e
000003c0: c5a9 1e3e f65a ae3e d704 29bf 91ff 94be
000003d0: dc0a 463e dc4e b2be f338 103f 8241 39be
000003e0: abbf 82be dbdc e2be b2b9 583f 21d2 4a3f
000003f0: 8dae e43e bc19 04bf 26ae 89be bd7e 89be
-0.3984296 -3.1621542 -0.47381502 0.07655689 0.1704984 -0.12023219 -0.42315882 -0.23414113
0.09412122 0.4651524 -0.02912238 -0.25976643 1.9428787 -0.3195591 0.030526554 1.5175041
-0.06510364 0.6885234 0.0032805747 -0.23246568 0.06660506 -0.43261376 0.04238272 0.14735712
-0.34117746 0.41839015 0.14761749 0.19530714 0.33572516 0.48475638 0.076147266 0.32851624
-0.2553989 -0.7523952 0.10123339 -2.0502107 -0.034213096 0.13112439 -2.0436366 -0.49229413
0.24193154 0.20893301 0.36174703 -0.22556221 -1.3204248 -1.7155225 -0.017995052 -0.34651184
-0.11143051 -0.07905671 0.4737575 -0.017702632 -0.085520506 -0.24737422 -0.33394015 -0.3040679
-0.33189934 -0.005031466 0.29454416 0.06603251 -0.11290721 -0.11245994 -0.040001765 0.36305624
0.325823 -0.54912084 -1.204943 -0.2299859 0.26074243 0.015867293 -0.6193386 -0.5568925
-0.3399151 0.44140366 0.5091522 -0.15964863 -0.33964428 -0.8568119 0.14412309 0.53932726
-0.18425503 -0.7585315 0.30922565 -0.79329956 0.32658395 0.25375724 -0.64564943 0.3958461
-0.26822546 -0.74487346 -0.13253312 -0.29563937 -0.26113707 -0.3780607 -0.3103959 0.50999534
-0.2251104 0.5248575 0.36467603 0.5055966 0.31224337 0.21271312 -0.79809916 -0.4049335
0.298076 -0.60220414 0.39238617 -0.29489243 -0.6432732 -0.6927034 0.9258089 0.9252702
0.29519928 -0.7345596 -0.42075586 -0.46658674 -0.25603357 -0.92593837 -0.35173428 -0.36846665
0.3825525 -0.17017171 -0.27950114 -0.7010579 -0.8454738 -0.75507754 -0.47409537 0.2076332
0.8646617 -0.20105581 0.1403635 -0.17489196 -0.1670475 0.57289004 0.78844535 -0.272677
0.030454887 -0.7930169 0.3232214 0.16689162 -0.6638004 -0.4319336 -0.41936088 0.48757774
0.7518093 -0.41271287 -0.34811917 -0.4153911 0.9153192 0.34260836 -0.09162418 -0.6830284
0.4803242 -0.71353984 0.36628172 0.31245252 0.5507561 0.34447768 0.0024436864 -1.5763309
-0.005818213 -0.22492872 -0.46632543 -0.20323613 0.100663945 0.7964538 0.18189587 0.7818344
0.58824307 0.5248934 -0.09798888 0.43664375 -0.6070367 -0.4059741 0.50110114 -0.3560573
0.3006621 -0.06296523 -0.30231375 -0.58600366 1.2313725 0.939137 0.33077797 -0.6525905
-0.32853225 -0.38706276 -0.26688746 -1.0270936 0.13718612 -0.19211008 0.29222465 -0.104774594
-0.46546057 -0.6297515 -0.66316307 -0.6708182 -1.1803173 0.032300495 0.6110823 -0.23413636
-0.1409692 0.10078448 0.07922673 0.3211236 0.52935046 0.46215022 -0.095597126 -0.7265188
0.023499575 -0.099541046 -0.423405 -0.31870133 -0.35690123 0.3911992 0.45602685 -0.2577137
-0.1760554 -0.7744384 0.77299434 0.39183187 -0.2251708 -0.5639724 0.3423483 -0.5761087
0.225199 0.30705082 -0.6346125 0.37629652 -0.13408893 -0.91848975 -0.19613439 -0.6075097
-0.3773207 -0.19119558 -0.27012706 0.47491097 -0.10104906 0.584719 0.22981933 0.30948457
0.1549445 0.34053773 -0.6602301 -0.29101232 0.1934008 -0.3482579 0.563369 -0.18091395
-0.25536856 -0.44309124 0.8465835 0.7922688 0.44664422 -0.5160177 -0.26890677 -0.26854506

model.2.bias f4 [70]
00000000: aa8f dabe 8113 29bf 7e6d 0abf a18c 11bf
00000010: 9183 2ebf 1841 b6bf 78fc 58be 15ef 4a3e
00000020: b635 14bf 744b acbe 9c4f f1be 6899 7bbd
00000030: d17b 17bd f198 233f 7523 003f ad7e 1dbf
00000040: 4338 01bf a216 2b3f 3172 3bbf 34ef 18bf
00000050: ba7b 11bf ae45 183f 25ac 24bf 255d fd3e
00000060: ea08 1dbf 365f 063f 60f7 5c3d 3ad7 1ebf
00000070: eeff 1abe 88a1 0b3f 100f 89bd 1cc2 48bf
00000080: 0fdf 023f 5019 90bd 547c 2b3f 36f3 35bf
00000090: 63cb 233f 7326 2c3e f33b 683f db3e 363f
000000a0: 446e 14bf acf5 08be 458b 263f 460a 1f3f
000000b0: 1b9d 4cbf b26d 213f 5606 aa3e c770 b53e
000000c0: ffeb 853f a499 223f dd87 26bf 59e9 203f
000000d0: 5862 1c3f bd91 e6be 08e6 1c3f d4ac ef3e
000000e0: d425 3fbf 6cb6 1abf 93f3 c43d 6560 44bf
000000f0: c723 a33e f1a4 1cbf 607d 4dbf f25c 67be
00000100: d40d 1d3f 5358 44bf f354 c33c 5e7f 4b3e
00000110: d2b2 0ebf 2291 d63e
-0.42687732 -0.66045386 -0.5407332 -0.5685521 -0.68169504 -1.4238615 -0.21190059 0.19817765
-0.57894456 -0.33651316 -0.4713105 -0.061425596 -0.036983315 0.63905245 0.50054103 -0.61521417
-0.50476474 0.6683141 -0.7322112 -0.59739995 -0.56829417 0.5948132 -0.6432517 0.49485126
-0.61341727 0.5248903 0.053946853 -0.6204716 -0.15136692 0.5454335 -0.06692326 -0.7842119
0.5112161 -0.07036078 0.66986585 -0.71074235 0.6398222 0.16811542 0.90716475 0.7118966
-0.5798075 -0.13374966 0.6505626 0.6212505 -0.79927224 0.63058007 0.3320796 0.35437605
1.0462645 0.63515687 -0.6505106 0.6285606 0.6108756 -0.45033064 0.612885 0.46811545
-0.74667096 -0.60434604 0.096167706 -0.76709586 0.31863233 -0.6118918 -0.8026943 -0.2259405
0.61349225 -0.7669727 0.023844218 0.19872805 -0.5574161 0.41907603

model.4.weight f4 [70, 70]
00000000: 33c2 593e 3a54 2abe 5252 453e 470e 8e3e
00000010: 068c 38be a38c 93bd 5f32 cc3d 44f2 313f
00000020: 447d c5be 78a8 013d e212 733e 43db 19be
00000030: 6a11 dbbf 7551 dd3e d41c 92bd e3f6 7b3e
00000040: 8ca0 8cbe 4950 d6bd 28a6 7e3e e160 803e
00000050: b3a1 88be 1460 4b3e 7cbe 4a3e 5518 2b3e
00000060: 40a2 52be 25d0 42be 67d3 4abf e3e2 29be
00000070: ac73 ac3f 158d 42bd eece 9ebf fafd e2bd
00000080: 2013 07be bf49 cf3f 5d2f 11be 8a55 9fbe
00000090: 636f 1cbe 474c bc3e 632d cdbd 04eb 553e
000000a0: 19f9 96be e2e0 223f 9ace 9abe 30e9 b43e
000000b0: 4f86 3b3e 1152 e0bd e639 b93b 1d2a 5fbe
000000c0: a242 f0bd 4315 be3b 3e62 3a3e da3a c03e
000000d0: fdc0 f23c 06c0 84be 8eed ebbd 9747 25be
000000e0: 3df6 953d eb60 38be 8f63 db3e 8d31 96be
000000f0: 07e3 9ebe 4956 5abe 37ca c7be de1c 933e
00000100: e9cf 8bbe 2ea8 c3be c3d1 9b3e 60f9 003d
00000110: 0a58 7dbe d14f 6dbd dfaf cb38 63b1 d1be
00000120: e72e 343d c92b 08be 5cb8 04bf 2aab 7f3e
00000130: b455 52be a2bc 3c3d a13a f1be ce67 15bd
00000140: cb42 52bb 610a ab3d 7c4f a83d 2a93 fdbd
00000150: e1d0 e23d 6d38 893d 5452 d6be cb1e d03e
00000160: 9b4e f1bd 7e14 173d e11d e4be 7fce f03e
00000170: 825d 16bd e569 a83e 58d1 05bf 8d53 083e
00000180: 0abf 9f3d 4014 f5be bafa 22be 508d f93c
00000190: f293 c33d 419b babe 8038 213e b0e8 4fbe
000001a0: 04dd d2bd 0565 e3be 3e72 87bc 1457 0cbe
000001b0: 822f 49bd 37d4 b43e 78e1 ebbe 33d5 873c
000001c0: 3309 debd 60f1 ac3e 1df0 ef3c ed38 f3bb
000001d0: 93c0 aa3d 9ec9 19bd e97a 4a3e 2cb7 ed3e
000001e0: 62a6 5ebe 9bca 013f a490 053f 7576 dc3d
000001f0: 0c5e 09bd c9f8 0abe 4b78 953c d1e5 04bf
00000200: 7876 3dbe 328b d1be 7873 a4bc 2f1d 05bf
00000210: 2e9a 05bf f7bd 9cbd fda3 a83d decd b6be
00000220: 1ca7 38be fe05 f5bd b8f1 d8be 6407 ad3d
00000230: 9561 e9bd 243d 143f 993b 8b3c 58dd 2f3d
00000240: 7ed8 193f be92 f4bd 8053 043e 5688 78bd
00000250: 8742 0f3f e564 833d 00e8 b73c a82b ec3d
00000260: 0fc9 3c3c 1b5c 96bd 4a4f d83c 8b58 d3bd
00000270: 8563 fc3e f175 63bf 79f6 993d 7779 4f3c
00000280: 77e4 113f 5dca 03bf 3795 a03d fe5e fdbe
00000290: 32d1 253f 1958 1bbe 08d7 42bd 9f70 103f
000002a0: 0b77 f9ba 7dbc 28be 8fda 763c 2b02 733f
000002b0: 8935 13be 48aa b4ba 2d2e 8a3d 21be 143f
000002c0: f476 d6bd 44bf f53d adac 79bd f15e 22bf
000002d0: 9417 1f3f b842 c63d 3ef6 1b3d a7ae 0cbf
000002e0: 2dfd 223e 9f5f fbbd 84b3 db3b 867e a6bc
000002f0: 5d64 77be 8f37 65bf 46a9 673e 8af3 1ebf
00000300: 7704 5abf 7c97 e8bd ce27 afbd 856e e03d
00000310: 22d7 003d 1514 e53e 7e31 153d 45f4 f43e
00000320: 3dc4 b9bd 8cad 263f 7433 cb3e 37e6 8c3d
00000330: 360c 0abe 95ae 233f c858 81bd 7dd4 1abe
00000340: 9d9a 0d3f 009b d93d 5de7 6ebc 6baa e5be
00000350: 21e5 12bd a444 c0bd 897e bbbe 5d5b 913e
00000360: 5038 f3bd d77c e0bb 6625 c0be d7be d7bd
00000370: 4ba0 583d 84f5 6a3d 0568 0a3e 7ebd 45be
00000380: d06b f53d ae31 933d 9e79 a7be c067 d33e
00000390: d864 3abc 613f 3dbe 35cc f2be 46ce c93e
000003a0: 612c d83d 1608 dd3e cd91 04bf 8ef9 c23d
000003b0: d438 853b 3518 ffbe 1ac3 3cbe 6b14 7e3e
000003c0: a67b d03b 0778 ccbe df93 1b3d ba89 143d
000003d0: b505 ad3d 7be3 ccbe a049 a13c f0ce 2cbc
000003e0: 663f 533d 9d6b b13e ec0f e0be 85b9 26be
000003f0: 2fcb 3c3c 6186 a13e 44aa 14be 6050 1b3e
0.21265487 -0.16633692 0.19269684 0.27745268 -0.18022165 -0.07204559 0.09970545 0.69510293
-0.38572133 0.031654805 0.23737672 -0.15025048 -1.7114689 0.4322621 -0.07134405 0.24605899
-0.27466238 -0.10464532 0.24868071 0.25073913 -0.26685867 0.1986087 0.19799227 0.167085
-0.20569706 -0.19024713 -0.79228824 -0.16590457 1.34728 -0.047497828 -1.24069 -0.110835984
-0.1319089 1.619438 -0.14178224 -0.3111995 -0.15276866 0.36776945 -0.100184225 0.20890433
-0.2948692 0.63624394 -0.3023575 0.35334158 0.18312953 -0.10953153 0.005652654 -0.21793409
-0.11731459 0.0058008744 0.18201539 0.375449 0.02963304 -0.25927752 -0.11519919 -0.1614059
0.07322357 -0.18005721 0.42849395 -0.2933468 -0.31032583 -0.21321978 -0.39021465 0.2873296
-0.2730706 -0.38214248 0.30433473 0.031487823 -0.24740615 -0.057937447 9.712553e-05 -0.40955648
0.043990042 -0.13297953 -0.5184381 0.24967638 -0.20540506 0.04607833 -0.47115043 -0.03647595
-0.0032083269 0.08351589 0.082182854 -0.12381585 0.11074997 0.067002155 -0.41859686 0.40648493
-0.11782571 0.036884777 -0.44554046 0.47032544 -0.03671027 0.3289329 -0.5227256 0.13313122
0.0780011 -0.47867012 -0.15915957 0.03046289 0.09549703 -0.36446574 0.1574421 -0.20303607
-0.10296062 -0.4441301 -0.016533967 -0.13705093 -0.049117573 0.35318157 -0.46070457 0.016581153
-0.10841598 0.33777905 0.0292893 -0.0074225576 0.08337512 -0.037545793 0.19773449 0.46428812
-0.21743158 0.50699776 0.5217383 0.107647814 -0.033536956 -0.13571467 0.018245837 -0.5191317
-0.18502223 -0.4092651 -0.020074591 -0.51997656 -0.52188385 -0.076534204 0.08234403 -0.3570394
-0.18032497 -0.119640335 -0.42371917 0.08448675 -0.113955654 0.57905793 0.016996192 0.0429357
0.60095966 -0.11942051 0.12922478 -0.060676895 0.5596089 0.064157285 0.022449493 0.11531764
0.0115225455 -0.073417865 0.026404995 -0.103196226 0.49294677 -0.8885184 0.07517714 0.012663237
0.56989235 -0.51480657 0.078409605 -0.49486536 0.6477233 -0.15170325 -0.04756835 0.56421846
-0.001903267 -0.16478153 0.015066757 0.94925183 -0.14375891 -0.0013783658 0.067470886 0.58102614
-0.10471907 0.11999372 -0.060955692 -0.6342612 0.6214535 0.09680694 0.03807663 -0.54954
0.15916891 -0.12274098 0.0067047495 -0.020324003 -0.2415938 -0.895379 0.22623166 -0.6209036
-0.8516306 -0.11357018 -0.08552514 0.1095858 0.031455167 0.44741884 0.036424153 0.47842613
-0.090706326 0.6510856 0.39687693 0.068798475 -0.1348122 0.63938266 -0.06315762 -0.1512012
0.55314046 0.10625267 -0.0145815285 -0.4485658 -0.035863046 -0.09388092 -0.36619976 0.28390017
-0.11875975 -0.0068508196 -0.37528533 -0.10534447 0.052887242 0.05736305 0.13516243 -0.19310567
0.11983454 0.0718721 -0.32709974 0.41290092 -0.011376582 -0.18481208 -0.47421423 0.39415187
0.105553396 0.43170232 -0.51784974 0.09520255 0.0040656123 -0.49823156 -0.184338 0.24812476
0.0063623963 -0.39935324 0.037982818 0.03626416 0.08448354 -0.40017304 0.019688427 -0.010547385
0.051574133 0.34652415 -0.43762147 -0.16281708 0.011523052 0.31547835 -0.14518076 0.1516738

model.4.bias f4 [70]
00000000: ac7a 593e 5382 8a3e 9230 eebe c72d b83e
00000010: f5b6 e6be 1f09 ca3e 87aa 213d 6280 c93e
00000020: d7da d43e 1644 87be 293e d73e 51d9 8abe
00000030: 71b5 ee3d 7daa db3e b22f d43e a0e4 cc3e
00000040: 29a0 cc3e 710f bfbe 3768 94be 3847 ddbd
00000050: 8a63 9bbd efb4 eabe e696 b33e 6dd7 dcbe
00000060: a264 afbe 10bd 233e 05d3 15bd ade3 9ebe
00000070: 633c f73e f4d3 9b3e b510 683e f49a f1be
00000080: 9042 293f 1ac6 aa3e 2dd2 70be b7f7 c5be
00000090: ca11 8d3e e3d2 103e 0fac cd3e a604 d5be
000000a0: af90 193e 66b3 dbbe 7366 fc3e 07d0 9b3e
000000b0: 9222 b63e f854 13be fc74 f33e f7ff ab3d
000000c0: d58b f73e 55ac f13e 47fd d6be 9ff1 b63e
000000d0: 5093 b9be 90f2 86bd 77f3 963e 17b2 a13d
000000e0: 7bc6 a23e 4705 efbe 5faf d83d e7f1 043f
000000f0: d900 a0be c594 8d3e cc0a 9a3e 0c3e d7be
00000100: 1cd8 afbd 5fd6 f83e 57a1 a33d dfdb a3be
00000110: f50b a73e dfb7 f73e
0.21238202 0.27052554 -0.4652143 0.35972425 -0.4506146 0.39460084 0.03946927 0.3935576
0.41573212 -0.26419133 0.42039612 -0.27118924 0.11655701 0.4290351 0.4144264 0.40018177
0.39965943 -0.37316468 -0.2898576 -0.108045995 -0.07587345 -0.45841166 0.35076064 -0.43133107
-0.34256464 0.1599009 -0.036578197 -0.31033078 0.4828826 0.30435145 0.22662623 -0.47188532
0.6611719 0.33354264 -0.23517676 -0.38665554 0.27552634 0.14142947 0.40170333 -0.4160511
0.14996599 -0.42910308 0.49296913 0.3043215 0.3557325 -0.14387882 0.4755019 0.08398431
0.4834887 0.4720179 -0.4199011 0.35731217 -0.36245203 -0.06589234 0.29482624 0.07895296
0.31792054 -0.46683714 0.105803244 0.51931614 -0.31250647 0.27652565 0.30086362 -0.42039526
-0.085861415 0.48601052 0.079897575 -0.32003686 0.3262631 0.4838247

model.6.weight f4 [1, 70]
00000000: 5199 7b41 3f7c 2641 79a2 25c1 e48d 2641
00000010: d023 25c1 0d5f 2541 f05b c041 5ed6 2641
00000020: d7cf 2541 8929 27c1 498c c141 8fde c2c1
00000030: a21e bc41 8df5 2541 f757 2641 c43d 2641
00000040: a005 2741 670c 26c1 141c 26c1 810b b741
00000050: c6a6 bc41 dcd4 26c1 e085 2641 ae05 26c1
00000060: 0c06 26c1 c61c bc41 e8e6 ad41 1aaa 26c1
00000070: 69f6 2541 d952 2541 475c b2c1 5e16 27c1
00000080: 39c5 2541 2789 2641 8948 26c1 2224 27c1
00000090: c0df 2641 886c b6c1 a8fd 2641 b1d7 25c1
000000a0: 5b12 b741 ff12 27c1 abdb 2541 a1da c041
000000b0: 1b8b 2541 c118 ad41 01d5 2641 a9ad b5c1
000000c0: e699 2641 0770 2541 bbb1 25c1 9982 2541
000000d0: 8014 26c1 065a c2c1 7c29 b2c1 64b2 b9c1
000000e0: 2232 2641 2c53 26c1 ffab b6c1 1591 2541
000000f0: ac06 26c1 b270 c041 686c 2641 9e22 26c1
00000100: 6fa0 ba41 7092 2641 6576 bf41 b5d0 26c1
00000110: 34e6 2541 7711 2641
15.724931 10.4053335 -10.352166 10.409641 -10.321243 10.335706 24.044891 10.427336
10.363242 -10.44764 24.193499 -24.358671 23.514957 10.372449 10.396476 10.3900795
10.438873 -10.378028 -10.381855 22.880617 23.581432 -10.426968 10.407684 -10.376387
-10.376476 23.51405 21.737747 -10.416529 10.372659 10.3327265 -22.295057 -10.442961
10.36065 10.408484 -10.392709 -10.4463215 10.429626 -22.802994 10.436928 -10.365159
22.883963 -10.442138 10.36613 24.106752 10.346461 21.637087 10.427003 -22.709795
10.412573 10.33985 -10.355891 10.344384 -10.380005 -24.293957 -22.270256 -23.212105
10.387239 -10.395306 -22.833982 10.34792 -10.376629 24.055027 10.401466 -10.383451
23.328337 10.410751 23.93281 -10.425954 10.368702 10.379264
