result/best_model_func5.pth (torch, 51563 bytes, 19 tensors)

model.0.weight f4 [70, 4]
0	0x3ed3121d	0.41224757
1	0x3ded5562	0.11588551
2	0x3f2c6921	0.67347914
3	0x3e067713	0.1313136
4	0x3eaae9e5	0.33381572
5	0x3de93208	0.11386496
6	0x3f0003c7	0.50005764
7	0x3df7b007	0.120941214
8	0x3f044280	0.5166397
9	0x3e566a81	0.20939066
10	0x3f328d2d	0.6974667
11	0x3e0bffba	0.1367177
12	0xbed576e1	-0.4169226
13	0xbe00b03e	-0.12567231
14	0xbf3c57a0	-0.73571205
15	0xbe05502f	-0.13018869
16	0xbebb0119	-0.36524275
17	0xbe36c810	-0.17849755
18	0xbf2fa1a5	-0.68606025
19	0xbde143c7	-0.109992556
20	0xbec15a2f	-0.37764117
21	0xbdabf764	-0.083967954
22	0xbf227fd9	-0.6347633
23	0xbe1ae334	-0.15125734
24	0x3f04f3c2	0.51934445
25	0x3e4e9edd	0.20177789
26	0x3f44c0e3	0.7685682
27	0x3e04a960	0.12955236
28	0xbed80711	-0.4219289
29	0xbe236fa7	-0.1596056
30	0xbf513f1e	-0.81736934
31	0xbe627f85	-0.22118957
32	0xbec7ce79	-0.39024714
33	0xbde124b4	-0.10993329
34	0xbf24aacf	-0.64323133
35	0xbe351a3f	-0.17685793
36	0xbef3374c	-0.47503126
37	0xbe209238	-0.15680778
38	0xbf521638	-0.82065153
39	0xbe261daf	-0.16222261
40	0x3ec0e5f5	0.37675443
41	0x3df26c94	0.11837116
42	0x3f290e54	0.6603749
43	0x3e052c6f	0.13005231
44	0x3ef92584	0.48661435
45	0x3e19685d	0.14981218
46	0x3f4205cc	0.75790095
47	0x3db5c696	0.08875768
48	0xbef0f375	-0.47060743
49	0xbe2101d6	-0.15723357
50	0xbf45f6b5	-0.7732957
51	0xbe26b906	-0.16281518
52	0x3e9fb76f	0.31194636
53	0x3de860d5	0.11346594
54	0x3f04dbb9	0.5189777
55	0x3e198bbd	0.14994712
56	0xbef40a7e	-0.47664255
57	0xbe26b7e4	-0.16281086
58	0xbf46aac7	-0.77604336
59	0xbe551ce4	-0.20811802
60	0xbeebac36	-0.46029824
61	0xbe32ee96	-0.17473826
62	0xbf399f0a	-0.725083
63	0xbdebb6b1	-0.11509455
64	0x3eba58e9	0.36395958
65	0x3df8d74c	0.121504396
66	0x3f19bbc7	0.6005215
67	0x3d8d14f1	0.0688876
68	0x3e9e3a24	0.30903733
69	0x3d894ef3	0.067045115
70	0x3efb6afe	0.49105066
71	0x3dbbfdf1	0.09179295
72	0x3ed73d67	0.42039034
73	0x3e082ad5	0.13297589
74	0x3f303980	0.6883774
75	0x3e30dc50	0.17271543
76	0xbe97c5d3	-0.29643115
77	0xbde362ba	-0.11102815
78	0xbf1a1c1c	-0.6019914
79	0xbdf13568	-0.117777646
80	0x3ec26057	0.37964126
81	0x3ddec651	0.108776696
82	0x3f36625d	0.7124384
83	0x3df2425a	0.11829062
84	0x3eb26794	0.3484465
85	0x3d88e1c1	0.06683684
86	0x3f14d155	0.58131915
87	0x3dee952c	0.11649546
88	0x3ed6173f	0.4181461
89	0x3e1cf1d7	0.1532663
90	0x3f3dc986	0.74135625
91	0x3df798b9	0.120896764
92	0xbf0b45c5	-0.54403335
93	0xbe605f1f	-0.21911286
94	0xbf50fd98	-0.81636953
95	0xbe1393f1	-0.14411904
96	0xbec6b761	-0.38811782
97	0xbdd3e678	-0.10346693
98	0xbf21fabf	-0.63273233
99	0xbe0b510d	-0.13605137
100	0xbeecd814	-0.46258605
101	0xbe0dc669	-0.13845219
102	0xbf485123	-0.78248805
103	0xbe1bb932	-0.15207365
104	0x3ee667db	0.4500111
105	0x3e5411d1	0.20709921
106	0x3f55cb94	0.8351376
107	0x3e1d5120	0.15362978
108	0x3e9eb9b8	0.31001067
109	0x3df29d7d	0.11846445
110	0x3f0ae4f9	0.54255635
111	0x3dbef844	0.09324697
112	0xbed41f85	-0.41430297
113	0xbe155010	-0.14581323
114	0xbf3d40ef	-0.73927206
115	0xbe1021d1	-0.140754
116	0xbf055444	-0.52081704
117	0xbe578ab6	-0.21049008
118	0xbf6172ff	-0.88066095
119	0xbe2225fa	-0.158348
120	0x3f2216f3	0.6331627
121	0x3deaf0b6	0.11471693
122	0x3f53e7eb	0.82775754
123	0x3e4bec14	0.19914275
124	0xbef851e7	-0.48499987
125	0xbdf293b1	-0.11844576
126	0xbf3b66e5	-0.7320388
127	0xbe1fb4f9	-0.1559638
128	0x3ece5f01	0.40306857
129	0x3e27f211	0.16400935
130	0x3f30d028	0.6906762
131	0x3e33961c	0.17537731
132	0x3efb64ce	0.49100345
133	0x3e0892d9	0.13337268
134	0x3f38dd46	0.72212636
135	0x3e0f42aa	0.13990274
136	0xbee8bace	-0.4545502
137	0xbe1f2328	-0.15540755
138	0xbf508a0c	-0.8146064
139	0xbe12bd58	-0.14330041
140	0xbedc4bb0	-0.43026495
141	0xbe27636b	-0.16346519
142	0xbf2bbb85	-0.6708301
143	0xbe1b5904	-0.15170676
144	0xbed0b5e5	-0.40763775
145	0xbe0aed48	-0.13567078
146	0xbf39d623	-0.7259237
147	0xbdd98736	-0.106214926
148	0xbec66616	-0.3874976
149	0xbdea995b	-0.114550315
150	0xbf26168a	-0.6487814
151	0xbe07851a	-0.13234368
152	0x3ef13b3c	0.47115505
153	0x3e0a90d7	0.13531815
154	0x3f2d5256	0.6770376
155	0x3e1baf3c	0.15203565
156	0xbed78732	-0.42095333
157	0xbdfde8e8	-0.12397939
158	0xbf30fe44	-0.6913798
159	0xbdf4ea3b	-0.119587384
160	0x3ee1aaa9	0.44075516
161	0x3e3a76f8	0.18209445
162	0x3f418abc	0.75602317
163	0x3e1855b2	0.1487644
164	0xbeb7fad7	-0.35933563
165	0xbe19a220	-0.15003252
166	0xbf308738	-0.6895633
167	0xbe1ac53d	-0.15114303
168	0x3eb59c9f	0.35471055
169	0x3da49e13	0.08037963
170	0x3f04eb08	0.5192113
171	0x3de46eb7	0.1115393
172	0xbf0b92ac	-0.5452068
173	0xbe4837ab	-0.19552486
174	0xbf6ff584	-0.93734
175	0xbe1a7482	-0.15083507
176	0xbec7491a	-0.3892296
177	0xbe3a422c	-0.18189305
178	0xbf0c2311	-0.5474101
179	0xbe0928d8	-0.13394487
180	0xbef6e0b1	-0.482183
181	0xbe07cbff	-0.13261412
182	0xbf312452	-0.69196045
183	0xbe2d304a	-0.16912952
184	0x3ed54c04	0.41659558
185	0x3e0adb20	0.13560152
186	0x3f2f7ee9	0.68553025
187	0x3e219b15	0.15781815
188	0xbeeb63ab	-0.45974478
189	0xbe29fc3b	-0.16600125
190	0xbf391ca0	-0.72309303
191	0xbde52970	-0.11189544
192	0xbef6a765	-0.48174587
193	0xbe5c0cf9	-0.21489324
194	0xbf542815	-0.8287366
195	0xbe1717d7	-0.14755188
196	0xbebdfbcc	-0.37106168
197	0xbdfcab26	-0.123373315
198	0xbf2670bf	-0.65015787
199	0xbdd4a064	-0.103821546
200	0xbefa9359	-0.48940542
201	0xbe2812da	-0.16413441
202	0xbf55c472	-0.83502877
203	0xbe41817a	-0.18897048
204	0x3ef33d0f	0.47507522
205	0x3e32b0b1	0.17450215
206	0x3f39a6bf	0.7252006
207	0x3e247c52	0.1606305
208	0xbebc1feb	-0.367431
209	0xbda440e1	-0.08020187
210	0xbf2120ea	-0.6294085
211	0xbde84ce1	-0.113427885
212	0xbf0df614	-0.5545361
213	0xbe641933	-0.22275238
214	0xbf5ed718	-0.87046957
215	0xbe482f1a	-0.19549218
216	0xbee54cf5	-0.44785276
217	0xbe2b6ab9	-0.1673993
218	0xbf36b0d7	-0.71363586
219	0xbe1d2e1f	-0.15349625
220	0x3ec03b99	0.3754547
221	0x3e171673	0.14754657
222	0x3f32176c	0.6956699
223	0x3e08fdc7	0.13378058
224	0xbedfe783	-0.43731317
225	0xbe0490ae	-0.12945816
226	0xbf3da801	-0.7408448
227	0xbe1e2bb6	-0.15446362
228	0x3ee258fb	0.44208512
229	0x3da4af31	0.080412276
230	0x3f4bb156	0.7956747
231	0x3e1cd797	0.15316616
232	0xbf01a227	-0.5063805
233	0xbe1c7aca	-0.15281215
234	0xbf4b0d3b	-0.79317063
235	0xbdebc2f9	-0.115117975
236	0x3eccf414	0.40029967
237	0x3e13095d	0.1435904
238	0x3f27156a	0.6526705
239	0x3e1ea53f	0.15492724
240	0x3ed00c5b	0.40634426
241	0x3e2618c8	0.16220391
242	0x3f35aad5	0.70963794
243	0x3df2a305	0.118475
244	0x3ec1f84d	0.3788475
245	0x3e0a5506	0.13508996
246	0x3f158d58	0.584188
247	0x3e170db6	0.14751324
248	0x3edde2dc	0.43337142
249	0x3e015220	0.12628984
250	0x3f3a654e	0.7281083
251	0x3debf3df	0.11521124
252	0xbeef106c	-0.46692216
253	0xbe1e4557	-0.15456139
254	0xbf45d2b5	-0.7727464
255	0xbdf5fd5e	-0.120112166

model.0.bias f4 [70]
0	0xbf36ffbf	-0.7148399
1	0xbf3176ae	-0.69321716
2	0x3f98cb94	1.1937127
3	0x3f3a0f9d	0.72680074
4	0xbe469c42	-0.19395545
5	0x3f1f16e1	0.62144285
6	0xbf164fe1	-0.58715636
7	0xbe73a078	-0.23791683
8	0x3f80bc74	1.0057511
9	0x3f3ffcd6	0.7499517
10	0xbe333b15	-0.17503007
11	0x3ff33bfb	1.900268
12	0x3e775793	0.241545
13	0xbdbded91	-0.09273828
14	0x3f381b71	0.7191687
15	0x3f4086ed	0.7520588
16	0x3f027f04	0.5097506
17	0xbf926e49	-1.1439906
18	0xbe9ab4e3	-0.3021613
19	0xbd03dc73	-0.03219266
20	0xbf781330	-0.9690428
21	0xbf531fd4	-0.8247044
22	0xbf3e8670	-0.74423885
23	0x3f16b3c6	0.5886806
24	0x3e7cc732	0.24685362
25	0x3f94645f	1.1593131
26	0x3fae6910	1.3625813
27	0xbef05e29	-0.46946838
28	0x3f5d4344	0.86430764
29	0x3f5198f2	0.81874
30	0x3f901986	1.1257789
31	0x3f8a62ad	1.0811363
32	0xbf764beb	-0.9620959
33	0xbed4834a	-0.41506416
34	0xbcd8a57b	-0.026446095
35	0x3f358be6	0.70916593
36	0x3f4a34d7	0.7898688
37	0xbf2643fd	-0.6494749
38	0xbf7c7e34	-0.9863007
39	0x3dc22d2d	0.09481273
40	0xbf05c654	-0.5225575
41	0x3f8964b9	1.0733863
42	0xbd416733	-0.04721756
43	0x3ea95455	0.33072153
44	0x3f325afa	0.6967007
45	0x3ee68340	0.4502201
46	0xbf026cd7	-0.50947326
47	0x3d35732a	0.044299282
48	0x3f236471	0.63825136
49	0x3e9a7a31	0.3017135
50	0x3f9b40db	1.2129167
51	0x3e622ed1	0.22088172
52	0x3e90fdf2	0.28318745
53	0x3f30251d	0.6880663
54	0x3f347a2a	0.7049891
55	0x3eadd596	0.33952016
56	0x3f5f9637	0.87338585
57	0x3e6214cc	0.22078246
58	0x3f538651	0.82626826
59	0xbe4081af	-0.1879947
60	0x3d998353	0.07495751
61	0xbe2b8fc6	-0.16754064
62	0xbf25f77d	-0.6483076
63	0x3dbb27d1	0.09138454
64	0xbf866874	-1.0500627
65	0x3f62bed3	0.88572425
66	0xbe92b0a9	-0.28650406
67	0x3de96d6b	0.11397823
68	0xbe2831ea	-0.1642529
69	0xbeeb609c	-0.45972145

model.1.weight f4 [70]
0	0x3df9d438	0.12198681
1	0x3e2b15c8	0.16707528
2	0x3ff2c86c	1.8967414
3	0x3e085761	0.13314582
4	0x3e7d46bd	0.24734016
5	0x3dbafbcc	0.09130058
6	0x3e84d703	0.2594529
7	0x3fb6812c	1.425817
8	0x3dfc58a9	0.12321598
9	0x3e035a25	0.12827356
10	0x3e88a493	0.2668806
11	0x3fe5d9d9	1.7957107
12	0x3e03cc86	0.12870988
13	0x3e8d6b73	0.2762104
14	0x3e036fc5	0.12835605
15	0x3de5c104	0.112184554
16	0x3f8d60aa	1.1045125
17	0x3e80d4e7	0.25162432
18	0x3dd4121c	0.103550166
19	0x3f5d6f43	0.86497897
20	0x3dd1221f	0.10211586
21	0x3e9f798f	0.3114743
22	0x3def5c80	0.11687565
23	0x3eaae837	0.3338029
24	0x3e0d3721	0.13790561
25	0x3e07960b	0.1324083
26	0x3fdbfb56	1.7186077
27	0x3dc1f361	0.09470249
28	0x3dddd0ed	0.10830865
29	0x3dfc1acd	0.12309799
30	0x3fedae75	1.8568865
31	0x3dbace97	0.09121435
32	0x3e9fbc7d	0.31198493
33	0x3e0ab467	0.1354538
34	0x3fad99ed	1.35626
35	0x3f5e8020	0.86914253
36	0x3de5719f	0.11203312
37	0x3fe26f48	1.769021
38	0x3de735b3	0.11289539
39	0x3df4cc57	0.11953037
40	0x3dd74367	0.10510903
41	0x3e06ccdd	0.13164087
42	0x3e66cfb2	0.22540167
43	0x3df8ac50	0.12142241
44	0x3e1766c2	0.14785293
45	0x3e1bd1dd	0.15216775
46	0x3e00f5d5	0.12593777
47	0x3e804610	0.25053453
48	0x3de9dadc	0.11418697
49	0x3e96c8ce	0.29450077
50	0x3df675fa	0.12034221
51	0x3df8b687	0.12144189
52	0x3df4f7ef	0.11961352
53	0x3df5ea2e	0.12007557
54	0x3ded7a2e	0.115955696
55	0x3fc3e209	1.5303355
56	0x3df95f35	0.121763624
57	0x3f8935ac	1.0719504
58	0x3e5b6a39	0.2142724
59	0x3ebc6896	0.36798543
60	0x3e9aa1c8	0.30201554
61	0x3e133c7b	0.1437854
62	0x3e031b9a	0.12803498
63	0x3dd62e06	0.10457997
64	0x3e7a062f	0.24416421
65	0x3df2dc8c	0.11858472
66	0x3fc75598	1.5572996
67	0x3eb9d8fa	0.36298352
68	0x3e798c57	0.24369942
69	0x3dffec98	0.124962986

model.1.bias f4 [70]
0	0x3d62dbec	0.055385515
1	0xbdf5b5ed	-0.1199759
2	0xc050a1aa	-3.2598672
3	0xbd9ea516	-0.077463314
4	0x3e44f080	0.19232368
5	0xbd94dbd4	-0.072684914
6	0xbe1cddb0	-0.15318942
7	0x400f58d1	2.239796
8	0xbdb9ed9b	-0.09078523
9	0xbd98a626	-0.07453565
10	0xbe3a4803	-0.18191533
11	0xc0394c91	-2.8952982
12	0xbdcd66fb	-0.100294076
13	0xbdc932c3	-0.09824135
14	0xbda9f6e1	-0.082990415
15	0xbd3e5aa5	-0.046473164
16	0xbfb17f1a	-1.3866913
17	0xbe1748f1	-0.14773919
18	0x3d8f522b	0.06998094
19	0x3f77c120	0.9677906
20	0x3dabf64e	0.08396588
21	0xbe5e79fc	-0.21726221
22	0x3d953725	0.072859086
23	0x3df17ea3	0.11791732
24	0xbd94f818	-0.07273883
25	0xbd5edb5d	-0.05440842
26	0xc0396b68	-2.8971806
27	0x3ddf11c8	0.108920634
28	0xbd6316b5	-0.055441577
29	0xbd85a59a	-0.065257266
30	0xc055c935	-3.3404057
31	0xbd8e0470	-0.0693444
32	0xbe653ed5	-0.2238725
33	0x3db28c09	0.08718116
34	0x3fe59aa5	1.7937819
35	0x3f8539da	1.040828
36	0xbd45fa3f	-0.048334356
37	0x4038137e	2.8761897
38	0x3d99d75a	0.07511778
39	0xbd9f3d13	-0.07775321
40	0x3d45f292	0.048327036
41	0xbd921890	-0.07133591
42	0xbdad9ffa	-0.08477779
43	0xbd997d1c	-0.07494566
44	0xbd87ddac	-0.066340774
45	0xbd7b9c6e	-0.06142848
46	0x3d91ce49	0.07119424
47	0x3e4a3433	0.19746475
48	0xbd3f3366	-0.046679877
49	0x3e19fe4a	0.1503841
50	0xbd5273cb	-0.05137996
51	0x3ddf1c17	0.108940296
52	0xbda3bb13	-0.07994666
53	0xbd447672	-0.04796452
54	0xbdd3680e	-0.10322581
55	0xc0174f2f	-2.364208
56	0xbd9b857d	-0.0759382
57	0xbfacf6a8	-1.3512774
58	0x3e025af0	0.12730002
59	0xbe52cc1a	-0.20585671
60	0xbe998896	-0.2998702
61	0x3db8352d	0.089945175
62	0x3d97227b	0.073796235
63	0xbdbf580d	-0.09342966
64	0xbde02f1c	-0.109464854
65	0xbdcde820	-0.1005404
66	0x401ff163	2.499108
67	0x3e8b52ae	0.27211517
68	0x3e3d5d68	0.18492663
69	0x3dbccf96	0.092192814

model.1.running_mean f4 [70]
0	0x40be9bcd	5.9565187
1	0x4094df28	4.6522408
2	0x410f9cbf	8.975768
3	0xc0ca483f	-6.321319
4	0xc0dc8cc1	-6.892182
5	0xc0b41058	-5.626995
6	0x40f01aa1	7.5032506
7	0xc10521d5	-8.32076
8	0xc0b2c3b3	-5.586389
9	0xc0e9c1a1	-7.3048863
10	0x40c81796	6.252879
11	0x4114c2d6	9.297567
12	0xc0f2f0de	-7.5919027
13	0x40ac1a8e	5.3782415
14	0xc0ec275f	-7.379806
15	0xc0d3ff63	-6.624925
16	0x40c80b8b	6.251409
17	0x406a3a6a	3.6598153
18	0x40d83e3e	6.757598
19	0xc0b52e95	-5.6619363
20	0x40b3a57d	5.613951
21	0x40988538	4.766262
22	0x40cdcde4	6.431383
23	0xc1002bd1	-8.010697
24	0xc0c149ba	-6.04025
25	0xc0d0d62e	-6.526145
26	0x4119579c	9.583889
27	0x409be658	4.871868
28	0xc0cadf95	-6.3397927
29	0xc1007847	-8.029365
30	0x411f9692	9.97426
31	0xc0cc37ed	-6.381827
32	0x40c7599b	6.229688
33	0x40dfe6ec	6.9969387
34	0xc0faf6da	-7.8426332
35	0xc0c9fc21	-6.3120275
36	0xc0c289e5	-6.079333
37	0xc0e0b2ae	-7.0218115
38	0x40c5c285	6.179995
39	0xc0d6a473	-6.7075744
40	0x40e30fc8	7.0956764
41	0xc0b653e7	-5.697742
42	0x40a88cd3	5.2671905
43	0xc10cb802	-8.794924
44	0xc0b2962d	-5.580832
45	0xc0dd01f2	-6.9064875
46	0x40ce95cd	6.455786
47	0xc0e88460	-7.266159
48	0xc0f6f0d4	-7.716898
49	0xc0beb916	-5.9600935
50	0xc0e58668	-7.172657
51	0x40fc4ba2	7.8842325
52	0xc0b5bf8a	-5.679631
53	0xc107feb3	-8.499682
54	0xc0d5d143	-6.6817946
55	0x40e1c7c9	7.055638
56	0xc0cdaaad	-6.4270844
57	0x40f10abf	7.532562
58	0xc0e042eb	-7.0081687
59	0x40d26bb6	6.5756483
60	0x40e10e1f	7.032974
61	0x40c1199e	6.034377
62	0x40cc57bb	6.3857093
63	0xc0ef01cd	-7.46897
64	0x4070473d	3.754348
65	0xc0bc1aa2	-5.878251
66	0xc0f42307	-7.629276
67	0xc0fa4532	-7.8209467
68	0xc0f9dac6	-7.8079557
69	0x40b77494	5.7329807

model.1.running_var f4 [70]
0	0x40aee6c8	5.4656715
1	0x404f677f	3.240692
2	0x40dad2bb	6.838224
3	0x40c7ef4a	6.24796
4	0x40ac719a	5.3888674
5	0x40996aad	4.794272
6	0x40f54bee	7.6655188
7	0x40f682ec	7.7034817
8	0x40a23eeb	5.0701804
9	0x40fd7c23	7.9214034
10	0x40a1ac86	5.05231
11	0x40e08fa2	7.0175333
12	0x40e81d97	7.253612
13	0x40556f93	3.334935
14	0x40f11db5	7.5348763
15	0x40d09a6d	6.518851
16	0x4088eac7	4.2786593
17	0x403acd0e	2.9187655
18	0x40ba3280	5.8186646
19	0x407dd017	3.9658258
20	0x40b48e48	5.6423683
21	0x407eb74d	3.9799378
22	0x40cb8fb6	6.361293
23	0x4109b863	8.607516
24	0x409b18c4	4.846773
25	0x40e76b03	7.231813
26	0x4100e816	8.056662
27	0x405bdea4	3.435464
28	0x40ca915b	6.3302436
29	0x41153417	9.325217
30	0x411870af	9.527511
31	0x40d81857	6.752971
32	0x40b97e18	5.7966423
33	0x40d5587f	6.6670527
34	0x40f49ee6	7.644397
35	0x40b7fdea	5.7497454
36	0x40c11e35	6.0349374
37	0x40a1664a	5.0437365
38	0x40c0b5fc	6.022215
39	0x40b62d56	5.693034
40	0x40dbb3f5	6.8657174
41	0x40aceffd	5.4042954
42	0x405cae14	3.448125
43	0x41255d21	10.335237
44	0x40862347	4.1918063
45	0x40ca4702	6.321168
46	0x40b7012f	5.7188945
47	0x40cdb0f9	6.427853
48	0x4103a4eb	8.227763
49	0x409c153d	4.8775926
50	0x41054a62	8.33066
51	0x40d76687	6.7312655
52	0x4092c5af	4.5866313
53	0x411a4d84	9.643925
54	0x40cc2be2	6.380357
55	0x40b2c430	5.5864487
56	0x40d07501	6.5142827
57	0x40e5cda8	7.1813545
58	0x40f69032	7.705102
59	0x40a8243f	5.2544246
60	0x40bcac07	5.8959994
61	0x408c46d6	4.383647
62	0x40c717b2	6.2216425
63	0x40e48102	7.140748
64	0x402b449a	2.676062
65	0x40a89b4f	5.2689586
66	0x40c3c6a5	6.1179986
67	0x41043ed5	8.26534
68	0x40e38f25	7.1112237
69	0x408f7f02	4.484254

model.4.weight f4 [70, 70]
0	0x3dbaf47e	0.091286644
1	0x3da9fda7	0.083003335
2	0x3dafd1dd	0.0858495
3	0xbe5ec43a	-0.21754542
4	0xbd8b7509	-0.06809432
5	0xbe8fe4c8	-0.28104234
6	0x3a8fd915	0.001097473
7	0x3b25dca7	0.002530852
8	0xbecabc9a	-0.39597017
9	0xbea01dc7	-0.31272718
10	0x3d631d82	0.055448063
11	0x3d147113	0.03624065
12	0xbef1c7dc	-0.47222793
13	0x3dbb7a0b	0.09154137
14	0xbe704a90	-0.23465943
15	0xbe1f0e4a	-0.15532795
16	0x3d14209c	0.03616391
17	0x3d9262d4	0.07147756
18	0x3e3b2b41	0.18278219
19	0xbce05612	-0.027384792
20	0x3e694ddc	0.22783607
21	0x3d2bfd72	0.04198975
22	0x3e787e54	0.2426694
23	0xbcf9ac05	-0.030477533
24	0xbe55adf4	-0.20867139
25	0xbf203cc2	-0.6259271
26	0x3ca55a9d	0.02018481
27	0x3e85b662	0.2611571
28	0xbe5096cd	-0.20370026
29	0xbebccd44	-0.36875355
30	0x3e1970ad	0.14984389
31	0xbe4dd696	-0.2010139
32	0x3d265378	0.040606946
33	0x3e66b6e7	0.22530709
34	0xbd14fbdf	-0.036373015
35	0xbd08a148	-0.033356935
36	0xbea179b3	-0.31538162
37	0xbdf03842	-0.1172948
38	0x3eb6d1a5	0.3570682
39	0xbe3d6f2b	-0.18499438
40	0x3e498ed0	0.19683385
41	0xbec5a519	-0.38602522
42	0x3daa60d6	0.08319251
43	0xbf16c372	-0.58891976
44	0xbe6535ec	-0.22383851
45	0xbe6f5a09	-0.2337419
46	0x3ef906cf	0.48638007
47	0xbdf12b0c	-0.11775789
48	0xbed2a7c3	-0.41143617
49	0xbd10e93f	-0.03537869
50	0xbf07108c	-0.52759624
51	0x3e861ea6	0.26195258
52	0xbe5caf81	-0.21551324
53	0xbe93b503	-0.28849038
54	0xbedd0d7e	-0.43174356
55	0x3d136160	0.035981536
56	0xbe966a00	-0.29377747
57	0x3d1bb91c	0.03801833
58	0xbe01fca7	-0.12694035
59	0xbcc04fa4	-0.023475476
60	0x3d485736	0.048911296
61	0x3e9af67c	0.30266178
62	0x3f07fcd0	0.53120136
63	0xbec7dec7	-0.39037153
64	0x3d96ede6	0.07369594
65	0xbe4427d8	-0.19155824
66	0x3b0a95b9	0.002114637
67	0xbdcb06cb	-0.09913405
68	0xbda34e76	-0.079739496
69	0x3e9fb096	0.31189412
70	0x3efa0976	0.48835343
71	0x3c93b5da	0.01803105
72	0xbde715ca	-0.11283453
73	0xbf10e40f	-0.5659799
74	0xbc4334fc	-0.011914488
75	0xbe80d08d	-0.25159112
76	0x3d3db193	0.046311926
77	0x3cea67dc	0.028613977
78	0xbe5f12c9	-0.2178451
79	0xbf17116c	-0.5901096
80	0x3bfa8c7e	0.0076461425
81	0xbd39cb41	-0.045359854
82	0xbed0b39a	-0.40762025
83	0x3d61bf09	0.055113826
84	0xbe9612a0	-0.29311085
85	0xbeb61aaa	-0.35567218
86	0x3ba7e81f	0.0051241065
87	0x3ca91cbc	0.020643584
88	0x3eb781ed	0.35841313
89	0xbd411a8d	-0.04714446
90	0x3f31b4b4	0.69416356
91	0x3d968a1a	0.073505595
92	0x3ecad9b0	0.39619207
93	0xbd1291d6	-0.03578361
94	0xbed1cb99	-0.40975645
95	0xbed42d79	-0.41440943
96	0xbe047cf6	-0.12938294
97	0x3ece7f19	0.40331343
98	0xbebf46ca	-0.37358695
99	0xbec9f708	-0.39446282
100	0xbddc512d	-0.107576706
101	0xbf111c6a	-0.5668398
102	0x3d9c5c34	0.07634774
103	0x3e34d788	0.17660344
104	0x3d6bcc55	0.057567913
105	0xbcf55e15	-0.029952088
106	0xbedc05c5	-0.42973152
107	0x3cf63f4f	0.030059485
108	0x3e7a7fea	0.24462858
109	0xbed875a8	-0.42277265
110	0x3f2918e9	0.66053635
111	0xbea7b6b9	-0.32756594
112	0xbc06c548	-0.008225746
113	0xbec9ca21	-0.39412025
114	0xbd100849	-0.03516415
115	0xbe399ba5	-0.1812578
116	0x3ebdcc3c	0.3706988
117	0xbdacdcb9	-0.08440537
118	0xbec6c442	-0.38821608
119	0xbd11a108	-0.035553962
120	0xbea60aa4	-0.32429993
121	0x3e11afc2	0.14227203
122	0xbe9bda15	-0.3043982
123	0xbeb9b4e5	-0.36270824
124	0xbeeec5b0	-0.466352
125	0x3c7022dd	0.01465675
126	0xbeff9208	-0.499161
127	0xbd62698a	-0.05527643
128	0xbd0b6697	-0.034033384
129	0x3e07a1ef	0.13245367
130	0x3d796018	0.060882658
131	0x3ece802b	0.4033216
132	0x3eb98cc5	0.3624021
133	0xbef93118	-0.48670268
134	0x3dbe0abb	0.092793904
135	0xbe8e37a9	-0.2777684
136	0x3b9346b9	0.004494515
137	0xbd0986e2	-0.0335759
138	0xbd523908	-0.05132392
139	0x3cfd505a	0.030922104
140	0xbd1c2446	-0.03812053
141	0x3ef7f389	0.4842799
142	0x3ccdf72f	0.02514228
143	0x3df334dd	0.11875317
144	0xbe784e5e	-0.24248645
145	0x3ddd8a16	0.108173534
146	0x3e8650c3	0.2623349
147	0x3d05ae7d	0.032637108
148	0x3dc8ce47	0.09804969
149	0x3e0d5748	0.13802826
150	0x3e82f9c0	0.2558117
151	0xbd0beb15	-0.03415974
152	0x3da2b14a	0.079439715
153	0x3e99542b	0.29947028
154	0xbb32ec0f	-0.0027301346
155	0x3d83a7b0	0.06428468
156	0x3b76e2e1	0.0037671851
157	0x3e6810a5	0.226626
158	0xbe2fe8f6	-0.17178711
159	0xbd16cc87	-0.036816146
160	0xbe4d027c	-0.20020479
161	0x3e66de1f	0.2254567
162	0xbe4ebf32	-0.20190123
163	0xbe4ab280	-0.19794655
164	0x3e27a0bd	0.1636991
165	0x3ddb555c	0.107096404
166	0xbca75a17	-0.0204287
167	0xbe270243	-0.16309457
168	0x3d8201d6	0.063480064
169	0x3dd7418a	0.105105475
170	0x3c03c065	0.008041476
171	0x3df388b6	0.1189131
172	0x3e696afb	0.22794716
173	0xbdca43be	-0.09876202
174	0xbc8995d2	-0.016795073
175	0xbca661cf	-0.02031031
176	0x3e9345ca	0.28764182
177	0xbb399760	-0.0028318986
178	0xbdbd85c6	-0.09254031
179	0x3e42ce2f	0.19023965
180	0xbcfbbc02	-0.030729298
181	0x3e321fa1	0.17394878
182	0x3ddc947a	0.10770507
183	0x3e811b49	0.2521613
184	0x3da45468	0.08023912
185	0x3d4dbb70	0.050227582
186	0xbe32b0d5	-0.17450269
187	0xbe8bc147	-0.27295896
188	0x3e5279ac	0.20554227
189	0xbe727937	-0.23679052
190	0x3dc44846	0.095840976
191	0xbe0c2079	-0.13684262
192	0x3e4dd1b2	0.20099524
193	0x3d001d4d	0.031277943
194	0x3e40dead	0.18834944
195	0x3beb37f5	0.0071783015
196	0x3ccc9261	0.024972143
197	0xbba70a6e	-0.005097679
198	0xbe534674	-0.20632344
199	0x3e63263a	0.22182551
200	0x3e527a99	0.2055458
201	0xbdcd07c3	-0.10011246
202	0xbdb773ab	-0.08957609
203	0x3e53df8a	0.20690742
204	0x3e7f4bf8	0.24931324
205	0x3dd3475d	0.10316346
206	0xbc958cfe	-0.018255707
207	0xbe0f31da	-0.1398386
208	0xbe8f1f52	-0.27953583
209	0xbdf7b233	-0.12094536
210	0xbd8e73f2	-0.069557086
211	0x3eca2ecf	0.39488837
212	0x3cd614b8	0.026132926
213	0x3e391eb1	0.18078114
214	0xbe968312	-0.29396874
215	0x3e3e4a98	0.18583143
216	0x3e61bf51	0.22045638
217	0x3cf2f48f	0.02965763
218	0x3e333bb6	0.17503247
219	0x3e401431	0.18757702
220	0x3e83799a	0.25678712
221	0xba892203	-0.0010462407
222	0x3d93f2ee	0.072240695
223	0x3e99e6e3	0.30058965
224	0x3dd94f1b	0.10610791
225	0x3da9832c	0.08276972
226	0x3d2070ac	0.039169952
227	0x3e5b0e04	0.21392065
228	0xbcc7c553	-0.024386084
229	0xbd51dfdd	-0.051238883
230	0xbe28c8ee	-0.16482899
231	0x3e62c495	0.22145303
232	0xbe172151	-0.14758803
233	0xbe76c8b4	-0.241
234	0x3d293d4c	0.041318223
235	0x3de6de56	0.11272876
236	0xbc950eb4	-0.018195488
237	0xbe61bc66	-0.22044525
238	0x3daa4719	0.08314342
239	0xbd05da9f	-0.032679196
240	0x3cdfc63e	0.027316209
241	0x3d868dc9	0.06570012
242	0x3e817ed5	0.25292078
243	0xbe01de81	-0.12682535
244	0xbca1a477	-0.019731743
245	0xbd56df9d	-0.052459348
246	0x3e06920a	0.13141647
247	0x3ab16722	0.0013534764
248	0xbe26e541	-0.16298391
249	0x3e278e69	0.16362919
250	0xbce5d6a0	-0.028056443
251	0x3dc3f445	0.09568075
252	0x3d758655	0.059942562
253	0x3e3f599d	0.18686529
254	0x3e0199f5	0.12656386
255	0x3e026048	0.12732041

model.4.bias f4 [70]
0	0xbe7355c1	-0.23763181
1	0xbf099d8f	-0.5375604
2	0xbf3dcb77	-0.7413859
3	0xbf3c3147	-0.7351269
4	0x3ecd2242	0.400652
5	0xbf1221f8	-0.5708308
6	0xbed1f490	-0.410069
7	0x3eba6820	0.36407566
8	0xbecc37e5	-0.39886394
9	0x3e91031d	0.28322688
10	0x3f0b4e12	0.54416
11	0x3ea88f30	0.32921743
12	0xbe329a1e	-0.17441604
13	0xbeb34087	-0.35010168
14	0xbe84698e	-0.25861782
15	0xbe4fa01f	-0.20275925
16	0xbf558a95	-0.83414584
17	0x3fe7e31b	1.8116182
18	0x3e0e756a	0.13911977
19	0x3eca45b4	0.39506304
20	0x3e80a821	0.25128272
21	0x3e6c5599	0.23079528
22	0x3db2ee98	0.087369144
23	0x3f3b9786	0.7327808
24	0xbf6136e6	-0.87974393
25	0xbdea8e7f	-0.1145296
26	0xbed6a8d8	-0.41925693
27	0x3c9b65b8	0.018969402
28	0xbee35952	-0.44404083
29	0x3e732a13	0.23746519
30	0x3effa0e5	0.4992744
31	0x3eb9f961	0.36323074
32	0xbeba8efe	-0.3643722
33	0xbec152fc	-0.37758625
34	0xbf0da2a6	-0.55326307
35	0xbef1153b	-0.4708651
36	0x3e07dd74	0.13268071
37	0xbee7e066	-0.4528839
38	0xbe9337e5	-0.28753582
39	0x3f63d86e	0.8900212
40	0x3f09c953	0.5382282
41	0xbdf8aa2a	-0.12141831
42	0x3d4f0125	0.0505382
43	0xbeecbe63	-0.46239004
44	0x3e53b23a	0.20673457
45	0xbe4c6d57	-0.19963585
46	0x3f0393d8	0.51397467
47	0x3f206e5e	0.62668407
48	0x3e4b053e	0.19826218
49	0x3eccff94	0.4003874
50	0xbe5842c4	-0.21119219
51	0x3f02d603	0.51107806
52	0x3ea9d69f	0.33171555
53	0x3f00b363	0.5027372
54	0xbf577827	-0.8416771
55	0x3dd737be	0.10508679
56	0x3e285322	0.16437963
57	0xbeac88aa	-0.33698016
58	0xbe3204f9	-0.1738471
59	0xbe212bc7	-0.15739356
60	0x3d69c960	0.05707681
61	0xbe9bd386	-0.30434817
62	0x3df8274a	0.12116869
63	0xbdf62e2a	-0.12020524
64	0xbf1275bd	-0.57210904
65	0x3f3d10fe	0.73854053
66	0x3eb73166	0.35779876
67	0xbf72f9c9	-0.9491239
68	0xbf0907ae	-0.53527343
69	0x3f810299	1.0078918

model.5.weight f4 [70]
0	0x3e0e8bda	0.13920537
1	0x3e829e91	0.25511602
2	0x3fe1a690	1.7628956
3	0x3fe9e308	1.827241
4	0x3e01e066	0.12683257
5	0x3e12c7c5	0.14334019
6	0x3f32120a	0.69558775
7	0x3df9867b	0.12183853
8	0x3e1aa928	0.1510359
9	0x3f4b2a80	0.79361725
10	0x3fed98fa	1.856231
11	0x3dde769d	0.108624674
12	0x3e24c0a3	0.1608911
13	0x3e270fa8	0.16314566
14	0x3e29fbd0	0.16599965
15	0x3e14231c	0.14466518
16	0x3fef191f	1.8679541
17	0x4009559f	2.145851
18	0x3e28b1bd	0.16474052
19	0x3e011d0b	0.12608735
20	0x3e0e9a33	0.1392601
21	0x3dff9588	0.12479693
22	0x3fb99295	1.4497858
23	0x3f0fa984	0.56118035
24	0x401c18fe	2.4390254
25	0x3df63bd0	0.12023127
26	0x3e06cfa6	0.13165149
27	0x3e0869e8	0.1332165
28	0x3df983d5	0.12183348
29	0x3e077e86	0.13231859
30	0x3ff1d001	1.8891603
31	0x3e0c5fab	0.1370837
32	0x3fb7006a	1.4297001
33	0x3ff71ed9	1.9306289
34	0x3e331e33	0.17491989
35	0x3fa985b3	1.3243927
36	0x3e16d553	0.14729814
37	0x3e267f9f	0.16259621
38	0x3e2b3cca	0.16722408
39	0x3e0df942	0.13864616
40	0x40024061	2.0351794
41	0x3e0aa359	0.13538875
42	0x3e10b7a3	0.14132552
43	0x3e29f0ef	0.16595815
44	0x3e15ecdd	0.14641137
45	0x3fbe36c6	1.4860466
46	0x3fd3e883	1.6555332
47	0x3e1d7a55	0.15378697
48	0x3e21df25	0.15807779
49	0x3fe5a18a	1.7939923
50	0x3fab1997	1.3367184
51	0x3f2ad0a0	0.66724586
52	0x3eacad0c	0.33725774
53	0x3f21cb73	0.63201064
54	0x3e300ff2	0.17193583
55	0x3e2d44b1	0.16920735
56	0x3df28ff3	0.118438624
57	0x3e1c226e	0.15247509
58	0x3fb9fb2c	1.4529777
59	0x3e1bbb4e	0.1520817
60	0x3e11b2f9	0.14228429
61	0x3e123f4f	0.14281963
62	0x3e01468a	0.12624565
63	0x3e01bf21	0.12670566
64	0x3e011042	0.12603858
65	0x3fd74fbb	1.6821207
66	0x3df274ec	0.11838707
67	0x3fb100d4	1.3828378
68	0x3fb65b83	1.4246677
69	0x3fe6fdfd	1.8046261

model.5.bias f4 [70]
0	0x3c64eeea	0.013972977
1	0x3e068970	0.13138366
2	0xbfa709a9	-1.3049823
3	0xbfbc1cc8	-1.4696283
4	0xbd33967a	-0.043844678
5	0x3d749369	0.059710894
6	0x3ed812ec	0.42201936
7	0xbd1ee15c	-0.03878914
8	0x3ce72912	0.028217826
9	0xbefc8708	-0.4932177
10	0x4028a29c	2.634925
11	0xbcc62aee	-0.024190392
12	0x3d8e3a6f	0.06944739
13	0x3d563885	0.052299995
14	0x3d002803	0.03128816
15	0x3d4bf96e	0.04979842
16	0xbf932bb5	-1.1497713
17	0x3fdb5b06	1.7137153
18	0xbd9298bc	-0.07158038
19	0xbd3a43d0	-0.045474827
20	0xbd5b9f95	-0.053618986
21	0xbcfa026e	-0.030518737
22	0x3e9b0c4a	0.30282813
23	0xbe996530	-0.29960012
24	0xc003bfca	-2.0585809
25	0x3d20d24f	0.039263066
26	0x3d283c81	0.041073326
27	0xbd77e168	-0.0605177
28	0x3d01542d	0.031574417
29	0xbd247824	-0.040153638
30	0x3f95842d	1.1680962
31	0xbd2f129b	-0.042742353
32	0x406189b7	3.5240304
33	0xbf84aaea	-1.0364659
34	0x3d96e085	0.073670425
35	0x403b89fd	2.9302971
36	0xbd374f65	-0.04475345
37	0x3d635f21	0.055510644
38	0x3d8c5b70	0.06853378
39	0xbd0f22c2	-0.034945257
40	0x3f7de684	0.99179864
41	0x3ce99a33	0.02851591
42	0x3d2aec22	0.0417291
43	0x3d733201	0.05937386
44	0x3d787505	0.060658474
45	0xc02c4ed6	-2.6923118
46	0xc0352485	-2.830354
47	0xbd3f5ecb	-0.04672126
48	0xbd447f04	-0.047972694
49	0x3f8cdeee	1.1005533
50	0x405c142f	3.438732
51	0xbebd65dd	-0.36991778
52	0xbe08101d	-0.13287397
53	0xbea05be5	-0.3132011
54	0x3d9923b5	0.07477514
55	0x3d246213	0.040132593
56	0xbd23768e	-0.039907984
57	0x3d9ec133	0.077516936
58	0xc025f70d	-2.5932038
59	0x3d317034	0.043319896
60	0x3d825991	0.0636474
61	0x3d5811c9	0.052751336
62	0x3d35cd98	0.044385523
63	0x3d02beab	0.031920116
64	0x3d44cc9e	0.0480467
65	0xc08e8527	-4.453754
66	0xbd30ef6a	-0.043197073
67	0x402bbcb6	2.683393
68	0x40697484	3.6477365
69	0x3f9dc45f	1.2325553

model.5.running_mean f4 [70]
0	0xba5a8172	-0.0008335329
1	0x3f4b6c97	0.7946257
2	0xbfdfc566	-1.7482116
3	0xbfe8a408	-1.8175058
4	0xbb38f091	-0.002821956
5	0xbf0f789b	-0.56043404
6	0x3fee6acf	1.8626345
7	0x3dcb3ea7	0.09924059
8	0xbb5ddadf	-0.0033852381
9	0xbfe8cc2d	-1.818731
10	0x403d5d7e	2.9588313
11	0x3d88ebfb	0.06685635
12	0x3e030067	0.12793122
13	0x3e71db7a	0.2361888
14	0x3e148a4f	0.14505886
15	0x3e10f4c5	0.14155872
16	0xbff1074a	-1.883035
17	0x405e2a54	3.4713335
18	0xbea56e9c	-0.3231095
19	0x3ae6f99b	0.0017621996
20	0xbe0027b9	-0.12515153
21	0x3e593acb	0.21213834
22	0x3ff776f2	1.9333174
23	0xbfa2518d	-1.2681137
24	0xc0285497	-2.630163
25	0x3e2114a8	0.15730536
26	0xbea9ede0	-0.33189297
27	0xbed4c46e	-0.41556114
28	0xbea66f34	-0.32506716
29	0xbe98204c	-0.2971214
30	0x3fc8bc3a	1.5682442
31	0x3f02336c	0.50859714
32	0x401b88a8	2.4302158
33	0xbfa95673	-1.3229507
34	0x3e42856d	0.1899621
35	0x3ffc8406	1.972779
36	0xbe88d0b3	-0.26721725
37	0xbd73f86b	-0.05956308
38	0xbda06ba9	-0.078330345
39	0x3f0e5741	0.5560189
40	0x3fb49b9b	1.4109987
41	0x3e317ad1	0.17332007
42	0x3e984b49	0.29744938
43	0x3e91671c	0.2839898
44	0x3ece43ac	0.40286005
45	0xc01a4a56	-2.410787
46	0xbffdf0f5	-1.9839159
47	0x3e41464b	0.18874471
48	0xbeda2aa7	-0.42610666
49	0x3fa76b4f	1.3079623
50	0x403b8797	2.9301507
51	0xbfaffc97	-1.3748959
52	0xbf9e33df	-1.235958
53	0xbfb30bac	-1.3987937
54	0xbe8eb0d3	-0.2786928
55	0x3f4fff31	0.81248766
56	0xbdd0c203	-0.10193255
57	0xbe2b4c89	-0.16728415
58	0xc00b3508	-2.1751118
59	0x3ede5458	0.43423724
60	0x3f38a35f	0.72124285
61	0x3e910d0c	0.28330266
62	0x3f0c36b6	0.5477098
63	0x3ea68e06	0.3253023
64	0xbf0304ff	-0.511795
65	0xc068d503	-3.6380012
66	0x3e4f8520	0.20265627
67	0x40113f44	2.2694864
68	0x400dbd3e	2.2146754
69	0x4004c646	2.0746017

model.5.running_var f4 [70]
0	0x4061d086	3.5283523
1	0x4055c76c	3.3402967
2	0x3e8c7d67	0.27439424
3	0x3e94e656	0.29081982
4	0x40395eb2	2.8964047
5	0x4070f7d2	3.7651258
6	0x3fbf3763	1.4938778
7	0x403d8aa8	2.961588
8	0x4083c2e0	4.1175385
9	0x3f8f63fb	1.1202387
10	0x3f3f9dc5	0.7485011
11	0x4059a61f	3.4007642
12	0x40821749	4.0653424
13	0x403ea822	2.979012
14	0x407128e6	3.7681212
15	0x4091fb05	4.561892
16	0x3ec80d96	0.39072865
17	0x3f089dd1	0.5336581
18	0x40439e5a	3.05654
19	0x4046b255	3.1046345
20	0x407dbe95	3.9647572
21	0x40743517	3.8157403
22	0x3ffb8eae	1.9652917
23	0x3ff3fe5b	1.9061998
24	0x3f30a7eb	0.6900622
25	0x4035dcfa	2.8416123
26	0x40911eda	4.535016
27	0x40682c81	3.6277163
28	0x40539193	3.3057601
29	0x404d826b	3.211085
30	0x3eb1fb81	0.34762195
31	0x4032c81f	2.7934644
32	0x3f229bf5	0.6351922
33	0x3ee44227	0.4458172
34	0x4084feda	4.15611
35	0x3efaa109	0.48950985
36	0x4084c4d9	4.1490293
37	0x405b1169	3.4229376
38	0x4071c3a1	3.7775652
39	0x4072a10f	3.7910802
40	0x3ef26c06	0.4734804
41	0x40664de8	3.598505
42	0x40b1add6	5.55247
43	0x405abacb	3.417651
44	0x408ea681	4.457825
45	0x3ee23ca3	0.44186887
46	0x3f200183	0.62502307
47	0x405b3810	3.4252968
48	0x40329e95	2.790929
49	0x3ea53060	0.3226347
50	0x3f53e4fd	0.82771283
51	0x3fa49a25	1.2859541
52	0x403b1fdd	2.9238198
53	0x3fd6930e	1.6763628
54	0x406b6d5c	3.6785498
55	0x403edd19	2.9822447
56	0x407bc81e	3.9340892
57	0x408b03e2	4.344224
58	0x3ef33d27	0.47507593
59	0x40498d1e	3.149238
60	0x40750d49	3.8289359
61	0x40688202	3.632935
62	0x4050a4d3	3.26006
63	0x40340a58	2.8131313
64	0x404c156e	3.188808
65	0x3fdafe1a	1.7108796
66	0x405d29b7	3.455671
67	0x4051c836	3.277845
68	0x3f2c088b	0.67200536
69	0x3eaf2248	0.34205842

model.8.weight f4 [70, 70]
0	0x3ea85570	0.32877684
1	0x3e7e8d57	0.24858604
2	0x3d423f45	0.04742362
3	0xbdad1f4d	-0.08453236
4	0xbe8bd8e8	-0.27313924
5	0x3e95181d	0.2911996
6	0x3da1ebe8	0.07906324
7	0xbed0b75c	-0.40764892
8	0x3eaadd8c	0.33372152
9	0xbd5e5ef1	-0.054289762
10	0x3c310b39	0.010805898
11	0xbe6f429e	-0.23365256
12	0x3eaf72f0	0.34267378
13	0x3eb93101	0.361702
14	0x3ed013de	0.40640157
15	0x3ecd1d67	0.40061495
16	0x3d2e7c4a	0.042599
17	0xbd53a770	-0.051673353
18	0xbebca077	-0.36841175
19	0xbed2aace	-0.4114594
20	0xbe94eeb3	-0.29088363
21	0xbe7dc775	-0.24783118
22	0xbdcad053	-0.09903016
23	0xbe4b3256	-0.1984342
24	0x3d13f1e4	0.036119357
25	0x3eaf4d5a	0.34238702
26	0x3e4aefa0	0.19817972
27	0xbeadba25	-0.3393108
28	0x3eacaa3a	0.33723623
29	0xbe95f82f	-0.29290912
30	0x3cd90c88	0.026495233
31	0xbeb2f46c	-0.34952104
32	0xbce0b43e	-0.027429696
33	0x3d8bfc01	0.06835175
34	0x3eb15fc0	0.34643364
35	0xbd20c307	-0.039248493
36	0xbeb1418c	-0.3462032
37	0x3eae8438	0.3408525
38	0x3ed80edb	0.42198834
39	0xbeb2d1ea	-0.34925777
40	0x3c8319a3	0.016003435
41	0x3e9cff15	0.30663362
42	0x3eaf98da	0.34296304
43	0x3e9bd75a	0.30437738
44	0x3e989f5e	0.29809088
45	0xbcbd86d9	-0.02313559
46	0x3c6f53bd	0.014607367
47	0xbe8499d3	-0.2589861
48	0xbec8a903	-0.39191446
49	0x3d6f57e2	0.05843342
50	0x3d123872	0.03569836
51	0xbd52fe0e	-0.051511817
52	0xbe81743b	-0.2528399
53	0xbdc09ba2	-0.094046846
54	0x3eace867	0.3377106
55	0x3ea54694	0.3228041
56	0xbebe454e	-0.3716225
57	0x3eccda55	0.40010324
58	0xbd236371	-0.039889757
59	0x3ecab05e	0.39587682
60	0x3e97cde0	0.29649258
61	0x3ec95dd4	0.39329398
62	0x3eb7cc1c	0.3589791
63	0x3eb476b9	0.35246828
64	0x3ea28f1b	0.31749806
65	0xbe59d8c6	-0.21274099
66	0xbe5b72a6	-0.21430454
67	0x3dbde407	0.092720084
68	0x3d9adec5	0.07562021
69	0x3cff8743	0.031192428
70	0x3ebe3362	0.37148577
71	0x3e8d808c	0.27637136
72	0x3df4db5f	0.11955904
73	0xbd7c9d5f	-0.06167352
74	0xbec835da	-0.39103585
75	0x3ed2f55a	0.41202813
76	0x3e5b0f1a	0.2139248
77	0xbebcfee8	-0.36913228
78	0x3ed4d6b2	0.4157005
79	0xbe05800d	-0.13037129
80	0xbc62538e	-0.013813866
81	0xbed4ba22	-0.41548258
82	0x3e96dcb5	0.2946526
83	0x3ea826a5	0.32841983
84	0x3eeecf62	0.46642596
85	0x3ecaf9bb	0.39643654
86	0x3c428b30	0.011874005
87	0x3d867cfa	0.06566806
88	0xbe9e2af1	-0.30892137
89	0xbeb202fa	-0.34767896
90	0xbead47d0	-0.3384385
91	0xbeaf87c4	-0.34283268
92	0xbca7054f	-0.020388274
93	0xbdbe06f6	-0.092786714
94	0xbcbd0959	-0.023075746
95	0x3eaf974b	0.34295115
96	0x3ef46f2b	0.47741064
97	0xbeb8a980	-0.36066818
98	0x3ed72cee	0.42026466
99	0xbec667fd	-0.38751212
100	0xbe1ee5d5	-0.15517361
101	0xbee07775	-0.43841138
102	0x3cf359d2	0.029705916
103	0x3d6d2aef	0.057902273
104	0x3e98a8fc	0.29816425
105	0xbda5500e	-0.0807191
106	0xbea70a6b	-0.32625136
107	0x3eb349b4	0.3501717
108	0x3e9ac3af	0.3022742
109	0xbeab726c	-0.33485734
110	0xbd2a0d75	-0.04151674
111	0x3e699216	0.22809634
112	0x3ee44bc8	0.44589067
113	0x3ead9310	0.33901262
114	0x3ea43f37	0.3207948
115	0xbe249b3e	-0.16074845
116	0x3c87c3e0	0.016572893
117	0xbeb3475d	-0.35015383
118	0xbee551cc	-0.4478897
119	0xbd93617b	-0.07196327
120	0x3e0c26d6	0.1368669
121	0xbddde807	-0.10835271
122	0xbe54f1ca	-0.2079536
123	0xbcb0815c	-0.021546058
124	0x3e55ea24	0.20890099
125	0x3ec4c747	0.38433287
126	0xbec3211a	-0.38111192
127	0x3ed6b6f3	0.41936454
128	0x3d02f967	0.03197613
129	0x3ee2512e	0.4420256
130	0x3ec15217	0.37757942
131	0x3ec5fbf6	0.38668793
132	0x3ea679b2	0.3251472
133	0x3ea91eb4	0.33031237
134	0x3ec25c35	0.37960973
135	0x3e78b982	0.24289516
136	0xbebc453d	-0.36771575
137	0x3e3020dc	0.17200035
138	0x3dcad4f5	0.099038996
139	0xbd0652a1	-0.032793645
140	0x3ef0f01d	0.47058192
141	0x3da83a9d	0.082143046
142	0x3d8aa9c8	0.067706645
143	0x3b7e88ef	0.0038838943
144	0xbe94dccd	-0.29074708
145	0x3f1867e3	0.5953352
146	0xbbf9f627	-0.0076282206
147	0xbeaa6d89	-0.33286694
148	0x3ed78704	0.42095196
149	0xbcf0573a	-0.029338468
150	0x3bcbba86	0.0062173037
151	0xbed84f1d	-0.4224786
152	0x3eb6ad26	0.35678977
153	0x3e9bc73e	0.30425447
154	0x3edaac23	0.42709455
155	0x3ebde8a0	0.3709154
156	0x3dae8b5a	0.08522673
157	0xbc1433b3	-0.009045529
158	0xbed414f4	-0.41422236
159	0xbf0048f6	-0.5011133
160	0xbeb8b248	-0.36073518
161	0xbed06e1a	-0.40709
162	0xbe18f998	-0.14938962
163	0xbd61d25c	-0.055132255
164	0x3e1d761a	0.15377083
165	0x3ecb0ed5	0.39659753
166	0x3f046a1c	0.5172441
167	0xbee25aa5	-0.4420978
168	0x3eb79ad8	0.35860324
169	0xbecd6fca	-0.4012435
170	0xbd94a1da	-0.07257433
171	0xbee08659	-0.438525
172	0x3cb90bc2	0.022588614
173	0xbc1da7b4	-0.009622503
174	0x3e93d910	0.28876543
175	0x3d1d5970	0.038415372
176	0xbee42a34	-0.44563448
177	0x3ecacfa8	0.39611554
178	0x3ed4b236	0.41542214
179	0xbef3f878	-0.47650504
180	0xbc663ee5	-0.014053081
181	0x3ea3d46c	0.31998003
182	0x3eb82aa4	0.35970032
183	0x3ea2954d	0.31754532
184	0x3ea1b7e9	0.31585625
185	0x3d06591c	0.032799825
186	0xbd253e4a	-0.040342607
187	0xbea65c68	-0.32492375
188	0xbeaef914	-0.34174407
189	0xbc10d8d2	-0.0088407565
190	0x3c188152	0.009308176
191	0xbcf82c69	-0.030294614
192	0xbd837a64	-0.064198285
193	0xbb936289	-0.0044978303
194	0x3e80b3d4	0.25137198
195	0x3e4383db	0.19093268
196	0xbed0d44a	-0.40786964
197	0x3eaaa353	0.33327731
198	0x3cfd384d	0.030910635
199	0x3e84d5ed	0.25944462
200	0x3ed07bdb	0.40719494
201	0x3ec52af3	0.3850933
202	0x3f06c3ab	0.52642316
203	0x3ead2e05	0.33824173
204	0x3f09570f	0.53648466
205	0xbe068992	-0.13138416
206	0xbef7f1fa	-0.484268
207	0xbc39e743	-0.011346641
208	0xbb108ba1	-0.0022055882
209	0xbd4339b4	-0.047662452
210	0x3ee55029	0.4478772
211	0x3ec41265	0.38295284
212	0xbdd5d3f1	-0.10440815
213	0x3e86d460	0.26333904
214	0xbefae4ce	-0.4900269
215	0x3ed9d684	0.42546475
216	0x3db470a2	0.088105455
217	0xbedea85f	-0.43487832
218	0x3e98693e	0.29767793
219	0xbe3d6c30	-0.18498302
220	0x3deb85e9	0.11500151
221	0xbeb6eb05	-0.3572618
222	0x3e9ba795	0.30401292
223	0x3e6fae8b	0.23406427
224	0x3eb17f21	0.34667304
225	0x3ed13b56	0.40865582
226	0xbd802655	-0.06257311
227	0x3e013898	0.12619245
228	0xbeaf0694	-0.34184706
229	0xbea3d3a4	-0.31997406
230	0xbf24e497	-0.644113
231	0xbf033c11	-0.5126353
232	0xbe18dc0d	-0.14927693
233	0xbe1be7a8	-0.15225089
234	0xbda5bfba	-0.080932096
235	0x3ecc536f	0.39907405
236	0x3ee2d208	0.44300866
237	0xbf03e574	-0.5152199
238	0x3ed52570	0.41630125
239	0xbefdc278	-0.4956243
240	0xbcfde1a1	-0.030991377
241	0xbeee1731	-0.4650207
242	0x3e7c5281	0.24640848
243	0xbc2b851d	-0.010468748
244	0x3e82dba3	0.25558195
245	0x3ed4f6da	0.41594583
246	0xbe97a06d	-0.29614583
247	0x3ed9a5dc	0.42509353
248	0x3e968a30	0.29402304
249	0xbea953ed	-0.33071843
250	0x3cec7a8f	0.028867034
251	0x3e735bd0	0.23765492
252	0x3ea96f2c	0.3309263
253	0x3eda156c	0.4259447
254	0x3ec27549	0.37980106
255	0xbe4098be	-0.18808267

model.8.bias f4 [70]
0	0xbf51c791	-0.8194514
1	0xbf54a0f1	-0.8305808
2	0xbf2a1819	-0.6644302
3	0xbf3bff6a	-0.73436606
4	0x3f8b5560	1.0885429
5	0x3f50fdd1	0.81637293
6	0xbf339af4	-0.70158315
7	0x3f1aa9ac	0.6041515
8	0x3f1efaba	0.6210133
9	0xbf111e6f	-0.5668706
10	0xbf49905b	-0.78735894
11	0x3f1a8ac4	0.6036799
12	0x3f44ee3b	0.7692601
13	0xbf456ad6	-0.77116144
14	0xbf4009ea	-0.7501513
15	0xbf3677ad	-0.7127636
16	0x3f2d6a11	0.6773997
17	0xbf4bf440	-0.7966957
18	0x3f442226	0.76614606
19	0x3f2d1e76	0.67624605
20	0xbf3ed037	-0.7453646
21	0xbf6c3505	-0.922684
22	0xbf523933	-0.8211853
23	0x3f3e088f	0.7423181
24	0x3f2f45a3	0.6846563
25	0xbf08ed11	-0.53486735
26	0x3f661922	0.898821
27	0x3f327cb0	0.6972151
28	0xbf1f5fb7	-0.62255424
29	0x3f5642eb	0.8369586
30	0xbf3af8da	-0.7303597
31	0xbf181d2d	-0.5941952
32	0xbf70b011	-0.94018656
33	0xbf3eb4b9	-0.7449451
34	0x3f520b2b	0.8204829
35	0x3f30dba1	0.6908513
36	0xbf484f0f	-0.78245634
37	0xbf7b3c4f	-0.981389
38	0xbf3af0f3	-0.7302391
39	0xbf236a55	-0.63834125
40	0xbf26b749	-0.6512342
41	0x3f5e2049	0.86768013
42	0x3f26292b	0.6490657
43	0x3f3b874b	0.73253316
44	0x3f3a0bc9	0.7267423
45	0xbf4e27ce	-0.8052949
46	0x3f1e6d00	0.6188507
47	0x3f530c3e	0.82440555
48	0x3f1275a4	0.57210755
49	0x3f5b4afa	0.8566128
50	0x3f54fdbd	0.83199674
51	0x3f7047fc	0.9385984
52	0xc01f3e10	-2.488163
53	0x3f162d27	0.58662647
54	0xbf5479d8	-0.8299842
55	0xbf0994f4	-0.5374291
56	0x3f381749	0.7191053
57	0x3f4a33c8	0.7898526
58	0x3f457dad	0.7714489
59	0x3f3fcb44	0.74919534
60	0x3f1d7e11	0.6152049
61	0x3f33486a	0.7003237
62	0xbf5c935e	-0.86162364
63	0xbf25f67e	-0.6482924
64	0xbf1df6f8	-0.6170497
65	0xbf4ab989	-0.79189354
66	0xbf4fcdbd	-0.81173307
67	0x3f3e73cb	0.74395436
68	0x3f44a504	0.76814294
69	0xbf4224ca	-0.75837386

model.9.weight f4 [70]
0	0x3e95c3c6	0.29250926
1	0x3e802b4f	0.25033042
2	0x3e75ee33	0.24016647
3	0x3eae335c	0.3402356
4	0x3e9114d2	0.28336197
5	0x3e4eae80	0.20183754
6	0x3e4685fd	0.1938705
7	0x3e4256f9	0.1897849
8	0x3e34d325	0.1765867
9	0x3e32fd64	0.17479473
10	0x3ebc97f4	0.3683468
11	0x3e49f324	0.19721657
12	0x3eb4b84f	0.35296866
13	0x3e5c5569	0.21516956
14	0x3e77edc0	0.24211788
15	0x3e498550	0.19679761
16	0x3e2508e6	0.16116676
17	0x3e81a7f6	0.25323457
18	0x3e2a8ff8	0.16656482
19	0x3e3b8c18	0.1831516
20	0x3e38db5d	0.1805243
21	0x3e6e4e8a	0.23272148
22	0x3e65bb12	0.22434643
23	0x3e35dc06	0.17759714
24	0x3e455ad9	0.19272937
25	0x3e35afc8	0.17742836
26	0x3e77a581	0.24184228
27	0x3e35794a	0.1772205
28	0x3e519f5b	0.20470946
29	0x3ec3adb2	0.38218457
30	0x3e8c432b	0.27394995
31	0x3e4760e4	0.19470555
32	0x3e5a0d01	0.21294023
33	0x3e2fa5ff	0.17153166
34	0x3e43c327	0.19117413
35	0x3e4666dd	0.19375177
36	0x3e70b2f1	0.2350576
37	0x3e40ac75	0.18815787
38	0x3e46ffb2	0.19433478
39	0x3e36a113	0.17834882
40	0x3e44a3c7	0.19203101
41	0x3e45aa18	0.19303167
42	0x3e347a9b	0.17624895
43	0x3e456a6c	0.19278878
44	0x3e6ac091	0.22925021
45	0x3e8f1afe	0.2795028
46	0x3e4ef00c	0.20208758
47	0x3e8e2d45	0.27768913
48	0x3e274c92	0.16337803
49	0x3e5728e4	0.21011692
50	0x3ecc1300	0.39858246
51	0x3e41090a	0.18851104
52	0x3fd9c4f4	1.701323
53	0x3e80bd64	0.25144494
54	0x3ec65109	0.387337
55	0x3e562f34	0.20916444
56	0x3e4680b3	0.19385032
57	0x3e6219d0	0.22080159
58	0x3e42e082	0.19030955
59	0x3e846e4e	0.25865406
60	0x3e23e8d2	0.16006783
61	0x3e426256	0.18982825
62	0x3e3b4b39	0.18290414
63	0x3e32e7f6	0.17471299
64	0x3e406eb8	0.18792236
65	0x3e2dcdf6	0.16973099
66	0x3e5826db	0.21108572
67	0x3e4d1b07	0.20029841
68	0x3e749f80	0.2388897
69	0x3e33952b	0.17537372

model.9.bias f4 [70]
0	0x3f167367	0.5876984
1	0x3f0b25c2	0.5435449
2	0x3f09ff6f	0.53905386
3	0x3f28fb1f	0.6600818
4	0xbf0f85fc	-0.5606382
5	0xbefe50d9	-0.49671057
6	0x3ef83939	0.48481157
7	0xbee4f4a6	-0.44717902
8	0xbee1030c	-0.43947637
9	0x3ef1f94d	0.47260514
10	0x3f2c2405	0.6724246
11	0xbef5d8a5	-0.4801685
12	0xbf238041	-0.63867575
13	0x3ef6b9bc	0.4818858
14	0x3f0e69c6	0.5563015
15	0x3efb3f70	0.49071836
16	0xbeddbea1	-0.433095
17	0x3f0e0b84	0.5548632
18	0xbedb2e77	-0.42808887
19	0xbeebbbe9	-0.46041802
20	0x3edc433b	0.43020043
21	0x3f075181	0.5285874
22	0x3f0361de	0.5132121
23	0xbeea8cb3	-0.4581047
24	0xbeee3bc4	-0.46529973
25	0x3eef0ac7	0.4668791
26	0xbf0e2afa	-0.5553433
27	0xbee2d0a0	-0.44299793
28	0x3efb8bb0	0.4913001
29	0xbf28d0e4	-0.6594374
30	0x3f1105f4	0.5664971
31	0x3eef4e70	0.4673953
32	0x3f051197	0.51979965
33	0x3ee0adc5	0.43882576
34	0xbef145d2	-0.4712358
35	0xbee05750	-0.43816614
36	0x3f064cb9	0.5246082
37	0x3edec95f	0.4351301
38	0x3ee7549e	0.45181745
39	0x3ef0077e	0.46880716
40	0x3ef018e5	0.46893993
41	0xbeeeee3b	-0.4666613
42	0xbef01153	-0.46888217
43	0xbefbf545	-0.49210563
44	0xbf0b9357	-0.545217
45	0x3f0ec9ec	0.5577686
46	0xbefd19b0	-0.4943366
47	0xbf17ccd6	-0.5929693
48	0xbedbb844	-0.4291402
49	0xbef6d12a	-0.48206455
50	0xbf2a3bd8	-0.66497564
51	0xbefe087d	-0.4961585
52	0x3fb51f5e	1.4150198
53	0xbf10d8cc	-0.56580806
54	0x3f2e62a1	0.68119246
55	0x3f017eb8	0.5058398
56	0xbeea25d5	-0.4573199
57	0xbf061e27	-0.5238976
58	0xbefc889d	-0.49322978
59	0xbf0cb036	-0.54956377
60	0xbedbbdd8	-0.42918277
61	0xbef24066	-0.47314757
62	0x3ee986b0	0.4561057
63	0x3ee4e271	0.4470401
64	0x3efa1629	0.48845032
65	0x3edff62a	0.43742496
66	0x3f02c469	0.5108095
67	0xbef9e5a7	-0.48808023
68	0xbf08bd00	-0.5341339
69	0x3ed961f9	0.4245756

model.9.running_mean f4 [70]
0	0x3ed8339a	0.4222687
1	0x3e50a389	0.20374884
2	0x3dcb5327	0.099279694
3	0x3fa535a7	1.2906998
4	0xbf214c64	-0.6300719
5	0x3f186fc3	0.59545535
6	0xbf3beff3	-0.7341301
7	0x3fb320be	1.3994367
8	0x3fd82a5b	1.6887926
9	0xbfba7901	-1.4568177
10	0x3fcf7504	1.6207585
11	0x3f2792c7	0.6545834
12	0xbfd67ca2	-1.6756785
13	0xbf32f18a	-0.6989981
14	0x3e904c60	0.2818327
15	0xbf6eb490	-0.93244267
16	0x4009d683	2.1537178
17	0x3e2b3426	0.16719112
18	0x40056ce4	2.0847712
19	0x3fac9069	1.348157
20	0xc00e3cd3	-2.2224624
21	0xbec07c11	-0.37594655
22	0xbef304f0	-0.47464705
23	0x3fe7a5eb	1.8097509
24	0x3f890805	1.0705572
25	0xbf6b311d	-0.91871816
26	0x3da10761	0.078627355
27	0x4005037c	2.0783377
28	0xbf1db251	-0.61600214
29	0xbfbe8a25	-1.4885908
30	0x3edddde3	0.4333335
31	0xbfb112a8	-1.3833818
32	0xbf0ba608	-0.5455022
33	0xbffd2d15	-1.9779383
34	0x3fb1c1da	1.3887284
35	0x3fcddab1	1.6082364
36	0xbd71ba39	-0.059015486
37	0xbfe84a05	-1.8147589
38	0xbfd4b346	-1.661721
39	0xbfc66515	-1.5499598
40	0xbf98df2f	-1.194311
41	0x3fcd6597	1.6046628
42	0x3fa10b41	1.258156
43	0x3f761ba5	0.9613593
44	0x3d5981a8	0.053102165
45	0x3eb7ed90	0.35923433
46	0x3f2ece70	0.6828375
47	0xbf75e59d	-0.9605349
48	0x3feebf05	1.8652045
49	0x3f90056b	1.1251653
50	0xbfa25db7	-1.268485
51	0x3f966e19	1.1752349
52	0xc08e6d76	-4.450862
53	0xbefeb5d1	-0.4974809
54	0x3fab947b	1.3404688
55	0xbea30087	-0.3183634
56	0x3fcf7e95	1.6210505
57	0x3ed35845	0.41278282
58	0x3f8783dd	1.0587116
59	0xbecbdf36	-0.39818734
60	0x403365ca	2.8030877
61	0x3f89c93a	1.0764534
62	0xbf9dc3f2	-1.2325423
63	0xbff17e3a	-1.8866646
64	0xbf86f5d1	-1.0543767
65	0xc009ac83	-2.1511543
66	0xbf539bd5	-0.82659656
67	0x3f656d86	0.89620245
68	0x3bca9b71	0.006183081
69	0xbfec9a5a	-1.8484604

model.9.running_var f4 [70]
0	0x40958d18	4.6734734
1	0x40e16b07	7.044315
2	0x40c2a612	6.0827723
3	0x40cd6a2e	6.4192114
4	0x40c67138	6.2013206
5	0x410a5b0c	8.647228
6	0x40d64076	6.695369
7	0x40fc1a24	7.878191
8	0x41504214	13.016132
9	0x40eab3a3	7.3344283
10	0x40c4edaa	6.1540117
11	0x40adfa68	5.436817
12	0x40eb5288	7.3538246
13	0x40b19498	5.549389
14	0x40d94d0a	6.790654
15	0x4118902b	9.535197
16	0x40cbd219	6.3693967
17	0x40d263ab	6.5746665
18	0x416616f6	14.380606
19	0x40fa8eef	7.829948
20	0x4143716a	12.215189
21	0x40cd3f57	6.413982
22	0x40d686a0	6.7039337
23	0x41039912	8.224871
24	0x40e32890	7.0987015
25	0x40faebfa	7.8413057
26	0x413b2862	11.697359
27	0x410ffb37	8.998832
28	0x40d80652	6.7507715
29	0x40ac32fe	5.3812246
30	0x40e45e0d	7.136481
31	0x41069e77	8.413688
32	0x40f70035	7.7187753
33	0x4105c68c	8.360973
34	0x41020659	8.12655
35	0x40f481c6	7.6408415
36	0x40de0694	6.938303
37	0x40e13363	7.037523
38	0x410ab045	8.668035
39	0x41120e0f	9.128432
40	0x40f15bec	7.542471
41	0x413b6544	11.712223
42	0x40e5dc4f	7.183143
43	0x40c3ccc5	6.1187463
44	0x40c73575	6.2252755
45	0x40b45d2c	5.6363735
46	0x40ebf9e1	7.374253
47	0x41042d5f	8.261077
48	0x40d6f3f0	6.7172775
49	0x40f22095	7.5664773
50	0x409ba0cb	4.863378
51	0x40a6f2ec	5.2171535
52	0x40bc694f	5.887855
53	0x412ae85d	10.681729
54	0x408b56c6	4.3543425
55	0x40af7d64	5.4840565
56	0x40f96b34	7.7943363
57	0x40bab9ed	5.835196
58	0x40c8e2c8	6.2776833
59	0x408ff00a	4.4980516
60	0x41658da8	14.347084
61	0x410c6ec9	8.777047
62	0x40b7a551	5.73893
63	0x41036b66	8.21372
64	0x40fdaddc	7.927473
65	0x410840ae	8.515791
66	0x40d0fb2b	6.53066
67	0x40e49498	7.143139
68	0x409645ad	4.6960053
69	0x40c3ace9	6.114857

model.12.weight f4 [1, 70]
0	0x3faf23e0	1.3682823
1	0x3fb56b54	1.4173379
2	0x3fbd9963	1.4812435
3	0x3fa2e4fe	1.2726133
4	0xbfb73c30	-1.4315243
5	0xbfc257cb	-1.5183042
6	0x3fc31306	1.524018
7	0xbfd1e0a4	-1.639668
8	0xbfd195ee	-1.637388
9	0x3fcf676e	1.6203439
10	0x3fa3b553	1.2789711
11	0xbfcaeae7	-1.5852937
12	0xbfa70bad	-1.3050438
13	0x3fc4daaf	1.5379237
14	0x3fb7288b	1.4309248
15	0x3fc8a2d6	1.5674694
16	0xbfd72e8b	-1.6811079
17	0x3fbc9581	1.4733125
18	0xbfd68225	-1.6758467
19	0xbfd13c1d	-1.634647
20	0x3fd47c9e	1.660053
21	0x3fb89865	1.4421507
22	0x3fbad912	1.4597495
23	0xbfcf55e0	-1.6198082
24	0xbfca0057	-1.5781354
25	0x3fc9bc42	1.5760577
26	0xbfb6d94a	-1.4285061
27	0xbfd81591	-1.6881582
28	0x3fc53300	1.5406189
29	0xbfa40052	-1.2812598
30	0x3fb537b5	1.4157625
31	0x3fcc33ce	1.595331
32	0x3fbf2199	1.4932128
33	0x3fd4a061	1.6611444
34	0xbfc981d1	-1.5742742
35	0xbfd65d64	-1.674725
36	0x3fbd2859	1.4777938
37	0x3fd5d51b	1.670566
38	0x3fd4e8d7	1.6633557
39	0x3fcef92b	1.616979
40	0x3fcc312c	1.5952506
41	0xbfcc9a3f	-1.5984572
42	0xbfc8d2bf	-1.5689315
43	0xbfc6c591	-1.5529042
44	0xbfb850ab	-1.4399618
45	0x3fb98ee6	1.4496734
46	0xbfc2fed2	-1.5234015
47	0xbfb1703f	-1.386238
48	0xbfd79d09	-1.6844798
49	0xbfc8f608	-1.5700083
50	0xbfa44d4a	-1.2836087
51	0xbfc43a59	-1.5330306
52	0x3faddfa2	1.3583872
53	0xbfb3c499	-1.4044372
54	0x3f9ebad3	1.2400764
55	0x3fc3a05a	1.528331
56	0xbfd57b90	-1.6678333
57	0xbfbc896e	-1.472944
58	0xbfc2bc69	-1.5213748
59	0xbfbabcdf	-1.4588889
60	0xbfd8f3e0	-1.6949425
61	0xbfc80a20	-1.562809
62	0x3fcd3158	1.6030684
63	0x3fd68eec	1.6762366
64	0x3fc44375	1.5333086
65	0x3fd3565e	1.6510732
66	0x3fbfd429	1.4986621
67	0xbfc5136f	-1.5396556
68	0xbfbb3d72	-1.4628127
69	0x3fd96b36	1.6985843
