result/best_model.pth (torch, 103906 bytes, 9 tensors)

fc1.weight f4 [32, 4]
00000000: b06e 9d3e 96d5 b0be a9fa 76be b8f6 c9be
00000010: fc08 efbe 3e07 20bd 0a3c 953d 5494 63be
00000020: 8762 eebe ab25 9cbe 2fd8 ba3e 35b1 63be
00000030: f691 d1bd 152a c3be bc5d a7be 1544 b43e
00000040: a25f 26bd cd46 8f3e a13d 41be 120b c8be
00000050: d897 8b3e 6146 48be 95a3 1ebf a3a5 90be
00000060: a5d1 b03c 0e3f 90be fd82 6abe 6134 adbe
00000070: 3cb8 88be 41cb 04bf ae33 27be 503d 893e
00000080: e9bf 3039 73c1 8ebe 6042 c7be 64bd 693b
00000090: 5639 403d 39e2 bbbe a146 3fbe 6312 61be
000000a0: 4db0 4e3e 1f1e 70be 3179 3cbe 374e 193e
000000b0: bf3e b6bd 7785 0e3e 21ae ea3d 476d 223e
000000c0: 0930 3a3e f553 0dbf 0ff7 aebe 00dd 34be
000000d0: 1548 cabe 2ee1 f53b 325a 5abe 170a 28be
000000e0: 5386 b4be ab27 09bf de6c 83be ac33 033e
000000f0: 99ff c639 7a17 babe 0421 ab3e b537 a0be
00000100: e340 2f3e c57e 41bf d0f8 fb3d a187 a1be
00000110: 4cea 35be e047 85bc 5892 a3be a080 b9bd
00000120: 8152 513d ee26 3c3e 9a41 25bf 62ce d1be
00000130: bfd9 dabe ebd0 61be 2f29 463d b405 7dbe
00000140: 4202 fabe 61be eb3b 5102 d6be 199b 02bf
00000150: 900e 89bd 861b 28bf 01d6 27be 13b5 953c
00000160: e031 03bd 00b4 303b 8c56 75be 040f 1cbe
00000170: 6859 703d 3821 e73d 6d27 a8bd 6916 e13d
00000180: 4a55 adbe 45ef 90be 00fb 853e 2678 17be
00000190: 633b 343e b602 16be 4515 c83d e5fd dabe
000001a0: d7dc f3bc 89f2 00be 1b4a 6e3e f76a 8d3c
000001b0: 8807 77be e6ba 77be 2f0e 5fbe d432 603e
000001c0: 0218 8cbe 3bfa 803e 1b1a a03d 9e5b c83e
000001d0: d6fd 9cbe 5029 e5bd 1aa0 513e f389 46be
000001e0: 9c7e d9be 1dc6 5a3e 92b0 82be 6422 53be
000001f0: b223 853e f1f6 c7be 51e0 97be b19a 52bd
0.3074851 -0.34537953 -0.24119057 -0.39446044 -0.46686542 -0.039069407 0.07286842 -0.22224551
-0.46559545 -0.30497488 0.3649306 -0.22235568 -0.10232918 -0.38118044 -0.326887 0.35208192
-0.040618546 0.27983704 -0.18871166 -0.39070946 0.27264285 -0.19558097 -0.61968356 -0.2825137
0.021584341 -0.28173107 -0.2290153 -0.33829024 -0.2670306 -0.5187264 -0.16328308 0.2680459
0.0001685616 -0.27881965 -0.38917828 0.0035665864 0.04692968 -0.36696032 -0.18679287 -0.2197967
0.20184441 -0.2344899 -0.18405606 0.14971243 -0.088986866 0.139181 0.11458994 0.15861998
0.18182386 -0.55206233 -0.34172866 -0.1766243 -0.3950812 0.00750365 -0.2132347 -0.16410099
-0.3525873 -0.53576154 -0.25668997 0.1281268 0.00037955938 -0.36346036 0.33423626 -0.312925
0.17114596 -0.7558406 0.123033166 -0.3154879 -0.17765158 -0.016269624 -0.3194759 -0.090577364
0.051104072 0.18374225 -0.64553225 -0.4097777 -0.42744252 -0.22052352 0.04837912 -0.24709207
-0.48829848 0.007194326 -0.41798642 -0.5101791 -0.06692231 -0.65667 -0.1639023 0.01827482
-0.032029986 0.0026962757 -0.23958796 -0.15240103 0.058679014 0.11285633 -0.08210645 0.109906025
-0.33854133 -0.28307548 0.2616806 -0.14791927 0.17600779 -0.14649472 0.09769682 -0.4277183
-0.02976839 -0.1259252 0.23270456 0.017262919 -0.24123967 -0.2419239 -0.21782754 0.2189439
-0.27362067 0.2519091 0.07817479 0.39132398 -0.3066241 -0.1118952 0.2047123 -0.19388561
-0.42479408 0.21364637 -0.25525337 -0.20618588 0.26003796 -0.3905559 -0.29663327 -0.051417056

fc1.bias f4 [32]
00000000: 90bf 2940 1b8b db3f 50a1 1e40 4a3d 1040
00000010: 393d c43f 96c3 533e ce17 1e3f 957e 1340
00000020: 7d16 70be caac 9e3f 1daa 0940 4efc 3040
00000030: da18 0d3f 6f34 7cbd 8c64 803e 9dad 2040
00000040: a597 ecbf e8e7 d4be 8a1f 803f 41a3 e53d
00000050: 91e9 aa3f 4d02 403f 8029 603d 9643 3c40
00000060: 821e 43bf 6cbe 3b40 3572 2040 9d9d 993f
00000070: cd92 1b3f 01db 813f c45b 6e3f 432c b53f
2.652317 1.7151827 2.4785957 2.2537408 1.5331184 0.20680079 0.61755073 2.304601
-0.23446079 1.2396481 2.151008 2.7653995 0.55116045 -0.061573442 0.2507671 2.5105965
-1.8483778 -0.4158318 1.0009625 0.11212779 1.3352529 0.7500351 0.054727077 2.941625
-0.76218426 2.9334974 2.5069706 1.2001225 0.60770875 1.014496 0.93108773 1.4154133

fc2.weight f4 [128, 32]
00000000: 7f62 7cbe de50 57be fb7a 09be d7a6 68be
00000010: 7645 48bd b334 00be 1df5 3bbe 0a9a bfbe
00000020: a9c7 b1bb 3a8d 2fbc 6ead b0be fac7 9cbd
00000030: 233d 2cbe 9cea e03d a5bd d6bc 0ab8 a0bd
00000040: 63fe 0dbe 9ec4 f53d 56d0 193d 2106 3c3e
00000050: 788f 8abd 9bd6 453d 6eae 883d 862f 84bc
00000060: 96ac dc3c aea0 e6bd b717 26be dc24 46be
00000070: 4c85 24be 583b f93b e3b8 3bbe 0865 8cbe
00000080: 3fcd 5dbe 602b ddbc 8900 32be e3ea 81be
00000090: b92c 18be 403a 9bbc 4771 4dbe f213 d63d
000000a0: e441 803d 5fca b53b abbe 2e3d 5111 3dbe
000000b0: 9d48 07be 60b1 06be 4482 45be ca8e ed3d
000000c0: dcce 2dbd e03b ca3c aee0 18be 30b4 20bc
000000d0: c0f9 4d3c 8eb5 b7bc f0ac 333c 7740 9cbd
000000e0: 71a1 1ebe 477b dcbd dd9b fabd 79b9 9fbd
000000f0: 2e37 18be 40c8 73bb a11b b8bd 6adc 873c
00000100: b0d2 bfbd ab42 623c 12ff 3bbe ddd6 fbbd
00000110: c67a 60be 895b 11be 8219 0bbe 30dc 823d
00000120: 8283 c83d e944 aa3d ee93 0fbe fadb d8bd
00000130: 8805 2fbe 9133 4fbc d636 8a3d 4e52 d1bd
00000140: 80f5 5cbe 4802 883c 3c4e 98bd 37a9 b6bd
00000150: e185 ad3d 12a8 8bbd 3c71 093d 4446 b03c
00000160: c3d7 26be 8a5b 13bd 335e e2bd 8906 44be
00000170: 9177 40be cbd9 3cbe 895a afbc 81e8 a1bc
00000180: e1d5 0e3d 20df dc3c 5cea 813d f8bf 44bd
00000190: edea 513d e0be 02be bcdd c3bd c600 8f3d
000001a0: fd08 24be 35d7 81bb c9e4 91bd da8b 26be
000001b0: 96c7 903d 7d57 16be f87b dcbc 4d1f 26bd
000001c0: a0b0 82be 9c14 2cbe 09d9 bdbd 69a4 d5bd
000001d0: b0f0 55bd 8028 3e3c 41fe a3bd bda5 82be
000001e0: 9cb5 3bbd 08ca d6bc 31a8 98be a7ab 2c3e
000001f0: 0a0e ac3d c67a 99bd 1c2a 88bd 028f 04be
00000200: da4d b3be 7a4d 383d 457a a6be 302e 32bd
00000210: d2c5 c2bc 0ab9 173e 9a7c 93bd 2f53 83bd
00000220: 4c0d c33d b441 6bbe 4421 1cbf f1b5 003c
00000230: 2193 1b3e df2c 52be f4a0 bebc d53f 0cbe
00000240: a122 053d d811 37bd 45c7 a9be 1fb5 6d3d
00000250: 2a9f 37be 2a6e 0cbe 633b 323e dc41 a4be
00000260: 83e3 abbe 918e 7c3c d902 a8bd 046a 5bbe
00000270: 097c 18be 54dc e63c 9875 3ebd cc14 32bd
00000280: b7e5 94bd cbaa 82be 551c 8abd 47ce 103d
00000290: 6f29 98be 0607 e53c 3efa 4fbe 7e01 ff3c
000002a0: d688 2cbe 157e 18be 8ba2 84be d29a adbd
000002b0: aca5 f93d fcc0 d33d d8cf 02be c9e2 fcbd
000002c0: 9ed0 1fbe 5d32 d4bd b597 4dbe f57c 8fbd
000002d0: 4338 a13e ba6c db3d ba9c b43d a934 d3bc
000002e0: b82d 96bd 0ac7 b4be 3097 4ebe 5b2d e03d
000002f0: 7973 84bd 49f8 82be 5731 45bc 8094 16bd
00000300: 5484 e6bd 2320 37bb bcf9 54bd a40b 7bbe
00000310: 396b ccbd 5055 b83a 6961 c9bd c7da 763d
00000320: 1a1e 793d fc0d 03bd 0b3a a3bc f026 e3bd
00000330: e7c6 90be f190 25be 79ad 37bd 7674 a4bd
00000340: b849 543d 967f 5bbd 198e f9bd 3362 9c3c
00000350: 86e8 c5bd 7490 89bc 406c a9bd 769d 20be
00000360: 90ef acbd 4b77 49be 7b5e b5bc b824 b0bd
00000370: db84 efbd 7679 a2bd cb8b 87bd b439 1d3e
00000380: 8f5f 90be 1880 8a3d 7c45 dabd eb5a 0bbc
00000390: 6411 37bd 16c0 d3bd a097 77bd 5bbe b33d
000003a0: 7621 1fbe 9cdc 92bd bd84 5ebe 4ae7 d3bd
000003b0: 7364 fc3d 9e95 bc3d 8742 16be c518 293d
000003c0: 3376 39bd b0b9 053d 3f30 5abe 2337 fd3d
000003d0: 40a1 8cbd 25ac 863d aa92 d03d 3f3b dabb
000003e0: af9f 0cbd e46a 9cbe 1b54 46bc 5a52 ddbb
000003f0: d4ad a7be c4c2 703c eb0a 60bc 63ef 083d
-0.24646948 -0.21026942 -0.1342582 -0.22719894 -0.048894368 -0.12520103 -0.18355222 -0.3742221
-0.0054254127 -0.010714823 -0.34507316 -0.0765533 -0.16820197 0.10982248 -0.026213476 -0.07847603
-0.13866572 0.120003924 0.0375522 0.18361713 -0.06765646 0.048300367 0.06673895 -0.016135942
0.026937764 -0.11261116 -0.16219984 -0.19349998 -0.16066474 0.0076059513 -0.18332247 -0.2742083
-0.21660326 -0.026998222 -0.17383017 -0.25374517 -0.1486081 -0.018948674 -0.20062743 0.10453023
0.06262568 0.005547806 0.042662304 -0.18463637 -0.13211294 -0.131536 -0.19287974 0.115995005
-0.042433605 0.024686754 -0.14929458 -0.009808585 0.012571752 -0.02242544 0.0109665245 -0.07629483
-0.15491273 -0.10765701 -0.1223676 -0.07799048 -0.148648 -0.0037198216 -0.08989645 0.016584594
-0.09366357 0.01380984 -0.1835902 -0.12296841 -0.21921834 -0.14195074 -0.13583949 0.06389654
0.09790708 0.08313925 -0.14021274 -0.10588832 -0.17091954 -0.012646572 0.067487404 -0.102207765
-0.21578026 0.01660265 -0.07436797 -0.08918994 0.08472801 -0.06819166 0.033555254 0.02151788
-0.16293244 -0.03597597 -0.11053123 -0.19143118 -0.18795611 -0.18442456 -0.021405475 -0.019764187
0.03487194 0.026961863 0.06343529 -0.04803464 0.051249433 -0.12768126 -0.09563777 0.069825694
-0.16019054 -0.0039624223 -0.071237154 -0.16264287 0.07069318 -0.14681812 -0.026914582 -0.040557195
-0.2552538 -0.16804737 -0.09269912 -0.104317494 -0.05223149 0.011606336 -0.080074795 -0.25517073
-0.045827493 -0.026219383 -0.2981582 0.16862355 0.08401115 -0.0749412 -0.06648657 -0.12945178
-0.35020334 0.044995762 -0.3251516 -0.04350108 -0.023775969 0.1481668 -0.072015 -0.064123504
0.095240206 -0.22974283 -0.6098826 0.007855878 0.15192844 -0.2052493 -0.023270108 -0.13696225
0.032503728 -0.04469475 -0.33159843 0.05803406 -0.1793181 -0.13713899 0.17405467 -0.32081497
-0.33572015 0.01541485 -0.08203668 -0.2142716 -0.14891066 0.028181233 -0.046498865 -0.043476865
-0.07270377 -0.2552093 -0.06743685 0.03535297 -0.2971911 0.02795745 -0.20310304 0.031128641
-0.16849074 -0.14891846 -0.2590526 -0.08476795 0.121898025 0.10339543 -0.12774599 -0.12347943
-0.15606925 -0.103611685 -0.20077403 -0.070062555 0.31488237 0.10714097 0.08818956 -0.025781946
-0.07332939 -0.35308105 -0.20174861 0.10946151 -0.06467337 -0.25580052 -0.012035689 -0.036762714
-0.11255708 -0.002794274 -0.051995978 -0.2451616 -0.099813886 0.0014063511 -0.09833033 0.060267236
0.060819723 -0.03199576 -0.019925138 -0.11091411 -0.2827675 -0.16168572 -0.04484317 -0.08030026
0.051828116 -0.053588472 -0.12185306 0.019089794 -0.09663491 -0.016792513 -0.082726 -0.15685067
-0.084441304 -0.19674413 -0.022139778 -0.086007535 -0.11695262 -0.07933323 -0.0661846 0.15354043
-0.28197905 0.06762713 -0.10657784 -0.008505563 -0.04469432 -0.10339372 -0.060447335 0.08776542
-0.15540108 -0.07170984 -0.21730323 -0.10346849 0.12323847 0.09208225 -0.14673816 0.041283388
-0.04527874 0.03264779 -0.21307467 0.12364032 -0.068666935 0.06575803 0.10184224 -0.0066598947
-0.034331974 -0.305503 -0.012105013 -0.006754202 -0.32749808 0.014694873 -0.013674478 0.033431422

fc2.bias f4 [128]
00000000: 3bd5 9e3f 3d81 78be e448 85bd 96ee ddbc
00000010: e141 0c40 154f cd3f ad5b dd3e 9499 0440
00000020: 640d fd3d 120a 45be 8b15 81be afed b63f
00000030: a23e ccbd 2e83 303b 4bda 0d3f 88ad 89bd
00000040: f7c3 bbbd e08e d53e 3812 023e e746 2740
00000050: 4504 e53d 4d36 a9be 4903 283d 1526 973f
00000060: d530 673f 51bc 1c40 0355 2a40 3244 d73c
00000070: d26e 0040 de1a 163f ff11 a03d 8ab7 2240
00000080: 4b89 6fbd ed0a edbd 227c c03f 9066 01be
00000090: cf6a 5ebe 543f f43d a3a5 b9be ff83 efbd
000000a0: 73f8 91be 8106 f03e e9db bdbd 3ee4 a23e
000000b0: 1c34 1640 5fd5 633f 7a8f 77bc 40c1 2340
000000c0: a4c9 91bd f13f f73e 468a 1fbd f0ef cc3d
000000d0: 179a b03f bdfc f9bd abea e93d 6671 2ebe
000000e0: 9703 6b3e e97d a93c af22 d53e d7df 203d
000000f0: b86d 16be 8b4a ed3f aec0 713f 3290 52bd
00000100: 0d60 d8bd 7269 8abe 18bc 0a3d 1642 96bd
00000110: 79cd 5fbe feee ee3f d99c 4fbe 3129 8f3d
00000120: 0ab3 8cbe 2aec 5bbe f5b2 a5bd ac91 f03c
00000130: 2a3e d33f afb6 59be 158f eebc 50ca 0dbe
00000140: 92bc de3f dfc5 7dbb b29b e53e 20a2 1140
00000150: 2c1f e73f d27c 26be 45be 8a3d 4afa b93f
00000160: 19d5 58be fc3d d4be 2bab 733d e3bf e1bd
00000170: cbbb 8dbe b207 0b3f 9084 9dbe 3aec 1c40
00000180: 3d18 9b3e ff1a fbbd 231b 793d 2fb3 403f
00000190: 84a0 0440 9742 8b3e 6326 df3e 806e 54be
000001a0: 4577 a3be 3b89 0f3f d986 2f40 956d 10be
000001b0: 4eb1 973e a70e d13f 0a2b 2940 a223 3240
000001c0: dfe0 803f 5dac cb3e 8425 413d ca40 553c
000001d0: cc41 54be ea6b 833e d735 91bd 66b0 2dbe
000001e0: 1480 213f eb0d a4be 3979 1b3f 72b9 7d3e
000001f0: 2b0f c13f 7f4d 583d 79ce 49be 5ec9 7b3f
1.2408823 -0.2426805 -0.065080434 -0.027091306 2.191521 1.6039759 0.43234006 2.0718737
0.1235607 -0.19242123 -0.25211748 1.4291285 -0.09972884 0.0026933658 0.55411214 -0.067225516
-0.09168237 0.41710567 0.12702262 2.6137025 0.11182455 -0.3304924 0.041018758 1.1808497
0.90308887 2.448994 2.6614387 0.026277635 2.006764 0.58634746 0.078159325 2.5424523
-0.058480542 -0.115743496 1.5037882 -0.1263678 -0.21720432 0.119261414 -0.36259183 -0.11695098
-0.28509864 0.46879962 -0.0927046 0.3181476 2.3469305 0.88997453 -0.015109891 2.55867
-0.07118538 0.4829097 -0.038950227 0.10006702 1.3797024 -0.12206409 0.114217125 -0.17035446
0.22950588 0.020689921 0.41628024 0.03927597 -0.14690292 1.8538374 0.9443463 -0.051407047
-0.10565195 -0.27033573 0.033870786 -0.07336824 -0.21855725 1.8666685 -0.20274676 0.069902785
-0.27480346 -0.21476808 -0.08090774 0.029366337 1.6503346 -0.21261095 -0.029120961 -0.13846707
1.7401297 -0.0038722677 0.4484535 2.2755203 1.8056388 -0.16258553 0.06774572 1.4529507
-0.2117504 -0.4145354 0.05948941 -0.110229276 -0.27682337 0.5430862 -0.307652 2.4519181
0.3029193 -0.122610085 0.060816895 0.7527341 2.072297 0.27199242 0.43583974 -0.20745277
-0.31926933 0.5606877 2.7426054 -0.14104302 0.2962746 1.6332597 2.643252 2.7834249
1.0068625 0.3977994 0.04715492 0.013015935 -0.20728225 0.2566827 -0.07090347 -0.16961822
0.63086057 -0.3204187 0.60731846 0.24777773 1.5082754 0.05280828 -0.1970767 0.98354137

fc3.weight f4 [128, 128]
00000000: e23f 92bd d9c4 b13d 1874 acbd e8f2 8d3c
00000010: 8cde 613d 5792 efbd 425a 37bd 73f0 72bd
00000020: aa7e 1abd 20c7 74bd d0b4 ee3b bb63 b4bd
00000030: cf83 cabd a554 393d 7987 cabd 3eba 663d
00000040: 2b46 00bc 16b5 39bd 0521 c5bc 2ba4 a2bc
00000050: f169 7fbd 168f 873d b270 9a3c 3e35 db3c
00000060: 8d2f c5bc 4f2e 3cbd 3063 8cbd cb45 83bd
00000070: 973c a8bd 13da 9dbd 7827 42bc 297e cabc
00000080: 5a83 86bd ccc7 013d a59c 023d 9062 f43d
00000090: 8ade a5bd fe63 a2bd fabe 083d 3a2b 6d3d
000000a0: c8ba 84bc 1844 e3bd 18cf 393d 9590 25bb
000000b0: 1f62 cabd 9afb 2dbd fe84 44bd 3d9a 563c
000000c0: d98e 8abc 1e24 38bc d0c1 173b 8091 f63c
000000d0: cbe5 f6bd 5e7c aebd 68b9 1b3c 9d9c da3c
000000e0: a8ca e7bc ee92 32bd 9b37 c0bc 6b96 ae3d
000000f0: 4436 a33d 088d 963d 26fe 583d c26a d73c
00000100: 6032 61bb 4917 43bd b6bf 83bc 6527 a8bd
00000110: cf6f 3ebd afd5 a0bc bc54 ad3c f0ef ff3c
00000120: 62aa 0a3d 0b37 443c 5577 09bd c120 653c
00000130: 6bb3 eebd b9cc 0ebc 9dfb 053d 6937 123d
00000140: 2c7f 32bd ebab 14bd b7b2 f83c c2ac 763d
00000150: 401e 7e3d f938 8b3d df68 a0bd d040 c4bd
00000160: 8218 7e3d 563d 37bc 20e2 a33c dfd3 89bd
00000170: 3647 8abd 67ac 3fbc 806c 6bbb abb7 efbd
00000180: 0d34 993d 39f5 95bd d898 84bd 0076 6fbd
00000190: 6e91 e1bc 1bac 40bd 7458 5fbd 5d9a ab3a
000001a0: 80a8 97bc 15ea 753d a5ed 12bd 6b66 98bd
000001b0: 379a a0bd 308f d5bd b5a4 bdbc c37a 1bbe
000001c0: f385 853d b955 813c e9a6 14bb a029 0abc
000001d0: 1d8d a3bd 6e78 09bc 6e2a bbbb f8e0 833d
000001e0: 12ae 9abd e45a efbb c035 9d3b 292c 5dba
000001f0: 91ae 38bd 5025 b63d 035e 65bd aa4e d13d
00000200: 3e9e 58bd 2080 363b 1ab5 9bbc e80f eb3c
00000210: 2d66 16bd 3d02 123d aa46 a23c 81c1 b63c
00000220: 56b2 f3bb b8d7 0bbc 00ae 8b3a 6ec6 40bd
00000230: 2d09 a3bd 447f 083d 1647 37bd d8c2 d93c
00000240: a847 163c b3b5 89bd ebad 68bd 2f64 38bd
00000250: 995d f73c c934 c2bd 80eb 60bc 0b32 a9bd
00000260: 4186 29bd 2fb2 333d 04d8 40be 615f 05bd
00000270: 3fa2 183c 4e55 a0bd e640 86bd 90d8 a8bd
00000280: 7252 b9bd 164d 953d 9285 a3bd 8fc8 023d
00000290: f5ab 8c3d 6ccf 783d 7c33 97bd f3d8 883d
000002a0: 1df6 99bd ec17 74bd 9b58 f9bc 4f0a b7bd
000002b0: 8618 2abd 7a6c d7bd 92db 8f3c 96b1 74bd
000002c0: 8339 ea3d eadf 51bd 8c4e 503b 1218 80bd
000002d0: 5763 aa3d 6ad8 bfbd 00e8 403b 4288 92bd
000002e0: 48bf cb3c 1bea 3abb 3f3b c33b c0dc cebc
000002f0: cd32 96bd caeb 86bb 0b65 b4bd e3cb ad3d
00000300: 5072 c03d 75ac 84bc 98ac 69bd e282 c13d
00000310: 348f a63c ea82 c3bd 0d43 37bd 8951 813d
00000320: 0970 8fbd 378f e53b 6c92 93bd bc8a 67bd
00000330: 4c0f debd 4870 033c b968 783d 8ba6 4fbd
00000340: 2e0b 17bd b93f 07bd c147 68bb c7a9 b0bd
00000350: ce70 a9bd 1117 f33c b756 2d3d ace1 113d
00000360: 2888 58bd 5a20 03bc 54b4 b2bc 4128 113c
00000370: f0d4 a6bd 3938 d6bc 5b7a 8f3d 2add 82bd
00000380: d421 2c3b da15 3fbd fc32 acbd a136 bc3c
00000390: 76ef 10bd f9f8 d3ba 59c0 603d 538a af3d
000003a0: cf6d 2dbc 7d65 293d b985 8fbd 734c aebd
000003b0: 8fdc 0fbe 0080 a7bd d6f9 e4bd 9035 b7bd
000003c0: 155d 563d 0f24 44bd 38ea c6bd 3aa8 3f3d
000003d0: 843a 71bd 7e44 863c 7b20 413d aa3e 2cbd
000003e0: f8d4 533d e7da e0bc 2d23 d8bd 4fdc 763d
000003f0: 0590 66bd e9da 673d d548 07bd af48 68be
-0.07141091 0.08680124 -0.084205806 0.01732774 0.055143878 -0.11697834 -0.04476381 -0.05931134
-0.037718453 -0.059760213 0.007284738 -0.088080846 -0.09888422 0.04524674 -0.098891206 0.05632996
-0.007829229 -0.045338713 -0.024063597 -0.019853672 -0.062356893 0.06619088 0.018852565 0.026758786
-0.024070526 -0.0459426 -0.06854856 -0.06409796 -0.082146816 -0.0770761 -0.01185023 -0.024718361
-0.06568022 0.03168468 0.03188767 0.11932862 -0.080990866 -0.07929228 0.033385254 0.057902552
-0.016202345 -0.11096972 0.045363516 -0.002526318 -0.09881996 -0.042476274 -0.047978394 0.013098297
-0.016913818 -0.01123908 0.0023156293 0.030098677 -0.12055548 -0.08519815 0.0095046535 0.026686007
-0.028294876 -0.043597154 -0.023464015 0.08524784 0.07969335 0.07351118 0.05297675 0.026296023
-0.0034362301 -0.04762963 -0.016082626 -0.08210639 -0.046493348 -0.019633142 0.021158569 0.03124234
0.033853896 0.011976014 -0.03356107 0.01398486 -0.11655315 -0.008715802 0.03271066 0.035697374
-0.04357831 -0.036296766 0.030358655 0.06022335 0.062040567 0.06797976 -0.078325026 -0.095826745
0.06203509 -0.011184057 0.020005286 -0.06729864 -0.06751864 -0.011698819 -0.0035922825 -0.11704954
0.07480631 -0.07322163 -0.06474465 -0.058462143 -0.027535167 -0.047039133 -0.054527715 0.0013092268
-0.018512964 0.06003769 -0.035871167 -0.0744141 -0.07841914 -0.104277015 -0.023149827 -0.15183549
0.065196894 0.015787946 -0.0022682494 -0.008432776 -0.079858996 -0.008390529 -0.005711845 0.06439394
-0.075527325 -0.007304536 0.0047976673 -0.00084370613 -0.045088354 0.088938355 -0.05599786 0.10220082
-0.052885287 0.0027847365 -0.019007254 0.028694108 -0.036718536 0.035646666 0.019809086 0.022309067
-0.007437031 -0.008535318 0.0010656714 -0.047064237 -0.079607345 0.033324495 -0.044745527 0.026582167
0.009172358 -0.067241095 -0.056806486 -0.045017418 0.030195998 -0.09482724 -0.013728023 -0.08261498
-0.0413878 0.0438711 -0.18832403 -0.032561664 0.009316026 -0.078287706 -0.06555347 -0.08244431
-0.09048928 0.072900936 -0.07984461 0.03192955 0.06868736 0.060744688 -0.07382867 0.06682005
-0.075176455 -0.059593126 -0.030437758 -0.08937513 -0.041527294 -0.10518737 0.017560754 -0.05973967
0.11436751 -0.05123893 0.0031785099 -0.06254591 0.08319729 -0.093674496 0.0029435158 -0.07154895
0.024871483 -0.0028520885 0.0059579904 -0.025251746 -0.07333908 -0.0041174637 -0.08808335 0.08486154
0.093968034 -0.016195515 -0.057049364 0.09448792 0.020331956 -0.09546454 -0.04474168 0.0631438
-0.07003791 0.007005598 -0.07205662 -0.05652879 -0.108427614 0.008022375 0.060646746 -0.050695937
-0.036875896 -0.033019755 -0.003544316 -0.086261325 -0.08273469 0.029674085 0.042319026 0.035615608
-0.052864224 -0.008003319 -0.021814503 0.008859695 -0.08146083 -0.026149856 0.07005759 -0.0638984
0.002626528 -0.0466517 -0.08408162 0.022975268 -0.035384618 -0.0016172222 0.054870937 0.08571305
-0.010585262 0.041356552 -0.070079274 -0.08510675 -0.1404898 -0.08178711 -0.11180465 -0.08945763
0.052334864 -0.04788595 -0.097126424 0.046791293 -0.058893695 0.016390081 0.047150116 -0.04205195
0.051716775 -0.02744813 -0.10553584 0.060268696 -0.05628969 0.056605253 -0.033028442 -0.22683977

fc3.bias f4 [128]
00000000: 9ebc 06be d9c1 12bd 66b1 71be b067 43be
00000010: ebfe f0bd 8393 dabc d881 20be fd41 71bc
00000020: 906f 0cbe 04e2 5cbe 7d75 c9bd c662 92be
00000030: 55d1 00bd 713a 4dbe 88d2 f1bd 14ec 4bbc
00000040: a0ae 9abd 9680 18bb b61a 623f 5b39 6ebe
00000050: 56a4 0abe 72c5 b9bc 1860 78be 99f9 a6be
00000060: 3a5e 97b8 fe8d 02bd a6f6 acbd 0bf6 05bd
00000070: 19cf 1b3f 4f50 4040 60c3 cabd 25fd 59bb
00000080: f9cf a0bc 6df8 1dbe 4dad 93bd 0eb6 50be
00000090: 4329 0fbe bf87 3dbd 809f 4240 fa03 cabd
000000a0: 0e02 f8bc 7321 e2bc 52f4 17be 228d deb7
000000b0: f679 5ebe 7543 23bd ebf9 19b8 8fea a5bd
000000c0: 2568 a5b9 3c56 4540 33e8 4bbb a4f7 c5bd
000000d0: 3441 05be 782d 8dbd 4ed5 47be 0428 a5bd
000000e0: 7bdc bdb9 0a07 5ebc 7807 9bb8 d4a4 a1b9
000000f0: f36f 78bd f90f 25bd 6f59 68bd 804f a4bd
00000100: 1d40 99bd 5549 3e40 831f f1bd f776 c6b6
00000110: f334 97bd 21e2 ef3f 4e54 a2bd 8b5a 89bd
00000120: 22f9 11be ecdf 73bd df57 b4bd f1c7 9abd
00000130: 487d 44be a223 4740 6b4f b4bd 6827 87b8
00000140: f94f 21be 6b6f 5fb8 020b 23b7 76ae c7bd
00000150: 6ea1 0cbe ac15 0db9 d824 72be baec eebd
00000160: 7b75 11be 829b 0abd 21c0 74be 4e67 f1ba
00000170: 13a4 62bd 526e 2ebb a98d 4540 f35e 24bc
00000180: 898f 62bb 44e1 40bd 0195 a5bd 4676 79be
00000190: bc63 adbe 2806 debd 6e5f bbbd cba2 e13f
000001a0: cae4 8abe af88 1bbe 00f0 c2bd ae45 78be
000001b0: b09e 83be 7aa8 52bd fa88 40be c4f4 28be
000001c0: 177b 5abe cd9c fabc 3a1e 29be 7c30 53bd
000001d0: 5fc8 1bbd 7ec5 2db8 dd9a 73bb 3605 d5bd
000001e0: e247 e2bc cb49 4240 440a f5bd f9c3 e0bd
000001f0: f38d 65bb 7478 06be 00d7 ecbd 64cf 16be
-0.13157889 -0.0358294 -0.23602828 -0.19082522 -0.11767372 -0.026681667 -0.15674531 -0.0147252055
-0.13714433 -0.21570593 -0.09836862 -0.28590983 -0.031449635 -0.20041825 -0.11807734 -0.012446422
-0.07552838 -0.0023270003 0.8832201 -0.23264067 -0.13539252 -0.022677157 -0.24255407 -0.32612303
-7.217792e-05 -0.031873696 -0.08445482 -0.032705348 0.6086288 3.0049016 -0.09900546 -0.0033262458
-0.01963042 -0.15426798 -0.07210789 -0.20381948 -0.13980584 -0.046272036 3.040985 -0.0986404
-0.030274417 -0.02760384 -0.14839295 -2.6530182e-05 -0.21726212 -0.039859254 -3.6710797e-05 -0.08101379
-0.00031548846 3.0833883 -0.0031113743 -0.09666374 -0.13013154 -0.06893438 -0.19514963 -0.08064273
-0.0003621316 -0.013551483 -7.392367e-05 -0.0003083112 -0.060653638 -0.040298436 -0.056725916 -0.08022976
-0.07482932 2.9732258 -0.117735885 -5.914709e-06 -0.07383146 1.8740884 -0.07926236 -0.06706723
-0.14255193 -0.05953972 -0.088058226 -0.07557667 -0.19188416 3.1115499 -0.0880421 -6.4446416e-05
-0.15753163 -5.327111e-05 -9.71812e-06 -0.09750073 -0.13733456 -0.00013454881 -0.23646867 -0.11666246
-0.14204971 -0.03383971 -0.23901416 -0.0018417628 -0.055332255 -0.002661605 3.0867712 -0.010032403
-0.0034570417 -0.04708983 -0.08085061 -0.24361524 -0.33865154 -0.10841018 -0.09149061 1.7627805
-0.27127677 -0.1518886 -0.095184326 -0.2424533 -0.25707006 -0.051430203 -0.18802252 -0.1649962
-0.21336018 -0.030592347 -0.16515437 -0.05155991 -0.038032886 -4.1430343e-05 -0.0037171163 -0.104013845
-0.027622167 3.035754 -0.11964849 -0.10974879 -0.0035027235 -0.13131887 -0.115644455 -0.1472755

fc4.weight f4 [32, 128]
00000000: 9155 973d 23c5 19bd d83a ac3d 5ebc edbc
00000010: 66f4 b33b c395 263d 5609 5ebd 2f6f a4bd
00000020: 280e 7abc 0009 c23b 182c 47bc b8fe 923d
00000030: 07f3 9a3d 8e0a 6b3d ddc4 4abd 7fc9 56bd
00000040: 2c48 9ebd e0be dc3c b163 6b3c 1d38 523d
00000050: f22d 553d 4705 a33d 0128 3ebd a385 1bbd
00000060: 6ead 173d a038 c3bc b24e 87bd 652a afbc
00000070: 1793 00bd d4ab a2bc 4057 f6bc 4d41 963d
00000080: 343f ab3d a5c2 a23d 68d3 8e3d cd9a 88bd
00000090: 864d 953d 5643 f83b f7ad b8bc 90eb 393d
000000a0: c94b 26bd 28ae a2bd 2c54 873d 9bbc 813d
000000b0: c54b ad3d f3b8 923d 43a3 c03c 4017 8f3c
000000c0: 4084 9e3c 2060 6bbd 411f b3bc b028 95bd
000000d0: 4413 9cbc f1ec 5abd f061 8ebc 895f 99bd
000000e0: c828 70bd 352f 9f3d dd62 2a3d 80df 353a
000000f0: 49fc 61bd c898 d2bc 449b 33bd 8e6b 6bbd
00000100: 6ca3 7ebd bdc7 40b9 1968 613c 6293 c0bd
00000110: 8f48 80bd 914e 413d 028c 9fbd be31 8e3c
00000120: e078 9a3b c42b 2abd 4c9b ab3d c882 4dbc
00000130: 9cd0 d13c 4d81 5fbd c944 52bd a5f9 46bd
00000140: 9a38 9b3d 7798 3fbd a16f a4bd 20b2 e63c
00000150: 50d3 ad3c 5287 1abc e5e1 8f3c 5ca6 9dbc
00000160: 7363 61bd 6849 1a3d c390 69bd 5038 7fbd
00000170: 88cb a1bc 14c4 9dbd 2589 4a3c 18ec b53d
00000180: 326c 8e3d e03f 963b 6e6b 77bd 1e42 b93c
00000190: 3749 93bd 4053 9d3d 4b4c a4bd 0360 123d
000001a0: 93c3 f5bc cf06 98bc 4877 58bc 206a 83bc
000001b0: 7d1d 353c 32d7 383d 4f26 47bd 18b6 20bc
000001c0: c9b2 b03d 4968 b8bd 018e c2bc 8fd0 863d
000001d0: 4495 66bd c8da 043d b433 3cbd bc8e 8c3c
000001e0: 629c 9a3d 14c6 87bd 2ab2 eebb 8037 9cbd
000001f0: ef9b 8dbd 270c b63d 2c11 3dbd 78f2 803c
00000200: 748d 883d 6114 083e 5871 b8bc 5933 ffbc
00000210: 8870 cebb 42f1 07bd 887e 4b3d 5b3b 8d3d
00000220: d837 21bd 8838 40bd 6c6f 4f3d 46cc 05bd
00000230: 56e0 6ebd 39ac 193d fc5c 0cbd 8579 b1bd
00000240: 52a8 39be 8543 833d b1e9 2d3d 177a a1bd
00000250: 82d5 a3bb 96ef a1bc 09ad acbd 5dd9 96bd
00000260: 0ecb 7e3d ec31 69bd 7d50 843d 754d 643d
00000270: 22f0 0bbe 38d6 373d 0e74 95bd 7b1d e83d
00000280: 8b73 74bc 2dc2 3b3d 8fe3 303c 5c5f 34bd
00000290: a09f b2bd b26c 8cbd 0109 6abd f5c4 f03d
000002a0: 3652 193c 92a3 e6bc f5d4 b23d 1c3c 803d
000002b0: 6858 e4bc b725 e1bc 8b20 5dbd 0d15 14bd
000002c0: a2a1 223d 3c8e a7bc e98f 0cbc 11b7 993c
000002d0: bf4c 973d cd95 953c ba09 6e3d 00ad 52bd
000002e0: 49ef 4cbc 2e7d 3c3d 4956 91bd d1ca a13c
000002f0: be96 51bd 197b ee3b e681 c63b 9d50 1a3c
00000300: 4854 fa3d dd24 00bd 809e 623c 2ff2 92bb
00000310: 1489 8bbd ee6d 873c b08d 673c a821 493d
00000320: eb37 ee3d 9479 493d 28c8 273d de7f 9c3d
00000330: 41d6 55bd 084b 5abd 36ba 483d 9497 a53b
00000340: 2680 9a3d 2fd2 173d 4d44 c93d 606d 07bd
00000350: 59da 043d e9db 27bd 27c7 4cbd cf7b 173d
00000360: 456f c83d 0e69 a5bd 3694 273d 36d5 a7bd
00000370: c387 a13d be40 85bd 1425 27bc 6a61 6b3c
00000380: 8356 7cbd f2f2 37bd 6da0 bd3d 9600 5dbd
00000390: 1cf0 8e3d ef06 a2bd 0c77 4bba d613 e2bd
000003a0: 3529 00bd 9c08 bbbd 719d b1bd df64 99bd
000003b0: 035c bf3c d6a9 203d 2cdc f93d f3ba 873d
000003c0: c30a 4cbd 7f3d 993c 9977 deba 5d97 0f3e
000003d0: f8b8 a13c a533 09bc 8108 4a3c b714 393d
000003e0: 96fd 313b cb15 b93c e7a1 19be 4aa3 a7bd
000003f0: 12bc a03d 901d 5d3d 623a de3d 859c f43d
0.07389367 -0.03754152 0.08409661 -0.029020485 0.005491781 0.040670168 -0.054208122 -0.08029019
-0.015262164 0.005921483 -0.012156509 0.0717749 0.07565885 0.057383113 -0.04950415 -0.052438255
-0.077286094 0.026946485 0.01436703 0.051323045 0.05204577 0.07959991 -0.04642487 -0.037969243
0.03703063 -0.023830712 -0.06606807 -0.02138252 -0.031390276 -0.019857325 -0.0300709 0.07336674
0.083616644 0.07947282 0.06973916 -0.06670151 0.07290177 0.0075763864 -0.02254389 0.045390666
-0.040599618 -0.07943374 0.066078514 0.06334802 0.084617175 0.071641825 0.02351535 0.017467141
0.019350171 -0.05746472 -0.021865489 -0.07283151 -0.019052155 -0.05344862 -0.017380685 -0.07488925
-0.058632642 0.07772676 0.04159819 0.0006937906 -0.05517224 -0.025707617 -0.043849245 -0.05747562
-0.06216757 -0.00018384955 0.013757729 -0.09403111 -0.062638395 0.047194067 -0.07790376 0.017357703
0.0047141165 -0.041545644 0.0837923 -0.012543388 0.025612168 -0.05456667 -0.05133513 -0.048577923
0.07579155 -0.04677626 -0.08029104 0.028161108 0.021218926 -0.009431677 0.01756377 -0.019244365
-0.055026483 0.037667662 -0.05702282 -0.062309563 -0.019750372 -0.077034146 0.012361799 0.08882922
0.0695423 0.004585251 -0.060405187 0.022614535 -0.07191699 0.07681894 -0.08022364 0.035736095
-0.030000484 -0.018557934 -0.013212033 -0.016041815 0.011054394 0.0451271 -0.04862052 -0.0098090395
0.086278506 -0.09004266 -0.023749353 0.06582748 -0.056294695 0.03243521 -0.045947745 0.017157905
0.07549359 -0.06629577 -0.0072844224 -0.07627773 -0.069145076 0.088890366 -0.046158955 0.015740618
0.06667605 0.13289024 -0.022514984 -0.031152414 -0.006300036 -0.033189066 0.049681216 0.06896087
-0.039359897 -0.046928912 0.05064337 -0.032665513 -0.058319412 0.03751776 -0.034268364 -0.08665756
-0.18130615 0.06409363 0.042459194 -0.07884615 -0.0049998173 -0.019767564 -0.08431441 -0.073656775
0.062205367 -0.056932375 0.064606644 0.05573793 -0.13665822 0.04488203 -0.07297526 0.11333748
-0.014920126 0.045839477 0.010796442 -0.044036254 -0.08721852 -0.068566695 -0.057137493 0.117563166
0.0093579795 -0.028154168 0.087320246 0.06261465 -0.027874187 -0.027483804 -0.053986114 -0.036152888
0.039704926 -0.020453565 -0.008579233 0.01876405 0.07387685 0.018259907 0.058114745 -0.051434517
-0.012508222 0.04601782 -0.07096536 0.01975003 -0.05116915 0.007277858 0.0060579656 0.009418634
0.122231066 -0.031285156 0.013831735 -0.004484437 -0.06813255 0.01653191 0.014132902 0.049104363
0.11631759 0.04918821 0.04096237 0.07641576 -0.05220628 -0.05329421 0.04900571 0.00505347
0.075439736 0.03706568 0.098274805 -0.033063293 0.032434795 -0.040981207 -0.049994614 0.036983307
0.09786848 -0.08076678 0.04091283 -0.08194964 0.078872226 -0.06506489 -0.010201711 0.014366487
-0.06160594 -0.044909425 0.092591144 -0.053955637 0.06979391 -0.07911479 -0.0007761575 -0.1103894
-0.031289298 -0.091325015 -0.08672608 -0.07489943 0.023359304 0.03922447 0.122001976 0.066274546
-0.04981495 0.018706081 -0.0016972899 0.14022584 0.01974152 -0.008374129 0.012331129 0.04518577
0.0027159206 0.0225934 -0.15003167 -0.08185442 0.078483716 0.05398327 0.108509794 0.11943916

fc4.bias f4 [32]
00000000: a26f 993c ce78 dbbd 828e 153d 3fa5 87bd
00000010: a75a 893e b6b5 5740 2853 4fbc 53ef 443f
00000020: d271 d13c c508 c9bd 7d3a 67bd 1d98 04be
00000030: b011 77bd 4235 6140 045d e4bd 4de9 a03c
00000040: 9e86 10be 7254 7a3d 1ffa 7cbd 0f83 493f
00000050: 0e1b 4c3c 6bdd 04bd cb80 04bd b4ae 60bd
00000060: b10f 86bc 9ae7 9abd c82e 5640 bc62 613d
00000070: 0269 bdbd a6ea 5ebd 0a6a 813e 7963 e53c
0.018729988 -0.10716401 0.03651286 -0.06623315 0.26826975 3.3704658 -0.012654103 0.7692768
0.025566969 -0.09816126 -0.056452263 -0.12948652 -0.060319602 3.5188756 -0.11150554 0.019642496
-0.14113852 0.06111569 -0.06176197 0.78715605 0.012457622 -0.032437723 -0.03234939 -0.05485411
-0.016364904 -0.07563706 3.3466053 0.0550258 -0.09248544 -0.054422997 0.25276214 0.028001534

fc5.weight f4 [1, 32]
00000000: d927 b33d 7d97 0cbc c82c bf3c 9ac7 213c
00000010: 97c1 863b 1d13 b03e 3c22 a8bc 10e0 eb3b
00000020: 35cf 75bc 7796 a83d 85c7 1cbe 6dfb bfbd
00000030: 0700 cd3d a4ee cd3e fd47 003d ecd7 433c
00000040: e952 ffbc 2401 ec3d a53f 0fbe e80b d03c
00000050: 2d83 08be ef17 ad3b 639b 9a3d e1a0 f2bd
00000060: 6174 5dbc c12c febd 9db9 bf3e 953b 97ba
00000070: 3e4a e6bd fe58 9bbd b6eb aabc 4fed 8abd
0.08747835 -0.0085810395 0.023336783 0.009874249 0.004112433 0.34389582 -0.020524137 0.007198341
-0.015003015 0.08231824 -0.15310486 -0.093741275 0.10009771 0.4022113 0.031318653 0.011953335
-0.031167464 0.11523655 -0.13989122 0.025396302 -0.1333129 0.005282394 0.07549169 -0.118470915
-0.013516516 -0.1241088 0.374463 -0.0011538143 -0.11244629 -0.07585333 -0.020864349 -0.06783544
