result/best_model.pth (torch, 75819 bytes, 25 tensors)

model.0.weight f4 [70, 8]
0.48579562 0.123838775 0.80752766 0.3529842 0.008075179 -0.3002727 0.32194066 1.6302016
-0.3182934 -0.0036143744 -0.7009423 -0.35179168 0.06545101 0.2602361 -0.4030004 -1.6089953
-0.49797252 -0.030241676 -0.75645214 -0.23118095 -0.024565274 0.33659905 -0.2688859 -1.6124558
-0.4670506 0.09486173 -0.6459181 -0.30005997 0.04111636 0.23588087 -0.26237008 -1.4072429
0.52219737 -0.08800074 0.85866964 0.31782112 0.030421749 -0.2789324 0.35776764 1.5601419
0.5802326 0.0042520734 0.93190527 0.40601647 0.0689824 -0.3811691 0.4069291 1.8360462
-0.66111654 -0.035964437 -0.9322081 -0.3758142 -0.040368337 0.3700663 -0.47028077 -2.0568788
0.60534465 0.08700013 0.914729 0.36236325 0.0012773165 -0.30269513 0.3296729 1.9528632
0.46410745 -0.049384907 0.8621676 0.28228116 -0.04609328 -0.35617322 0.29245132 1.6799394
-0.4193526 -0.0126803955 -0.6465127 -0.29736158 0.008701844 0.25226814 -0.19547477 -1.4391044
0.5444316 0.029824514 0.8434985 0.3734878 -0.09963327 -0.31431156 0.38627782 1.8866438
0.50269806 0.036980778 0.90770745 0.37904757 -0.054517094 -0.31179383 0.3894752 1.8801287
0.5069707 0.045503356 0.9150119 0.28883135 -0.0034149438 -0.3149375 0.34857547 1.7885573
0.43153962 0.029503895 0.7777638 0.35577568 0.0010391026 -0.33438542 0.31768376 1.5621014
-0.42496607 -0.028925562 -0.71457875 -0.2677376 -0.010140058 0.286454 -0.23990914 -1.6938268
-0.52693766 -0.0046749073 -0.98299116 -0.41270572 0.13504373 0.36428472 -0.34319806 -1.6669521
-0.33532035 -0.016634716 -0.5430046 -0.22767243 0.077654004 0.33320418 -0.24651136 -1.0145919
-0.4061576 0.019518107 -0.6392996 -0.23915605 0.06477041 0.2195116 -0.2671976 -1.2845668
0.45596284 0.111199774 0.9156259 0.3772952 -0.0430769 -0.34079027 0.37392625 1.8241472
-0.436919 -0.04792522 -0.8418264 -0.25682765 0.088302076 0.32073924 -0.3031599 -1.7979503
0.5850381 0.11288298 1.07215 0.35200602 -0.05916678 -0.35420626 0.42727995 1.9001018
0.5329769 -0.03885833 1.0360465 0.33592683 -0.02755592 -0.31053928 0.4181759 1.7459389
-0.32702607 -0.04842911 -0.7198781 -0.2767492 0.017215176 0.29301718 -0.36679548 -1.5811213
-0.48213968 -0.020663857 -0.78588504 -0.30520907 0.032118067 0.38912958 -0.26529562 -1.7144729
-0.35403466 -0.038332842 -0.7433533 -0.28463838 0.015628917 0.23926307 -0.25928912 -1.2897383
-0.4820864 0.09431146 -0.8787869 -0.23280217 0.017812017 0.32081172 -0.41134423 -1.7045624
0.46369395 -0.01911681 0.83845145 0.26590124 0.0358245 -0.27557337 0.3841422 1.6292275
-0.5130437 -0.027627783 -0.92663544 -0.3425071 0.0489182 0.22740318 -0.4080284 -1.9022808
0.36639807 0.005630835 0.55740845 0.17584164 0.06006878 -0.24477732 0.29474846 1.0945714
0.56270427 0.010231873 0.91489357 0.41218293 0.028601887 -0.32668558 0.39608082 1.6374694
-0.3565469 0.025418287 -0.6602677 -0.2277003 -0.004952157 0.2660309 -0.29342517 -1.2355515
-0.27237913 0.17724694 0.22897859 -0.18565954 -0.027516933 0.038219087 -0.06479834 -0.6325554
00000000: 34ba f83e 2f9f fd3d 22ba 4e3f 58ba b43e
00000010: c14d 043c 58bd 99be 68d5 a43e 72aa d03f
00000020: 5af7 a2be 24df 6cbb f470 33bf 0a1e b4be
00000030: 2e0b 863d ab3d 853e 1256 cebe 8ff3 cdbf
00000040: 41f6 febe 64bd f7bc d9a6 41bf b3ba 6cbe
00000050: 1d3d c9bc b656 ac3e 6aab 89be f464 cebf
00000060: 4221 efbe de46 c23d e35a 25bf 76a1 99be
00000070: a169 283d c18a 713e 5f55 86be 8920 b4bf
00000080: baae 053f bb39 b4bd c6d1 5b3f 73b9 a23e
00000090: 0837 f93c 3ad0 8ebe 522d b73e bbb2 c73f
000000a0: 208a 143f fa54 8b3b 5891 6e3f 64e1 cf3e
000000b0: a546 8d3d 9928 c3be 0359 d03e 9003 eb3f
000000c0: ef3e 29bf 724f 13bd 31a5 6ebf b86a c0be
000000d0: 4559 25bd 5479 bd3e a4c8 f0be e7a3 03c0
000000e0: def7 1a3f 202d b23d ae2b 6a3f ad87 b93e
000000f0: a16b a73a dbfa 9abe e3ca a83e 6cf7 f93f
00000100: 7e9f ed3e d447 4abd 04b7 5c3f 2887 903e
00000110: 4fcc 3cbd 565c b6be 2ebc 953e 4108 d73f
00000120: 62b5 d6be 6fc1 4fbc db81 25bf c73f 98be
00000130: 2e92 0e3c 4a29 813e 8a2a 48be 9334 b8bf
00000140: df5f 0b3f 8a52 f43c 85ef 573f cb39 bf3e
00000150: 870c ccbd 72ed a0be 35c6 c53e 8b7d f13f
00000160: d2b0 003f 2879 173d 845f 683f 8612 c23e
00000170: 514d 5fbd 71a3 9fbe 4b69 c73e 0fa8 f03f
00000180: d5c8 013f ba61 3a3d 383e 6a3f b4e1 933e
00000190: 40cd 5fbb 7d3f a1be 7c78 b23e 72ef e43f
000001a0: c3f2 dc3e 27b2 f13c 871b 473f 3b28 b63e
000001b0: 7f32 883a 9134 abbe 72a7 a23e f0f2 c73f
000001c0: 2795 d9be 4df5 ecbc a2ee 36bf e714 89be
000001d0: 7c22 26bc 19aa 923e beaa 75be 51cf d8bf
000001e0: 63e5 06bf f72f 99bb 4fa5 7bbf 2a4e d3be
000001f0: e748 0a3e 8783 ba3e a8b7 afbe b05e d5bf
00000200: 1caf abbe 8745 88bc 5902 0bbf f622 69be
00000210: 1009 9f3d bd99 aa3e 796d 7cbe 26de 81bf
00000220: e4f3 cfbe 70e4 9f3c 23a9 23bf 53e5 74be
00000230: 59a6 843d a6c7 603e 20ce 88be af6c a4bf
00000240: f673 e93e b5bc e33d 7566 6a3f d62c c13e
00000250: 6771 30bd 107c aebe 4373 bf3e a87d e93f
00000260: d9b3 dfbe 3c4d 44bd ef81 57bf ea7e 83be
00000270: b8d7 b43d ef37 a43e c637 9bbe 3c23 e6bf
00000280: 0fc5 153f 312f e73d 363c 893f 223a b43e
00000290: de58 72bd 865a b5be 70c4 da3e 8936 f33f
000002a0: 2d71 083f ea29 1fbd 2c9d 843f 9afe ab3e
000002b0: f4bc e1bc 01ff 9ebe 271b d63e ed7a df3f
000002c0: f66f a7be 9a5d 46bd ee49 38bf 12b2 8dbe
000002d0: d706 8d3c 5906 963e 9ecc bbbe 2f62 cabf
000002e0: 03db f6be 4047 a9bc c32f 49bf 5d44 9cbe
000002f0: 3c8e 033d fe3b c73e d4d4 87be d973 dbbf
00000300: 0844 b5be e602 1dbd 674c 3ebf 1fbc 91be
00000310: 3708 803c 6101 753e 8bc1 84be 2516 a5bf
00000320: 07d4 f6be 5e26 c13d 2ef8 60bf b163 6ebe
00000330: 82ea 913c 6f41 a43e b69b d2be 1a2f dabf
00000340: 4b69 ed3e db9a 9cbc c1a4 563f 3524 883e
00000350: b6bc 123d f417 8dbe 49ae c43e 878a d03f
00000360: d556 03bf a953 e2bc fb37 6dbf 175d afbe
00000370: 735e 483d 61dc 683e 19e9 d0be f07d f3bf
00000380: 8798 bb3e de82 b83b 52b2 0e3f d50f 343e
00000390: ae0a 763d e8a6 7abe 45e9 963e ea1a 8c3f
000003a0: 630d 103f 96a3 273c 7736 6a3f a409 d33e
000003b0: 814e ea3c 5543 a7be 1bcb ca3e 9998 d13f
000003c0: 518d b6be 033a d03c 4e07 29bf 442a 69be
000003d0: b445 a2bb 3435 883e d33b 96be 8d26 9ebf
000003e0: 4775 8bbe 3980 353e 5d79 6a3e 891d 3ebe
000003f0: 316b e1bc 9e8b 1c3d feb4 84bd 27ef 21bf

model.0.bias f4 [70]
-0.3729337 1.2512255 -0.42754948 0.9453759 -0.086843915 -0.70408416 0.8636073 -0.63351053
-0.6193293 0.69718754 0.62401634 0.30363604 -0.021196337 0.10454689 0.39482075 0.6519133
0.6690469 0.30771118 -0.40654242 1.4069484 -1.3178726 -1.0134234 -0.33289132 0.115006514
0.7622902 0.65660864 0.11641777 0.1707986 -0.39236328 -0.94307244 0.42382067 0.71418417
0.07740302 -1.0976318 0.29649338 0.34308565 0.3563044 0.7794362 -0.08727406 0.40841988
0.2783006 -0.06536044 -1.092663 -0.022749858 1.1062654 -0.72868663 0.29761147 -0.015662868
0.95352864 -0.16707692 0.90189797 1.5811489 0.68351084 0.22668643 -1.7045207 0.86766267
0.3701469 0.89334196 -1.0297227 0.16423649 -0.27341485 0.44537255 0.9445746 0.49764034
0.34778932 -0.5978269 -1.0319524 0.574091 -0.51680624 -1.0216486
00000000: 2af1 bebe 2828 a03f c4e7 dabe 2804 723f
00000010: 39db b1bd dc3e 34bf 5e15 5d3f bf2d 22bf
00000020: 5d8c 1ebf e27a 323f 89bf 1f3f 2f76 9b3e
00000030: f1a3 adbc ae1c d63d f225 ca3e cae3 263f
00000040: a846 2b3f 528c 9d3e 5426 d0be e316 b43f
00000050: 0db0 a8bf dcb7 81bf bb70 aabe 8988 eb3d
00000060: 7325 433f 8117 283f 716c ee3d d4e5 2e3e
00000070: d7e3 c8be 326d 71bf 06ff d83e c6d4 363f
00000080: 7985 9e3d 337f 8cbf fbcd 973e eca8 af3e
00000090: 886d b63e 2189 473f bebc b2bd 691c d13e
000000a0: 6b7d 8e3e b2db 85bd 62dc 8bbf e95d babc
000000b0: 1b9a 8d3f 358b 3abf 8860 983e 6a4f 80bc
000000c0: 741a 743f 3616 2bbe c9e2 663f 1663 ca3f
000000d0: 91fa 2e3f 7d20 683e bc2d dabf 241f 5e3f
000000e0: e583 bd3e 0fb2 643f f4cd 83bf 9c2d 283e
000000f0: 08fd 8bbe df07 e43e a4cf 713f b7ca fe3e
00000100: 7111 b23e 2f0b 19bf 0417 84bf a1f7 123f
00000110: 6a4d 04bf 62c5 82bf

model.1.weight f4 [70]
0.42807534 0.28338113 1.1911709 0.5090369 0.72267324 0.33821788 0.36812565 0.54603523
0.5694961 0.5320686 1.1121209 1.17121 0.5097871 0.5676106 0.4948195 -0.3257206
0.4690587 0.50007516 0.83113825 0.3663836 0.39328504 0.793315 0.3676522 0.8386805
0.48402244 0.7395471 0.5818158 0.44163674 0.4576136 0.3652833 0.67082083 -0.020223003
0.47391942 0.37386513 1.0884928 0.32869074 0.32121426 0.45451048 0.33944407 0.59300405
0.71818596 0.18931295 0.555084 0.59711385 0.36853403 0.3516666 0.38283437 1.0227698
1.3034843 0.05470118 0.7012477 0.35578668 0.56348807 0.77036846 0.48313603 0.7052784
0.3415812 0.47766542 0.43181935 0.05323879 0.048505124 0.5016241 0.6049087 0.45086536
0.53930503 0.5976192 0.7638511 0.029578198 0.5222149 0.42447597
00000000: b12c db3e 5517 913e 4a78 983f 3e50 023f
00000010: 1d01 393f e52a ad3e f77a bc3e f7c8 0b3f
00000020: 7fca 113f a635 083f fa59 8e3f 36ea 953f
00000030: 6881 023f ee4e 113f fb58 fd3e dac4 a6be
00000040: 7628 f03e ed04 003f 7ac5 543f a296 bb3e
00000050: a85c c93e b116 4b3f e93c bc3e c4b3 563f
00000060: cad1 f73e f552 3d3f e1f1 143f 361e e23e
00000070: 544c ea3e 6a06 bb3e eaba 2b3f b6aa a5bc
00000080: 91a5 f23e 406b bf3e bb53 8b3f 274a a83e
00000090: 3276 a43e 99b5 e83e 9dcb ad3e 1dcf 173f
000000a0: 09db 373f 41db 413e fc19 0e3f 74dc 183f
000000b0: 7eb0 bc3e a50d b43e de02 c43e 1fea 823f
000000c0: 93d8 a63f 580e 603d f884 333f ac29 b63e
000000d0: c140 103f de36 453f 9b5d f73e 208d 343f
000000e0: bbe3 ae3e 9090 f43e 6d17 dd3e eb10 5a3d
000000f0: 4fad 463d 706a 003f 4cdb 1a3f d3d7 e63e
00000100: e50f 0a3f 92fd 183f bf8b 433f fa4d f23c
00000110: e0af 053f ea54 d93e

model.1.bias f4 [70]
0.057804104 -0.3174715 1.324937 -0.9724863 -0.38933206 0.317473 -0.27361944 -0.10434011
-0.07539404 -0.99607474 -0.9089272 -1.1772282 -0.058392305 -0.07585664 -0.7876174 0.4706886
-0.7562534 -0.601484 -0.7222762 -0.23388724 0.13748102 -0.38375643 -0.21075319 0.48307964
-0.6311494 -0.18541305 0.23012722 -0.030558467 0.20398892 0.21555357 -1.2566862 -0.19073202
0.09759158 0.101212226 1.2064465 -0.37314805 -0.3207749 -0.40916786 -0.28048924 -1.0313638
0.3695077 0.18380187 0.70010364 0.28736043 -0.23703226 0.47672844 -0.13850492 -0.8519703
-1.4527069 -0.070118934 -0.44001678 -0.21867082 -0.027523523 -0.38603988 -0.10365192 -1.3380346
-0.22296362 0.15914401 0.05433392 -0.13619746 0.1610078 -0.5961298 -0.55022764 0.15823078
-0.73444897 0.9680753 1.2698071 0.07385358 -0.059114575 0.3320257
00000000: ffc3 6c3d a08b a2be 8997 a93f ddf4 78bf
00000010: 8856 c7be d28b a23e d917 8cbe 45b0 d5bd
00000020: 3168 9abd c1fe 7ebf 74af 68bf 6aaf 96bf
00000030: c52c 6fbd ba5a 9bbd 4ba1 49bf 19fe f03e
00000040: d399 41bf dbfa 19bf 18e7 38bf 2380 6fbe
00000050: d3c7 0c3e b97b c4be afcf 57be 3756 f73e
00000060: 0293 21bf ebdc 3dbe 78a6 6b3e c055 fabc
00000070: 79e2 503e 13ba 5c3e 18db a0bf 414f 43be
00000080: 18de c73d 5b48 cf3d d76c 9a3f 430d bfbe
00000090: 9c3c a4be 737e d1be 499c 8fbe bb03 84bf
000000a0: 1d30 bd3e 8f36 3c3e fe39 333f e820 933e
000000b0: 96b8 72be c015 f43e 3cd4 0dbe ba1a 5abf
000000c0: 4df2 b9bf 849a 8fbd e149 e1be 3eeb 5fbe
000000d0: 0379 e1bc 05a7 c5be 7547 d4bd b844 abbf
000000e0: 9350 64be a6f6 223e 3f8d 5e3d 5977 0bbe
000000f0: 3bdf 243e f69b 18bf b8db 0cbf 4007 223e
00000100: d904 3cbf c8d3 773f 0a89 a23f 8c40 973d
00000110: 2022 72bd 46ff a93e

model.1.running_mean f4 [70]
16.968716 -13.992838 -16.123367 -12.814967 16.376024 18.520285 -19.919775 19.470978
15.266082 -13.100401 18.939404 19.163517 18.088667 16.079842 -15.122057 -16.562277
-9.117537 -12.290641 18.051615 -15.012101 19.041002 17.58798 -15.261727 -15.84778
-12.817121 -15.77145 16.671862 -19.135042 11.128038 17.169512 -12.15301 -2.9751427
-17.502811 13.130951 -20.104296 -17.710773 -13.317789 -14.458249 -17.865765 -11.657523
17.11391 9.623031 14.124693 -18.898033 -13.468191 9.882712 -14.641843 16.154354
16.900576 -3.9520066 -12.3295965 -17.782316 -15.038329 -13.57102 17.53601 -12.41446
-15.364758 -18.923128 -20.949114 4.6943493 -1.8507786 -14.866015 -12.879903 -18.328314
-11.731075 11.428049 12.072244 -1.4669256 17.221031 15.809021
00000000: eebf 8741 aae2 5fc1 a8fc 80c1 1b0a 4dc1
00000010: 1902 8341 8b29 9441 b35b 9fc1 90c4 9b41
00000020: df41 7441 3e9b 51c1 e683 9741 e24e 9941
00000030: 97b5 9041 84a3 8041 f2f3 71c1 8b7f 84c1
00000040: 6ee1 11c1 77a6 44c1 b569 9041 9131 70c1
00000050: f953 9841 2fb4 8c41 0930 74c1 8290 7dc1
00000060: ed12 4dc1 dc57 7cc1 f95f 8541 9114 99c1
00000070: 720c 3241 295b 8941 bb72 42c1 bd68 3ec0
00000080: c205 8cc1 6018 5241 99d5 a0c1 aaaf 8dc1
00000090: aa15 55c1 fd54 67c1 16ed 8ec1 3785 3ac1
000000a0: 4ae9 8841 eff7 1941 befe 6141 2c2f 97c1
000000b0: b67d 57c1 971f 1e41 fd44 6ac1 1e3c 8141
000000c0: 6134 8741 aded 7cc0 0746 45c1 2f42 8ec1
000000d0: ff9c 70c1 e622 59c1 c049 8c41 a1a1 46c1
000000e0: 0cd6 75c1 9162 97c1 c997 a7c1 1c38 9640
000000f0: 50e6 ecbf 33db 6dc1 1514 4ec1 63a0 92c1
00000100: 7cb2 3bc1 4ad9 3641 e927 4141 38c4 bbbf
00000110: acc4 8941 c0f1 7c41

model.1.running_var f4 [70]
32.130375 29.41473 30.567522 23.727169 31.316263 42.09273 50.41272 44.59132
33.760357 23.847565 41.238247 41.72951 38.142868 29.658094 31.635107 37.049828
13.811018 20.008184 39.80921 36.535057 46.061264 40.016273 28.434387 34.11278
21.199244 35.224403 32.057682 42.1589 15.091596 35.383244 19.174017 5.030728
37.915318 23.95643 50.42818 36.337902 25.741358 26.982576 36.278 17.267385
32.147408 8.464999 24.324902 44.094048 25.952187 10.7147 32.871906 30.650475
31.153088 7.4806194 21.359962 44.502483 29.889242 22.803453 45.37983 20.077715
26.852074 43.613255 44.24424 9.051049 5.933616 27.566906 24.674046 42.306213
19.848297 19.602217 24.470285 7.7493925 39.059864 32.53437
00000000: 8185 0042 5e51 eb41 498a f441 3ed1 bd41
00000010: b587 fa41 f55e 2842 a0a6 4942 835d 3242
00000020: 9b0a 0742 d0c7 be41 f7f3 2442 05eb 2642
00000030: 4c92 1842 c743 ed41 b314 fd41 0633 1442
00000040: eef9 5c41 c310 a041 a23c 1f42 e623 1242
00000050: bc3e 3842 aa10 2042 a079 e341 7d73 0842
00000060: 0d98 a941 cae5 0c42 113b 0042 b7a2 2842
00000070: 2d77 7141 7188 0d42 6364 9941 b9fb a040
00000080: 49a9 1742 c5a6 bf41 75b6 4942 035a 1142
00000090: 4dee cd41 51dc d741 ac1c 1142 9b23 8a41
000000a0: f296 0042 a370 0741 6699 c241 4e60 3042
000000b0: 149e cf41 696f 2b41 d57c 0342 2c34 f541
000000c0: 8639 f941 3c61 ef40 34e1 aa41 8b02 3242
000000d0: 2b1d ef41 796d b641 f284 3542 299f a041
000000e0: 0cd1 d641 f973 2e42 1afa 3042 19d1 1041
000000f0: 2fe0 bd40 0689 dc41 7264 c541 9039 2942
00000100: 50c9 9e41 57d1 9c41 25c3 c341 06fb f740
00000110: 4d3d 1c42 3223 0242

model.4.weight f4 [70, 70]
0.44966683 0.49009353 -0.0601315 0.046962384 -0.14502281 -1.1178931 0.42735922 -0.03511822
-0.076163374 0.11595658 0.0066254414 -0.14839287 0.19712621 -0.1097857 0.23561384 -1.0304904
0.0641323 1.2830213 0.22047804 -0.09407259 0.005570428 0.059479948 0.37281743 -0.0985179
1.3677021 -0.023847118 -0.008423394 0.012738565 -0.003761665 0.010238628 -0.20041081 0.052191004
-0.07182118 -0.3898741 -0.08497727 0.65911955 0.51229084 0.6884713 0.63182104 -0.01661115
0.10632893 -0.11385113 -1.5097295 -0.08197895 -0.02082918 -0.09699876 0.10853743 0.07525975
-0.19733919 -0.14214155 -0.41279042 0.3938599 0.19617698 -0.14827122 -0.0057394644 -0.22584106
0.14896357 0.026674127 -0.12092322 -0.033392172 0.005001454 1.5297972 0.5266498 0.029556353
1.3429211 0.11265524 -0.075308025 0.12744607 -0.051803563 -0.11592057 -0.08268846 -0.6972363
-0.17737967 -0.21125524 0.40370977 0.95878774 -0.58770525 0.105260134 0.1586048 -0.09133055
0.2729211 0.10603458 0.2678989 0.23489752 -0.49116898 0.7557626 -0.085798316 -0.9684467
0.21842423 -0.07071027 -0.017430393 0.12063055 -0.2545078 -0.21431285 -1.217615 -0.056184594
-0.13569833 -0.06297092 0.16914329 -0.035437 0.1595621 0.05769593 -0.033470757 0.13946295
-0.093899965 -0.695537 -0.48256484 -0.64873666 -0.728669 -0.1506167 -0.09857671 0.18434988
0.98121476 -0.17222297 -0.1885619 0.18602264 -0.2725498 0.054112524 0.24131931 -0.020391064
0.2156198 -0.3272276 0.1339615 0.2607834 0.016575027 0.27039552 -0.09313677 0.10353584
0.028617699 0.009482571 -0.07750579 -1.0509012 -0.16888675 0.03764574 -1.104644 0.03727538
0.10221807 -0.10781459 0.15373279 0.23757036 0.08234395 0.11189059 -0.16285418 -0.007540051
-3.1034832 0.4164107 -0.19104734 -0.59070575 -0.48555934 -0.027813341 -1.0685152 -0.079533294
-0.1777366 -0.55049574 -0.12349351 -0.48184776 -0.120966494 -0.049079556 -1.2292488 -0.041907147
0.029223813 -2.1595926 0.26031187 1.9168336 0.3816635 0.18811601 -0.21449274 0.26916894
-0.06642382 -0.13213843 -0.32602006 0.19159588 0.88158596 -0.24511248 0.06770921 0.3453419
0.08155365 0.30996993 -0.27611697 -0.15046635 -0.20423672 -0.1880933 -0.17064248 2.4759371
0.28237945 -0.24894273 0.48413482 -0.69146234 0.03229914 0.13286373 0.00013857278 0.3049003
0.30948132 0.3934179 -1.3673911 -0.10841742 0.017085457 0.73714876 0.015857726 -0.0113438135
-0.11474523 -0.06408576 0.20645249 0.8875067 -0.022609547 -0.05697788 0.27240562 -0.3458295
-0.6583438 -0.1516376 0.5249987 -0.3664315 -0.113520324 -0.023032596 0.10990787 0.46181104
-0.95295525 0.07139377 -0.056080766 0.2310826 0.22896028 0.24258655 -0.1500078 0.18347906
-0.29349652 0.51525766 0.10804825 0.048110254 0.0084507195 -1.1257781 0.21656111 0.2236417
-0.3527521 -0.10960077 -0.005540451 -0.004274824 1.133637 -0.473283 0.52740973 0.987443
0.1262151 0.111482024 -0.23715417 0.12605377 0.044471685 -0.1355766 -0.6795552 -0.264656
-0.8070458 -0.0890347 0.94551754 0.061731067 -0.3290201 -0.2225881 -0.92121696 0.24480999
00000000: bb3a e63e 8aed fa3e 734c 76bd a15b 403d
00000010: dc80 14be 1f17 8fbf d4ce da3e 1fd8 0fbd
00000020: 8bfb 9bbd a57a ed3d 3b1a d93b 4df4 17be
00000030: 74db 493e 53d7 e0bd c144 713e 1ce7 83bf
00000040: cc57 833d 0b3a a43f ffc4 613e 21a9 c0bd
00000050: 2388 b63b 3fa1 733d ede1 be3e c1c3 c9bd
00000060: dd10 af3f 085b c3bc 4602 0abc 6ab5 503c
00000070: 4486 76bb ebbf 273c 7e38 4dbe 3cc6 553d
00000080: fc16 93bd 949d c7be 9008 aebd 0fbc 283f
00000090: 7e25 033f a83f 303f 06bf 213f 1b14 88bc
000000a0: fbc2 d93d c82a e9bd d13e c1bf 94e4 a7bd
000000b0: f5a1 aabc 49a7 c6bd df48 de3d c921 9a3d
000000c0: 4913 4abe 8e8d 11be 4459 d3be 01a8 c93e
000000d0: 9ee2 483e 69d4 17be 1e12 bcbb e142 67be
000000e0: e889 183e b383 da3c 98a6 f7bd 3bc6 08bd
000000f0: 3de3 a33b 65d0 c33f 85d2 063f 2a20 f23c
00000100: d7e4 ab3f cab7 e63d 183b 9abd 3981 023e
00000110: f92f 54bd c467 edbd 9158 a9bd 147e 32bf
00000120: 04a3 35be 4b53 58be 0cb3 ce3e 1d73 753f
00000130: da73 16bf a092 d73d 4c69 223e 830b bbbd
00000140: 50bc 8b3e a828 d93d 0b2a 893e fa88 703e
00000150: 807a fbbe a879 413f 07b7 afbd 1fec 77bf
00000160: 9aaa 5f3e 8cd0 90bd 2fca 8ebc 260d f73d
00000170: d94e 82be d474 5bbe cfda 9bbf d121 66bd
00000180: 81f4 0abe e6f6 80bd e633 2d3e 6326 11bd
00000190: 3f64 233e 9152 6c3d a218 09bd 60cf 0e3e
000001a0: a04e c0bd b60e 32bf bd12 f7be 9b13 26bf
000001b0: 0d8a 3abf 443b 1abe 96e2 c9bd 37c6 3c3e
000001c0: e430 7b3f 385b 30be 5f16 41be b87c 3e3e
000001d0: a68b 8bbe 18a5 5d3d 691c 773e 290b a7bc
000001e0: 70cb 5c3e 608a a7be 342d 093e 6785 853e
000001f0: 5ac8 873c 4871 8a3e 7ebe bebd 990a d43d
00000200: aa6f ea3c c95c 1b3c 5bbb 9ebd ee83 86bf
00000210: a6f0 2cbe 6b32 1a3d f964 8dbf 12ae 183d
00000220: b557 d13d e5cd dcbd 216c 1d3e a545 733e
00000230: f2a3 a83d e526 e53d 3fc3 26be 8812 f7bb
00000240: 789f 46c0 c933 d53e eaa1 43be 7e38 17bf
00000250: 3c9b f8be ced8 e3bc 1bc5 88bf 5ae2 a2bd
00000260: 9500 36be 4aed 0cbf 2aea fcbd c0b4 f6be
00000270: 48bd f7bd a507 49bd 0658 9dbf d4a6 2bbd
00000280: c766 ef3c c436 0ac0 9947 853e ce5a f53f
00000290: 6669 c33e 7ca1 403e fca3 5bbe 83d0 893e
000002a0: 3609 88bd 4c4f 07be 1aec a6be b631 443e
000002b0: 9eaf 613f c4fe 7abe 20ab 8a3d a7d0 b03e
000002c0: 9a05 a73d 61b4 9e3e 345f 8dbe da13 1abe
000002d0: 6e23 51be 889b 40be e7bc 2ebe c175 1e40
000002e0: 0a94 903e d8ea 7ebe 85e0 f73e ad03 31bf
000002f0: 1a4c 043d 6e0d 083e d94d 1139 e41b 9c3e
00000300: 5674 9e3e 126e c93e ac06 afbf f409 debd
00000310: cdf6 8b3c c8b5 3c3f 10e8 813c 67db 39bc
00000320: 8cff eabd 653f 83bd 4868 533e a433 633f
00000330: a837 b9bc a361 69bd c078 8b3e 9010 b1be
00000340: 3889 28bf e346 1bbe 5166 063f e99c bbbe
00000350: 587d e8bd dbae bcbc 6117 e13d 7f72 ec3e
00000360: e0f4 73bf e636 923d f2b4 65bd eba0 6c3e
00000370: 9074 6a3e 9c68 783e a59b 19be efe1 3b3e
00000380: 2d45 96be ede7 033f 6748 dd3d 420f 453d
00000390: e374 0a3c 7f19 90bf 32c2 5d3e 5402 653e
000003a0: ec9b b4be 5e76 e0bd ac8c b5bb d313 8cbb
000003b0: 041b 913f 2652 f2be 5304 073f 10c9 7c3f
000003c0: 883e 013e b050 e43d 8bd8 72be 3d14 013e
000003d0: f127 363d 98d4 0abe 54f7 2dbf fe80 87be
000003e0: 8e9a 4ebf d357 b6bd 700d 723f b7d9 7c3d
000003f0: 5375 a8be 23ee 63be e0d4 6bbf 78af 7a3e

model.4.bias f4 [70]
0.43948406 -0.93658155 -1.0583248 -0.4490065 0.23399751 -0.04906866 -0.18257095 0.8898329
-0.7228242 0.13594763 -0.70106316 0.66624194 1.2410405 -0.44473565 -0.33281642 -0.02608249
-0.5796457 0.1379824 -1.7016944 -0.2843408 -0.06727246 -0.57559365 1.1053298 -0.26384994
-0.395731 -0.68257946 -0.6675939 -0.28914484 -0.017012186 -0.56672716 -0.22867785 -0.6014323
0.85594547 0.010361097 0.52673924 -0.73183143 0.29372203 -0.2947003 -0.17120619 -0.7634802
0.71954364 -1.1195606 -0.09214378 -0.6338401 0.45919123 0.62095016 -0.61349213 0.5973276
0.45022812 0.113604 -0.49763358 -0.61453074 1.4014333 0.13255273 -0.57032806 -0.5486697
-0.49740863 -0.7187459 0.41171715 -0.60769635 -0.47876948 0.36319616 -0.6840742 0.7391012
-0.30178818 -0.008394881 -0.057981245 -0.4228871 0.32674482 0.21208383
00000000: 0e04 e13e cfc3 6fbf 3077 87bf 2ee4 e5be
00000010: 0b9d 6f3e 38fc 48bd e1f3 3abe 17cc 633f
00000020: 020b 39bf db35 0b3e e078 33bf d58e 2a3f
00000030: 6ada 9e3f 64b4 e3be ea66 aabe f2aa d5bc
00000040: a963 14bf 424b 0d3e 1fd1 d9bf 1e95 91be
00000050: 25c6 89bd 1b5a 13bf 727b 8d3f 5717 87be
00000060: 419d cabe 87bd 2ebf 6fe7 2abf cb0a 94be
00000070: 245d 8bbc 0815 11bf 872a 6abe 78f7 19bf
00000080: 3e1f 5b3f 97c1 293c 62d8 063f 4e59 3bbf
00000090: bc62 963e f5e2 96be ad50 2fbe 7073 43bf
000000a0: 0334 383f c34d 8fbf e1b5 bcbd 5843 22bf
000000b0: 1d1b eb3e 97f6 1e3f d20d 1dbf 76ea 183f
000000c0: 4d84 e63e 37a9 e83d d4c9 febe e351 1dbf
000000d0: 2b62 b33f e7bb 073e 0501 12bf 9e75 0cbf
000000e0: 58ac febe bbff 37bf 97cc d23e fd91 1bbf
000000f0: 4621 f5be d9f4 b93e 7d1f 2fbf bc35 3d3f
00000100: fb83 9abe af8a 09bc be7d 6dbd a884 d8be
00000110: 194b a73e 812c 593e

model.5.weight f4 [70]
0.36474133 0.3363267 1.7126528 0.5317723 0.6984484 0.7490215 0.46850008 0.55388665
0.43674445 0.3299808 0.38117728 0.550858 0.9934286 0.4095706 0.49931952 0.802987
0.66272396 0.36810178 1.5719401 0.68671674 1.1271628 0.5275088 1.1432426 0.58457935
0.42707923 0.3725982 1.3415523 1.1349993 1.5307112 0.73750305 1.1831648 1.6125675
0.42748493 0.3410353 0.41804153 0.36334136 0.4144067 0.43590564 1.6974739 0.29722947
0.46705705 0.53827107 0.6277371 0.9810079 0.6233783 0.34969708 0.34835306 0.42362136
0.40737948 0.46487984 0.50018024 0.523672 1.6601601 0.37980452 0.37101874 0.99279237
0.47633797 0.2880899 0.81230223 0.32763407 0.68740994 1.8467231 1.3480017 0.3335386
1.6881889 1.5396985 1.5226874 0.48620608 0.9697839 0.7716789
00000000: 60bf ba3e 0333 ac3e 3538 db3f 3b22 083f
00000010: 84cd 323f dfbf 3f3f 3edf ef3e 84cb 0d3f
00000020: f89c df3e 3ef3 a83e ab29 c33e 0805 0d3f
00000030: 5651 7e3f 3db3 d13e cfa6 ff3e 8e90 4d3f
00000040: 47a8 293f d677 bc3e 5535 c93f abcc 2f3f
00000050: df46 903f d10a 073f c655 923f fea6 153f
00000060: 21aa da3e 31c5 be3e fcb7 ab3f a847 913f
00000070: 58ee c33f 00cd 3c3f f271 973f 9d68 ce3f
00000080: 4edf da3e 2e9c ae3e 8a09 d63e e107 ba3e
00000090: 1d2d d43e 062f df3e d346 d93f 762e 983e
000000a0: 1a22 ef3e 22cc 093f 61b3 203f 5523 7b3f
000000b0: b895 1f3f 7f0b b33e 555b b23e e6e4 d83e
000000c0: 0b94 d03e bb04 ee3e d00b 003f 5e0f 063f
000000d0: 2080 d43f bd75 c23e 2bf6 bd3e a427 7e3f
000000e0: 92e2 f33e 8580 933e 0af3 4f3f a7bf a73e
000000f0: 19fa 2f3f 6c61 ec3f 528b ac3f 92c5 aa3e
00000100: 9316 d83f d714 c53f 6ce7 c23f 01f0 f83e
00000110: c243 783f c08c 453f

model.5.bias f4 [70]
-0.57140446 0.3806242 1.1209432 0.25647092 -0.11499553 -0.11854508 0.53514105 -1.8598197
1.0691283 -0.38477808 0.5324078 -1.4394029 -0.36129785 1.067246 0.36127624 -0.28156683
0.35053834 -0.37047198 2.0853093 1.0990003 0.19984312 0.41091722 -0.024511078 1.7100438
-0.0509227 0.4673017 -1.0653018 0.29361185 -2.0223296 0.013193603 0.90121466 -0.9680523
-1.2851194 0.044683013 -0.709883 0.7263347 -0.5335806 0.88529855 -1.3541405 0.49378726
-0.9543716 1.130489 -0.6741889 0.23934759 -0.30640203 -0.3542997 0.71611214 -0.6112406
-0.8681192 -0.47660998 0.360933 0.37457016 -2.1358645 -0.34222284 0.36715165 0.04188234
-0.0033863652 0.4879338 -1.554832 0.60897225 0.3288692 -1.02836 -0.2602449 -0.4072145
2.1005409 -0.5641613 -2.010138 0.38310644 -0.18022412 -0.3195727
00000000: 9047 12bf 2de1 c23e 117b 8f3f 2850 833e
00000010: c782 ebbd c3c7 f2bd 01ff 083f 920e eebf
00000020: 32d9 883f a201 c5be e14b 083f 5b3e b8bf
00000030: 08fc b8be 849b 883f 33f9 b83e 8729 90be
00000040: c379 b33e 81ae bdbe b575 0540 0bac 8c3f
00000050: ada3 4c3e be63 d23e 75cb c8bc b7e2 da3f
00000060: 5294 50bd 2b42 ef3e cf5b 88bf 4b54 963e
00000070: d96d 01c0 fb29 583c 01b6 663f 47d2 77bf
00000080: cb7e a4bf 8905 373d e4ba 35bf 12f1 393f
00000090: bd98 08bf eda2 623f 7a54 adbf afd1 fc3e
000000a0: b251 74bf ddb3 903f a597 2cbf 8917 753e
000000b0: bae0 9cbe c566 b5be 2053 373f 447a 1cbf
000000c0: 0f3d 5ebf 3906 f4be 36cc b83e a9c7 bf3e
000000d0: 01b2 08c0 d537 afbe 4dfb bb3e d18c 2b3d
000000e0: c8ed 5dbb 76d2 f93e bc04 c7bf 9be5 1b3f
000000f0: 8b61 a83e 4da1 83bf d23e 85be 6b7e d0be
00000100: 436f 0640 e06c 10bf 1aa6 00c0 8726 c43e
00000110: ac8c 38be 089f a3be

model.5.running_mean f4 [70]
-5.0909333 3.2672007 2.8972244 3.2745388 -2.4846668 -0.8520339 5.0302505 -7.435698
6.250871 -5.124284 6.4468904 -7.000619 -2.130872 7.333904 3.0909815 -4.116692
2.4043598 -6.1701174 5.9418216 5.9116898 1.804237 3.8592062 2.2615004 5.3212395
-5.831336 5.3349333 -8.891709 -0.6764606 -4.6137238 1.0771801 7.012804 -3.9666884
-6.479182 -3.0259187 -7.3712306 7.0151386 -3.6056654 7.9970284 -5.165137 6.3189282
-7.4667177 6.150101 -5.4055967 0.7806453 -2.7751782 -5.229207 6.2050834 -7.43821
-6.6833177 -4.6215897 4.0477524 3.3969388 -6.295273 -2.8386397 4.7307158 1.9713513
1.7879634 6.041586 -2.4890697 6.9474525 3.1201239 -1.9840833 -2.9630818 -4.8693137
7.5559115 0.47607827 -7.114576 3.410876 -0.44186562 -3.2270782
00000000: ede8 a2c0 d119 5140 206c 3940 0b92 5140
00000010: c804 1fc0 e51e 5abf d0f7 a040 3df1 edc0
00000020: 2307 c840 22fa a3c0 ed4c ce40 1205 e0c0
00000030: 3560 08c0 57af ea40 a4d2 4540 f1bb 83c0
00000040: 08e1 1940 9a71 c5c0 6723 be40 902c bd40
00000050: 3df1 e63f 3cfd 7640 6cbc 1040 9847 aa40
00000060: 4e9a bac0 c6b7 aa40 7144 0ec1 862c 2dbf
00000070: a0a3 93c0 0ae1 893f e468 e040 39de 7dc0
00000080: 7555 cfc0 a7a8 41c0 1fe1 ebc0 047c e040
00000090: 39c3 66c0 a8e7 ff40 cd48 a5c0 a934 ca40
000000a0: 5aef eec0 a1cd c440 a6fa acc0 5fd8 473f
000000b0: 859c 31c0 aa55 a7c0 0b90 c640 d105 eec0
000000c0: bddd d5c0 10e4 93c0 3087 8140 7267 5940
000000d0: e072 c9c0 46ac 35c0 0662 9740 3d55 fc3f
000000e0: fcdb e43f ac54 c140 eb4c 1fc0 8851 de40
000000f0: 1cb0 4740 71f6 fdbf 22a3 3dc0 6bd1 9bc0
00000100: 07ca f140 88c0 f33e 9baa e3c0 cb4b 5a40
00000110: 363c e2be 7388 4ec0

model.5.running_var f4 [70]
18.760191 28.64305 114.52329 53.107014 107.39897 95.745636 16.872183 8.394936
11.53958 41.024944 19.71933 16.085585 103.06142 14.663982 33.87725 55.733387
38.30599 32.134014 122.20525 7.287976 33.462517 27.597887 117.014984 5.7790523
54.239304 26.089624 143.77129 76.118164 34.896915 118.24958 84.27535 136.1583
8.437282 53.842 17.35625 16.140238 15.432239 21.79091 149.43573 31.53706
15.8154745 8.6610565 26.150042 69.20952 50.26339 33.26998 22.61516 18.062466
15.023987 26.454239 40.4388 45.717552 106.14387 14.833061 32.753716 48.36906
112.859245 37.040215 4.8425875 25.328863 51.12535 101.42093 48.999836 27.63939
95.1511 81.0064 94.07246 29.975685 85.255356 48.356506
00000000: df14 9641 f724 e541 ed0b e542 956d 5442
00000010: 46cc d642 c47d bf42 3bfa 8641 a851 0641
00000020: 1fa2 3841 8b19 2442 30c1 9d41 47af 8041
00000030: 721f ce42 ac9f 6a41 4e82 0742 fdee 5e42
00000040: 5539 1942 3b89 0042 1769 f442 1937 e940
00000050: 9ed9 0542 79c8 dc41 ac07 ea42 ffed b840
00000060: 0cf5 5842 8db7 d041 73c5 0f43 803c 9842
00000070: 7196 0b42 c97f ec42 fb8c a842 8628 0843
00000080: 1bff 0641 355e 5742 9ad9 8a41 351f 8141
00000090: 73ea 7641 c953 ae41 8c6f 1543 e64b fc41
000000a0: 2f0c 7d41 b093 0a41 4933 d141 466b 8a42
000000b0: b60d 4942 7614 0542 d9eb b441 ee7f 9041
000000c0: 4062 7041 48a2 d341 55c1 2142 c6de 3642
000000d0: a949 d442 3854 6d41 ce03 0342 eb79 4142
000000e0: efb7 e142 2e29 1442 7af6 9a40 83a1 ca41
000000f0: 5c80 4c42 84d7 ca42 d5ff 4342 791d dd41
00000100: 5d4d be42 4703 a242 1925 bc42 34ce ef41
00000110: be82 aa42 106d 4142

model.8.weight f4 [70, 70]
0.265147 -0.10933495 -0.24756333 -2.3424456 0.1553009 -0.0026683488 -0.18941392 -0.2058136
0.1005578 -0.039589778 -0.22756936 -0.13859873 0.04559376 0.03264073 -0.69744974 1.5263214
-2.8099315 0.21245115 -0.11346449 -0.12933238 0.15747525 0.048127953 0.36651406 0.25204328
0.10132375 -0.10880912 0.046700608 -0.19024274 -0.13578683 0.06244452 -0.22053744 0.30280194
0.18723893 -0.089221455 -0.27519846 0.08010874 -0.097195916 0.19832112 -0.06293812 0.053393163
-0.05827232 0.068598725 0.12021685 -0.22473164 2.52978 0.14534461 0.2189251 -0.029307488
0.06428787 -0.004526243 -1.444234 -1.9567757 0.009685605 0.3609352 0.027036415 0.27963457
-0.008133377 -0.24762781 -0.039661396 -0.1604001 -2.9488895 0.090213075 -0.13024107 0.2908926
-0.058785357 0.056775007 0.22546616 -0.07250737 0.20577279 2.0596268 0.0704064 0.16339959
-0.17626135 0.13522026 0.2775143 -1.4948505e-06 -0.10142924 2.0464427 -1.3032507 -0.111609355
-0.09594214 1.703379 0.19191833 -0.97365695 -0.19614926 -0.0062824055 0.17089443 -0.39954126
0.010539398 -0.33857328 0.36904162 0.09127136 0.23337755 -0.5442236 0.029542174 0.34012303
0.21435386 -0.08216957 0.16174437 0.22887667 -0.012826923 -0.011435291 1.9854693 0.07831996
0.3138745 -0.71262634 -0.17415479 -0.8101683 0.044448067 -0.13523409 0.46126086 -1.5065553
-0.33923087 -0.18656614 -0.10815414 -0.15271379 -0.47282523 0.17754717 0.63451093 0.011965598
0.03276599 0.28305 0.32461575 0.12564918 -0.08589036 0.14987805 -0.20511648 -0.053144753
0.3457476 -0.08139859 0.11347742 -0.17009594 0.022873629 -0.34029552 -0.14824456 0.02289526
0.29289165 0.26480043 0.18327929 -0.0040714676 -0.5614276 0.44599238 0.048849538 0.118884034
0.13345967 -0.037925195 0.10239787 -0.19683607 0.4156336 -0.33985594 1.3535769 -0.022744153
0.10947873 0.48029178 -0.18794937 -0.1438702 0.23145735 -0.8271342 0.027012954 0.51395446
0.377019 -0.10291394 0.14152475 0.10214597 -0.12040459 0.914144 -0.22871007 -0.063083746
0.049351085 -0.039395224 0.1768954 0.028013233 -0.1719654 -0.08071282 -0.82353956 0.9771501
-0.41821858 0.44735146 0.05988526 1.4370172 -0.5071849 0.013018373 0.04394366 -0.07092333
-0.042574164 -1.0687968 1.146924 -1.2928733 -0.89245087 0.17106166 0.056873992 0.14087647
-0.096694395 0.048891302 0.4302972 0.108388424 0.106345266 1.2027254 0.036912315 0.86824393
-0.06866099 -0.08496938 -0.14810824 -0.7031628 0.13476734 0.1649776 0.047026526 -0.13235833
0.2397287 -0.08411319 -0.32877815 0.23167194 -0.090851896 0.08248209 0.32719675 0.23609912
0.41638932 0.3613092 -0.48093536 -0.17879957 -1.2829406 0.3936049 0.18690713 -0.8008269
0.14751533 0.20599642 0.17475009 0.1182763 0.017423594 -0.24609782 0.16019176 0.4228756
-0.022861172 0.05863149 0.21101123 -0.10759022 -0.0576468 -0.14950426 -0.0015756879 -0.28678408
-0.15973304 0.05193754 0.099093996 0.09633736 1.4929761 -1.5980577 -0.4299154 -1.1022226
0.28736642 -0.88172185 1.2041659 -0.5591585 0.13154413 -0.106582604 -0.1349429 0.5482493
00000000: 59c1 873e 01eb dfbd 3e81 7dbe a1ea 15c0
00000010: 3307 1f3e 77df 2ebb b9f5 41be cdc0 52be
00000020: 3ff1 cd3d e428 22bd f107 69be d3ec 0dbe
00000030: 86c0 3a3d 49b2 053d 118c 32bf 805e c33f
00000040: ebd5 33c0 cb8c 593e 1260 e8bd b56f 04be
00000050: 3141 213e d121 453d bba7 bb3e d10b 813e
00000060: d482 cf3d 51d7 debd 2349 3f3d fece 42be
00000070: b40b 0bbe d3c5 7f3d 91d4 61be db08 9b3e
00000080: 90bb 3f3e bdb9 b6bd d0e6 8cbe 0d10 a43d
00000090: a70e c7bd b114 4b3e b3e5 80bd cab2 5a3d
000000a0: f5ae 6ebd 7d7d 8c3d 4034 f63d 0d20 66be
000000b0: eae7 2140 38d5 143e e72d 603e 4216 f0bc
000000c0: 5ca9 833d e150 94bb a9dc b8bf a077 fabf
000000d0: 5fb0 1e3c 80cc b83e 797b dd3c 432c 8f3e
000000e0: db41 05bc 2592 7dbe fd73 22bd ec3f 24be
000000f0: 9bba 3cc0 a2c1 b83d ea5d 05be e0ef 943e
00000100: eac8 70bd e98c 683d 9ae0 663e be7e 94bd
00000110: 1ab6 523e edd0 0340 3b31 903d 3952 273e
00000120: db7d 34be 2e77 0a3e 5b16 8e3e aca2 c8b5
00000130: 22ba cfbd ebf8 0240 ebd0 a6bf 7293 e4bd
00000140: 507d c4bd 5308 da3f 3d86 443e 9541 79bf
00000150: 5adb 48be a3dc cdbb f3fe 2e3e ac90 ccbe
00000160: 70ad 2c3c 7a59 adbe 06f3 bc3e 7bec ba3d
00000170: 86fa 6e3e 3d52 0bbf 6e02 f23c 9b24 ae3e
00000180: 947f 5b3e 8548 a8bd 51a0 253e a55e 6a3e
00000190: 0428 52bc 165b 3bbc dc23 fe3f 3766 a03d
000001a0: 29b4 a03e ae6e 36bf a255 32be 3167 4fbf
000001b0: 2d0f 363d ce7a 0abe 622a ec3e ced6 c0bf
000001c0: abaf adbe 320b 3fbe eb7f ddbd 0161 1cbe
000001d0: 2616 f2be edce 353e 4f6f 223f 5b0b 443c
000001e0: a135 063d eeeb 903e 0934 a63e 2eaa 003e
000001f0: 49e7 afbd a279 193e 0e0a 52be 50ae 59bd
00000200: d405 b13e 4eb4 a6bd d966 e83d a12d 2ebe
00000210: 7a61 bb3c 373b aebe 6ccd 17be d78e bb3c
00000220: e5f5 953e ec93 873e 91ad 3b3e f269 85bb
00000230: b8b9 0fbf 1d59 e43e 7416 483d 7979 f33d
00000240: a7a9 083e 7357 1bbd f9b5 d13d 658f 49be
00000250: edcd d43e 9901 aebe 0242 ad3f f251 babc
00000260: 6236 e03d cee8 f53e cd75 40be b652 13be
00000270: 2803 6d3e 11bf 53bf 454a dd3c 8592 033f
00000280: a208 c13e 8bc4 d2bd ddeb 103e e831 d13d
00000290: af96 f6bd 5705 6a3f f932 6abe 0d32 81bd
000002a0: 5d24 4a3d e35c 21bd 1124 353e 027c e53c
000002b0: b317 30be c34c a5bd 7dd3 52bf 8226 7a3f
000002c0: bf20 d6be 400b e53e 3f4a 753d 2ef0 b73f
000002d0: dfd6 01bf 044b 553c 44fe 333d 4040 91bd
000002e0: 3f62 2ebd 55ce 88bf 68ce 923f df7c a5bf
000002f0: a977 64bf ca2a 2f3e b4f4 683d ec41 103e
00000300: b607 c6bd 3f42 483d ea4f dc3e c0fa dd3d
00000310: 8ccb d93d e8f2 993f 5e31 173d 3c45 5e3f
00000320: 229e 8cbd 6d04 aebd b0a9 17be 7a02 34bf
00000330: 7300 0a3e e3ef 283e e39e 403d f188 07be
00000340: 717b 753e 8943 acbd 9c55 a8be 693b 6d3e
00000350: 8f10 babd 5fec a83d 5586 a73e f8c3 713e
00000360: fb30 d53e 85fd b83e 293d f6be 3c17 37be
00000370: 6637 a4bf 9586 c93e 9564 3f3e fe02 4dbf
00000380: 420e 173e baf0 523e b0f1 323e d83a f23d
00000390: edbb 8e3c 1101 7cbe 4f09 243e 2783 d83e
000003a0: 5a47 bbbc 9327 703d 5413 583e 4358 dcbd
000003b0: 0d1f 6cbd a517 19be 5087 ceba 5dd5 92be
000003c0: 0f91 23be 75bc 543d cbf1 ca3d 864c c53d
000003d0: d719 bf3f 288d ccbf df1d dcbe a115 8dbf
000003e0: b121 933e 86b8 61bf 1c22 9a3f 0325 0fbf
000003f0: 81b3 063e fb47 dabd 792e 0abe 115a 0c3f

model.8.bias f4 [70]
0.4462137 1.0196698 -0.7141295 0.95779246 1.4018201 -0.45414367 0.747904 -0.7840849
0.21826248 -0.66307664 -0.8607 0.04095224 -0.39093035 -1.0268317 0.8566443 -0.5301571
0.17233069 -0.028476225 1.0045358 -1.2380992 1.1409053 0.8548593 1.2853371 0.093363814
0.3530007 0.7263576 0.36508492 -1.0406792 0.49353367 0.08283417 0.22620313 -0.8011732
-0.7061257 -0.28687975 0.5874703 1.2102009 0.48816136 -0.62725407 -0.6234065 -0.450749
-0.69841605 -1.0458584 -1.1456879 0.03879975 -1.1857237 -0.0014389321 0.21692069 0.1559795
0.034059167 0.35342842 0.1439265 -0.30802956 0.8500659 -0.07533643 0.16915596 -1.2633686
0.98486954 -0.33213603 -0.46040446 -0.3426887 0.06973536 1.488317 -0.115649335 0.9081264
-0.6508008 0.8982976 0.97598326 -0.078559406 -0.29861778 -0.00335831
00000000: 1f76 e43e 8a84 823f 31d1 36bf e331 753f
00000010: d76e b33f 8585 e8be a376 3f3f cab9 48bf
00000020: 3380 5f3e 64bf 29bf d656 5cbf 89bd 273d
00000030: 0628 c8be 396f 83bf 0a4d 5b3f 60b8 07bf
00000040: 7577 303e f946 e9bc a194 803f 097a 9ebf
00000050: 2f09 923f 0fd8 5a3f ed85 a43f 8735 bf3d
00000060: 82bc b43e 92f2 393f 69ec ba3e fa34 85bf
00000070: 72b0 fc3e f6a4 a93d cba1 673e b019 4dbf
00000080: a7c4 34bf e7e1 92be 7464 163f dde7 9a3f
00000090: 49f0 f93e b993 20bf 9297 1fbf 93c8 e6be
000000a0: 65cb 32bf b0de 85bf e7a5 92bf 7dec 1e3d
000000b0: cbc5 97bf 8d9a bcba 7520 5e3e 17b9 1f3e
000000c0: a081 0b3d 92f4 b43e 7861 133e 0db6 9dbe
000000d0: eb9d 593f fc49 9abd 3837 2d3e 10b6 a1bf
000000e0: 6920 7c3f bc0d aabe 22ba ebbe e574 afbe
000000f0: 6ad1 8e3d 2c81 be3f 8fd9 ecbd f97a 683f
00000100: e29a 26bf d5f6 653f 0ada 793f c1e3 a0bd
00000110: 6ee4 98be 1817 5cbb

model.9.weight f4 [70]
1.1103841 0.5427438 0.23532008 0.3383404 0.29309314 1.1765378 0.39766964 0.16765822
0.49506658 0.12842642 0.463231 2.0644102 0.16215584 0.23460591 0.20584121 0.9257005
2.2936392 2.0000987 0.411816 0.22365488 0.36198783 0.47704247 0.23623052 0.4936915
2.36141 0.71283716 2.0549245 0.49581507 0.2523998 1.4030416 2.002448 0.35955614
0.27441376 1.8770149 2.205803 0.5096623 2.2169533 0.16449395 0.36700454 2.064672
0.3870841 0.7991815 0.25612077 2.2157962 0.3639139 0.765609 1.0718731 2.12924
1.9256084 2.160405 2.4150388 0.55501336 0.2540691 1.5539793 1.6035992 0.53766745
0.46304306 2.0926821 2.2782593 1.9797271 2.2715366 0.5060323 2.3311012 1.3355087
0.2891106 0.5791297 0.25775427 2.074435 1.6755941 0.6789471
00000000: 1121 8e3f 42f1 0a3f bff7 703e f43a ad3e
00000010: 4e10 963e ca98 963f 5b9b cb3e 99ae 2b3e
00000020: 5e79 fd3e 3782 033e 9d2c ed3e 4c1f 0440
00000030: 2e0c 263e 883c 703e 0ac8 523e b5fa 6c3f
00000040: fcca 1240 9e01 0040 8cd9 d23e c905 653e
00000050: 7856 b93e e93e f43e 6ae6 713e 22c5 fc3e
00000060: 5721 1740 7f7c 363f e283 0340 79db fd3e
00000070: 8c3a 813e de96 b33f 1c28 0040 be17 b83e
00000080: f67f 8c3e 0642 f03f e02b 0d40 3a79 023f
00000090: 90e2 0d40 1a71 283e 05e8 bb3e 9623 0440
000000a0: e32f c63e 2997 4c3f 4322 833e 9bcf 0d40
000000b0: ec52 ba3e f4fe 433f 2333 893f 7845 0840
000000c0: 567a f63f 1344 0a40 ff8f 1a40 5b15 0e3f
000000d0: 5815 823e cbe8 c63f bd42 cd3f 93a4 093f
000000e0: fb13 ed3e 81ee 0540 00cf 1140 b367 fd3f
000000f0: db60 1140 558b 013f c330 1540 f3f1 aa3f
00000100: 4e06 943e d841 143f 5ef8 833e 8bc3 0440
00000110: de79 d63f 7acf 2d3f

model.9.bias f4 [70]
-0.5281426 -2.2567413 0.43219241 -0.7284434 -0.6509138 -0.23045646 -0.2806153 -0.058003154
-0.66560626 -0.040909998 1.0993857 -1.3047018 -0.048005622 0.4238597 -0.60855836 0.4637636
-0.38743564 0.8203019 -0.32776216 0.36853117 -0.3787533 -1.9923946 -0.32782233 0.45899054
-2.4789445 -0.26300934 0.32733175 1.3344381 -0.18860598 -0.045912374 0.750191 0.28647885
0.30277994 3.0322523 -3.326938 -2.0319107 0.79249686 -0.084410064 0.57178396 2.4940603
0.2538221 0.35864353 0.6305752 2.48366 0.4515699 -1.0740722 -0.044808973 -0.8978205
-3.1815991 -1.6947328 -2.2150705 0.27277446 -0.32790107 -1.3448076 0.0553777 2.1723351
-0.930636 -3.400727 3.1080818 -0.4716481 1.3171468 -1.8527776 -1.7239833 -0.23056656
0.43479824 -1.6252143 -0.48021078 1.7600753 0.12136181 0.6475564
00000000: 5a34 07bf 736e 10c0 5348 dd3e 447b 3abf
00000010: 49a2 26bf c7fc 6bbe cfac 8fbe b794 6dbd
00000020: 2c65 2abf 3e91 27bd acb8 8c3f 7800 a7bf
00000030: 8ba1 44bd 2304 d93e 7bca 1bbf 6c72 ed3e
00000040: f75d c6be 4eff 513f 71d0 a7be 1eb0 bc3e
00000050: f4eb c1be c906 ffbf 54d8 a7be cf00 eb3e
00000060: 07a7 1ec0 29a9 86be 0798 a73e dece aa3f
00000070: ed21 41be 9d0e 3cbd 840c 403f 5bad 923e
00000080: f905 9b3e 6c10 4240 8dec 54c0 d30a 02c0
00000090: 13e1 4a3f 2fdf acbd 6f60 123f af9e 1f40
000000a0: f8f4 813e 20a0 b73e 606d 213f 49f4 1e40
000000b0: 2c34 e73e 337b 89bf 9d89 37bd 90d7 65bf
000000c0: 529f 4bc0 01ed d8bf b7c3 0dc0 18a9 8b3e
000000d0: a6e2 a7be a822 acbf bad3 623d 8a07 0b40
000000e0: 293e 6ebf 83a5 59c0 d0ea 4640 dc7b f1be
000000f0: 4498 a83f d127 edbf 7cab dcbf a419 6cbe
00000100: e09d de3e 0607 d0bf 30de f5be 264a e13f
00000110: 8a8c f83d 42c6 253f

model.9.running_mean f4 [70]
-4.7565384 -9.9187565 8.663089 -8.77299 -8.860458 -5.0404296 -5.5986404 5.5186305
-7.8567286 6.3524337 8.795525 0.82377285 6.676247 8.831881 -8.652758 5.4408097
2.130463 -0.58890045 -6.168706 8.392459 -5.2216425 -9.4438095 -6.1440606 5.591464
-7.5892754 -4.647493 7.7281675 12.328213 -3.9917839 3.8370655 -1.571892 4.242408
5.818165 3.4817033 -6.438343 -10.579988 -0.49661267 6.8192086 8.430568 3.5999327
5.6786013 5.2217803 9.077571 6.796296 6.322485 -6.872839 -3.5924506 0.936487
-5.827412 -0.8858482 -5.0813646 5.3081484 -8.264598 -9.608368 -2.4605737 11.089481
-9.390419 -8.219106 7.0385528 2.255151 1.2367836 -10.748335 -3.3189518 -4.6563396
8.486207 -10.290245 -8.125953 0.9556151 3.0339177 6.9600186
00000000: 9035 98c0 3ab3 1ec1 039c 0a41 2b5e 0cc1
00000010: 70c4 0dc1 334b a1c0 1028 b3c0 9f98 b040
00000020: 526a fbc0 2347 cb40 78ba 0c41 c7e2 523f
00000030: d1a3 d540 624f 0d41 b271 0ac1 1d1b ae40
00000040: 8159 0840 2ec2 16bf 0a66 c5c0 8347 0641
00000050: b217 a7c0 d819 17c1 259c c4c0 46ed b240
00000060: 58db f2c0 43b8 94c0 264d f740 5c40 4541
00000070: 6379 7fc0 7b92 7540 c233 c9bf cec1 8740
00000080: 682e ba40 3ad4 5e40 e806 cec0 a147 29c1
00000090: 0444 febe f536 da40 9be3 0641 4c65 6640
000000a0: 1ab7 b540 d318 a740 bb3d 1141 427b d940
000000b0: cc51 ca40 4cee dbc0 b6ea 65c0 9dbd 6f3f
000000c0: 297a bac0 f3c6 62bf 8a9a a2c0 5adc a940
000000d0: cb3b 04c1 e0bb 19c1 0a7a 1dc0 846e 3141
000000e0: 283f 16c1 7581 03c1 d33b e140 6554 1040
000000f0: ed4e 9e3f 2ef9 2bc1 b569 54c0 bc00 95c0
00000100: 81c7 0741 d8a4 24c1 e703 02c1 31a3 743f
00000110: b52b 4240 79b8 de40

model.9.running_var f4 [70]
58.030113 8.311145 34.74898 13.736538 33.345932 39.6651 60.648598 101.97961
18.833073 120.37068 27.221619 54.141834 124.55124 39.669075 34.803493 59.462296
85.45435 96.02425 42.797302 46.52453 48.378098 8.166783 57.617992 18.540125
94.35688 100.794205 15.734528 30.143366 109.919975 98.81208 69.06751 91.168724
59.67097 20.120735 69.63273 10.602824 104.20702 113.71746 29.79371 145.8193
68.08555 85.76885 23.173883 133.05496 34.788036 17.562918 98.8805 97.78659
49.6292 50.08308 105.934784 62.423855 39.09575 18.97589 102.5366 10.821172
16.224714 54.675636 87.23374 107.87793 114.19394 12.503467 115.76297 89.68605
34.250782 11.189769 28.250519 129.13467 81.532234 35.616833
00000000: d61e 6842 73fa 0441 f5fe 0a42 dcc8 5b41
00000010: 3c62 0542 10a9 1e42 2a98 7242 8ff5 cb42
00000020: 22aa 9641 cabd f042 e0c5 d941 3d91 5842
00000030: 3c1a f942 22ad 1e42 c736 0b42 64d9 6d42
00000040: a1e8 aa42 6a0c c042 7030 2b42 1e19 3a42
00000050: 2c83 4142 25ab 0241 d378 6642 2d52 9441
00000060: b9b6 bc42 a296 c942 a0c0 7b41 9d25 f141
00000070: 07d7 db42 c99f c542 9122 8a42 6356 b642
00000080: 13af 6e42 44f7 a041 f543 8b42 2ba5 2941
00000090: ff69 d042 576f e342 8559 ee41 bed1 1143
000000a0: cd2b 8842 a789 ab42 1d64 b941 120e 0543
000000b0: f326 0b42 db80 8c41 d1c2 c542 bc92 c342
000000c0: 4d84 4642 1355 4842 9cde d342 07b2 7942
000000d0: 0c62 1c42 9fce 9741 bd12 cd42 8523 2d41
000000e0: 37cc 8141 dab3 5a42 ad77 ae42 80c1 d742
000000f0: 4c63 e442 330e 4841 a486 e742 425f b342
00000100: cd00 0942 4b09 3341 1001 e241 7a22 0143
00000110: 8110 a342 a377 0e42

model.12.weight f4 [70, 70]
-0.041564032 0.30083707 -0.3415064 0.29733378 -0.1425692 0.28878662 0.007101873 -0.17502345
-0.11549464 -0.29004443 0.063029565 -0.0073274863 -0.18041556 -0.14833198 0.076451905 -0.024597084
0.50804883 0.20126629 -0.16457337 0.20713139 0.25824422 -0.13570982 0.13086158 -0.26183045
-0.5773834 -0.06363081 0.32477832 -0.20385723 0.11691283 -0.13361992 -0.073959865 -0.039410956
-0.09837786 0.84149706 3.8116872 0.15523285 -0.18666762 0.024859717 -0.17910205 0.9008473
-0.06894399 -0.19491674 -0.19959958 -4.081072 0.05792454 0.2059764 -0.113122344 -0.38948104
-0.47929364 0.59204406 -0.4911021 0.047501598 -0.08247975 -0.52451134 -0.4103016 -0.28884035
0.1412038 0.13812684 -4.622004 0.17155097 0.2033215 -0.13612567 -0.59982824 0.10513437
0.24652252 0.06161931 0.21511614 0.78169084 -0.032230284 0.283092 -0.09914599 0.011537535
-0.16013846 0.21051565 0.34059492 -0.051225934 -0.18078455 -0.9578656 0.29309875 -1.0696179
-0.35359624 1.071985 -1.1795968 0.093600884 0.3061758 0.16822413 0.5977849 -0.026390819
-0.089169584 -0.17846842 -0.049350597 0.5547024 -0.4047382 0.0493715 -0.429337 -0.61846226
-0.08849399 -0.8254402 -0.4234501 0.16123293 -1.0160606 0.33535838 0.19667265 -0.23675056
-0.4044142 0.702946 0.1602251 -0.8806929 -0.08478845 0.8256277 -0.0023283008 -0.0300935
-0.18432191 0.62089455 0.0999205 0.095773526 -0.3587239 1.3499132 -0.80712223 0.39642072
0.11418139 -0.27689525 0.03573769 0.25647682 0.022584522 -0.71263975 0.33819947 -0.7026291
1.3202307 1.8573345 -1.6056333 0.39397264 1.653378 -0.10285629 -0.18028416 0.33247992
0.065988846 -0.4372646 1.2264327 -0.20102835 0.06216676 0.016104575 0.22630693 -0.15176399
-0.6889571 -0.16175139 -0.16374704 -2.074551 -0.1575772 -2.4975424 0.27697045 0.36518806
-2.4171736 0.31885177 -0.20928793 0.076968245 1.7643417 -0.23483138 -0.06890125 0.3496928
0.13470495 -0.1578657 0.025258895 0.37598395 -0.41100228 -0.759255 -0.15761454 0.2447052
-0.2068833 2.051456 -0.4481522 0.08122616 0.0050286185 -0.054883067 -0.41824114 -0.22373728
-0.58538115 -1.8048158 0.3623416 0.22876355 0.27232268 0.20035666 0.36483616 0.083341025
0.02846685 -0.15963744 -2.3265293 0.22020082 0.11884058 -0.041412625 0.03299213 0.10530448
-0.21604253 -0.13099015 -3.0112555 0.092308305 -0.42186752 -0.2435678 0.62031454 1.7286654
-0.35907626 -0.2858108 -0.091167696 -0.5169599 0.2614861 -0.5531603 -0.3667787 0.10542252
2.2926548 0.12036727 0.22090112 -0.5176263 0.04103404 -0.21837378 -0.18011071 0.15837242
0.1025742 0.78909683 0.10469116 1.0708591 0.22062509 -0.7555183 1.0375903 0.037252136
-0.32537815 -0.10097553 0.233058 -1.0831863 0.17363305 -0.10241805 -0.0023777408 0.11138049
0.080115296 -0.0633069 -1.3658402 0.25686258 0.03079019 0.05853058 0.5572099 -0.02808656
-0.3188927 -0.07455475 -0.14872414 -0.195075 0.44387192 -0.4698517 3.0585542 0.60370386
0.1329089 0.3579542 -0.2737264 -0.13698953 -0.151469 0.14242871 0.04632341 -0.13371024
00000000: 0c3f 2abd 5107 9a3e edd9 aebe 223c 983e
00000010: a9fd 11be d7db 933e d4b6 e83b 5939 33be
00000020: 7488 ecbd b480 94be a515 813d 691b f0bb
00000030: dbbe 38be 57e4 17be d192 9c3d d37f c9bc
00000040: 7d0f 023f c018 4e3e ec85 28be 401a 543e
00000050: 9638 843e 84f7 0abe 9400 063e a40e 86be
00000060: 66cf 13bf df50 82bd 5849 a63e f3bf 50be
00000070: fe6f ef3d a9d3 08be 4578 97bd 626d 21bd
00000080: 557a c9bd 5a6c 573f aff2 7340 5cf5 1e3e
00000090: cc25 3fbe 9ba6 cb3c 8766 37be ee9d 663f
000000a0: 8232 8dbd 4198 47be d563 4cbe 2498 82c0
000000b0: 4842 6d3d 7aeb 523e b0ac e7bd 0f6a c7be
000000c0: fa65 f5be 3390 173f bc71 fbbe 0991 423d
000000d0: 25eb a8bd 6046 06bf 0d13 d2be e2e2 93be
000000e0: bb97 103e 1f71 0d3e 75e7 93c0 0fab 2f3e
000000f0: 8333 503e 8764 0bbe 588e 19bf b050 d73d
00000100: 6670 7c3e 8864 7c3d 6847 5c3e e41c 483f
00000110: e703 04bd 6ff1 903e 0e0d cbbd ee07 3d3c
00000120: 56fb 23be 6a91 573e 7562 ae3e 49d2 51bd
00000130: 961f 39be ae36 75bf 0a11 963e 3de9 88bf
00000140: 910a b5be ce36 893f 07fd 96bf d2b1 bf3d
00000150: 13c3 9c3e f242 2c3e 6e08 193f 8f31 d8bc
00000160: 8b9e b6bd 6dc0 36be da23 4abd fa00 0e3f
00000170: d839 cfbe c539 4a3d 0fd2 dbbe 8b53 1ebf
00000180: 563c b5bd 0d50 53bf 74ce d8be 3f1a 253e
00000190: 460e 82bf 18b4 ab3e 8e64 493e bd6e 72be
000001a0: 610f cfbe 45f4 333f 0c12 243e 1775 61bf
000001b0: 91a5 adbd 565c 533f 6896 18bb a586 f6bc
000001c0: e2be 3cbe f2f2 1e3f 1ea3 cc3d e924 c43d
000001d0: a9aa b7be f5c9 ac3f 909f 4ebf a8f7 ca3e
000001e0: efd7 e93d 37c5 8dbe af61 123d ee50 833e
000001f0: 2d03 b93c 8f6f 36bf 7b28 ad3e 80df 33bf
00000200: 52fd a83f 23bd ed3f 6485 cdbf c8b6 c93e
00000210: e4a1 d33f 52a6 d2bd 699c 38be cf3a aa3e
00000220: 2925 873d 25e1 dfbe bffb 9c3f 60da 4dbe
00000230: 93a2 7e3d beed 833c 01bd 673e 0568 1bbe
00000240: 7e5f 30bf 28a2 25be 4ead 27be 72c5 04c0
00000250: eb5b 21be bcd7 1fc0 12cf 8d3e eef9 ba3e
00000260: f9b2 1ac0 8a40 a33e 934f 56be 87a1 9d3d
00000270: f3d5 e13f a377 70be 191c 8dbd ef0a b33e
00000280: 18f0 093e 8ca7 21be beeb ce3c f880 c03e
00000290: e46e d2be 895e 42bf b565 21be 0094 7a3e
000002a0: 37d9 53be 0e4b 0340 3574 e5be e759 a63d
000002b0: 1cc7 a43b 11cd 60bd b423 d6be 631b 65be
000002c0: 8adb 15bf 3404 e7bf d784 b93e fe40 6a3e
000002d0: e16d 8b3e 4c2a 4d3e cecb ba3e b3ae aa3d
000002e0: 5033 e93c ff77 23be dbe5 14c0 537c 613e
000002f0: b162 f33d 49a0 29bd c122 073d e0a9 d73d
00000300: 413a 5dbe 4822 06be 69b8 40c0 230c bd3d
00000310: 05ff d7be d669 79be efcc 1e3f e844 dd3f
00000320: d8d8 b7be cb55 92be 21b6 babd 7c57 04bf
00000330: 82e1 853e ea9b 0dbf 6bca bbbe c3e7 d73d
00000340: dbba 1240 1e83 f63d e733 623e 2883 04bf
00000350: 4f13 283d 609d 5fbe f16e 38be 612c 223e
00000360: 6c12 d23d 4002 4a3f 5268 d63d e911 893f
00000370: 8beb 613e a669 41bf c2cf 843f b295 183d
00000380: f797 a6be 42cc cebd c2a6 6e3e d9a5 8abf
00000390: ddcc 313e 8ec0 d1bd dfd3 1bbb 741b e43d
000003a0: 7d13 a43d 0ca7 81bd dad3 aebf 7e83 833e
000003b0: b53b fc3c c3bd 6f3d 4fa5 0e3f c915 e6bc
000003c0: e745 a3be 29b0 98bd 244b 18be bec1 47be
000003d0: 2e43 e33e 6790 f0be 5abf 4340 568c 1a3f
000003e0: 4519 083e c645 b73e de25 8cbe fc46 0cbe
000003f0: b11a 1bbe d5d8 113e 9ebd 3d3d 56eb 08be
