result/best_model_fun2.pth (torch, 44205 bytes, 7 tensors)

model.0.weight f4 [70, 4]
0	0x4032b026	2.7920012
1	0x4093a265	4.6135736
2	0x3eb0e6c9	0.34551075
3	0x40345715	2.817815
4	0x3ee09db7	0.43870327
5	0x3e615218	0.22003973
6	0x3c3b464e	0.011430336
7	0x3c242711	0.01001908
8	0xbfa1b796	-1.2634151
9	0xbf050177	-0.5195536
10	0xbdf1848c	-0.117928594
11	0xbe06279a	-0.13101044
12	0x40596824	3.3969812
13	0x3f596bc3	0.84930056
14	0x3ec404e1	0.38284972
15	0x40a8c459	5.273968
16	0x3d8a3013	0.06747451
17	0xc00a2f75	-2.1591465
18	0x3d892cf2	0.06698026
19	0x3d763e3d	0.06011795
20	0x3f6bf809	0.92175347
21	0x3f88fa93	1.0701469
22	0x3e3e3a3a	0.18576899
23	0x3de95982	0.113940254
24	0xbd0a292b	-0.033730667
25	0x3e47cd8e	0.19512007
26	0xbea684a8	-0.32523084
27	0x3edf1597	0.4357116
28	0xbeecc6e2	-0.46245486
29	0xbc03a724	-0.008035455
30	0xbeb4687a	-0.3523596
31	0x3e11d800	0.14242554
32	0xbdab7cfb	-0.083734475
33	0xbe0f8e5d	-0.14019151
34	0xbe7cb2f0	-0.24677634
35	0xbe8ed9d3	-0.27900562
36	0x3e19a207	0.15003215
37	0x3d0e5163	0.034745585
38	0x3e111a4b	0.14170186
39	0x3e0f79fb	0.14011376
40	0x3f9e49b3	1.2366241
41	0xbce6c2a9	-0.028168993
42	0xbd5f9965	-0.054589648
43	0xbd5fd79e	-0.054648988
44	0xbe81d32f	-0.25356433
45	0xbd5b0b0f	-0.053477343
46	0x3e71e536	0.23622593
47	0xbeb6c049	-0.35693577
48	0xbdcfd42d	-0.10147891
49	0xbd4df5bf	-0.05028319
50	0xbe81a98a	-0.2532466
51	0x3e29375a	0.16525021
52	0x3fd1c08d	1.6386887
53	0x400a9163	2.1651237
54	0x3fb6b333	1.4273437
55	0x3fd83672	1.6891615
56	0x3ccc1406	0.024911892
57	0x3f2a81a1	0.6660405
58	0x3d03d566	0.032185934
59	0x3cecf072	0.028923247
60	0xbf1bd5e9	-0.60873276
61	0xbe7df0d9	-0.24798907
62	0xbd887fde	-0.06665014
63	0xbd731c27	-0.05935302
64	0xc0225422	-2.536385
65	0xc0cffba1	-6.4994664
66	0xbe825791	-0.25457433
67	0xbe0ab394	-0.13545066
68	0xc093c6b1	-4.6180043
69	0x3e9bdef0	0.30443525
70	0xbe12c18f	-0.14331649
71	0xbe3095c3	-0.1724463
72	0xbfa18189	-1.2617656
73	0x3f1296bd	0.5726126
74	0x3a521945	0.000801463
75	0x3b50aab4	0.0031840028
76	0xbfae2a3f	-1.3606642
77	0xbf98f511	-1.1949788
78	0xbf8ca202	-1.0986941
79	0xbfb79d20	-1.4344826
80	0x3e8ae78d	0.27129784
81	0x3d1790e9	0.03700343
82	0xbe5b1212	-0.21393612
83	0xbe616329	-0.22010483
84	0x3f190991	0.5978022
85	0x3e0cdfd1	0.13757254
86	0xbd5e4e96	-0.054274164
87	0xbd54b2d9	-0.051928375
88	0x3d8fa168	0.07013208
89	0x3d579d08	0.05263999
90	0xbedfe942	-0.4373265
91	0xbe997c74	-0.29977763
92	0x3db105c6	0.08643679
93	0xbf266c3c	-0.650089
94	0x3c055cbc	0.008139785
95	0x3c05cc55	0.008166392
96	0xbffd3b93	-1.9783806
97	0xbecae7d7	-0.39630005
98	0xbe77bc10	-0.24192834
99	0xbfdb10bf	-1.7114486
100	0xbfd8ff40	-1.6952896
101	0xbf628aad	-0.8849285
102	0xbe46b4fe	-0.1940498
103	0xbfdff8f4	-1.749785
104	0x40515715	3.27094
105	0x3f4c545e	0.79816234
106	0x3ec027c6	0.37530345
107	0x40a8b4bc	5.2720623
108	0x3fac2379	1.3448325
109	0x406cf317	3.702337
110	0x3e3ff310	0.18745065
111	0x3e55c18c	0.20874614
112	0xbd8e1b88	-0.06938845
113	0xc00cc211	-2.1993449
114	0x3de3e22f	0.111271255
115	0x3dd1fdb3	0.102534674
116	0x3ed33cad	0.4125723
117	0xbf27739d	-0.65410787
118	0x3b163312	0.0022918624
119	0x3b91b7c0	0.0044469535
120	0xbffca087	-1.9736489
121	0x3eccc60d	0.3999485
122	0xbdb23c17	-0.087028675
123	0xbda4993b	-0.08037039
124	0xbecc1d55	-0.3986613
125	0xbdeb4d17	-0.11489313
126	0x3cb3bfc9	0.021942036
127	0x3cb2f69c	0.021846108
128	0xbddec080	-0.1087656
129	0x403e34ba	2.9719682
130	0x3da6e4f9	0.08149142
131	0x3d981f4c	0.074278444
132	0x3f0e22f7	0.555221
133	0x3f9d5169	1.229047
134	0x3dc9b331	0.09848631
135	0x3daee0c6	0.08538966
136	0xbe022a26	-0.12711391
137	0xbf5c9696	-0.86167276
138	0xbf8245dd	-1.017757
139	0x3ec998ba	0.39374334
140	0x3f044ab6	0.516765
141	0xbf84ec48	-1.0384607
142	0xbc2b7f06	-0.0104672965
143	0xbc1c4c36	-0.0095396545
144	0xbdbf6ddf	-0.09347128
145	0x3fbf98ba	1.4968483
146	0xbd2aaa01	-0.041666035
147	0xbd16ed0e	-0.036847167
148	0xbd948ea8	-0.07253772
149	0xbe4d1c7f	-0.20030402
150	0x3e93a338	0.28835464
151	0xbe8f55a1	-0.27995017
152	0xbe091500	-0.13386917
153	0xbde23f5c	-0.11047241
154	0xbe9e7c8e	-0.30954403
155	0x3e8a00b5	0.26953664
156	0x403d9bce	2.9626346
157	0x3f3f347d	0.74689466
158	0x3eb261d0	0.3484025
159	0x4086295c	4.1925488
160	0xc05b8c62	-3.4304433
161	0xbe2cc0ac	-0.16870373
162	0xbd540c03	-0.051769268
163	0xbd492b84	-0.049113765
164	0x4037d0d6	2.8721213
165	0xbe20f4b0	-0.15718341
166	0xbbecf856	-0.0072317524
167	0xbbbb6753	-0.0057191043
168	0x3daf8a1d	0.08571265
169	0x3d3a68c7	0.04551008
170	0xbe3b6d57	-0.18303429
171	0x3e872d92	0.26401955
172	0xbe200ac9	-0.15629114
173	0x3f1410dc	0.57838225
174	0xbc17047d	-0.009217379
175	0xbc0e6fc6	-0.008693641
176	0xc055d707	-3.3412492
177	0xbf52be9e	-0.8232211
178	0xbec45129	-0.3834317
179	0xc0c2b998	-6.0851555
180	0x3f51dc38	0.8197665
181	0x3e53ad43	0.20671563
182	0xbd1326ba	-0.035925604
183	0xbd0da43e	-0.03458046
184	0xbf38c203	-0.7217104
185	0x3f6763da	0.90386736
186	0x3c7656b0	0.015035316
187	0x3c71ffe5	0.014770483
188	0xbf0af567	-0.54280704
189	0x3e3bf68c	0.18355769
190	0x3c64dd8c	0.0139688365
191	0x3c4baf1a	0.012431884
192	0xbee1cb6d	-0.44100514
193	0xbf9928dd	-1.1965595
194	0xbeb33b55	-0.35006204
195	0xbe9d26ef	-0.30693766
196	0x404d0a0b	3.203738
197	0x3f500f8d	0.8127373
198	0x3ebda2c6	0.3703825
199	0x409ebabe	4.9602957
200	0x3d979ae1	0.07402588
201	0xbfa7fd97	-1.3124264
202	0x3d3e02e3	0.04638947
203	0x3d2d44e6	0.042302035
204	0x3e8c9b4b	0.2746223
205	0xbf110640	-0.5665016
206	0x3e218e7c	0.1577701
207	0x3e168c19	0.1470188
208	0x400dc258	2.2149868
209	0xbe14caed	-0.14530535
210	0xbc30f0f1	-0.010799632
211	0xbc25ce97	-0.010120056
212	0xbd2476d1	-0.040152375
213	0x41015e3f	8.085509
214	0x3d563df3	0.052305173
215	0x3daef833	0.08543434
216	0x3d104857	0.03522524
217	0xbc8b61d8	-0.017014429
218	0xbe1dfebb	-0.15429203
219	0xbe1b1742	-0.15145591
220	0xbff8a846	-1.9426353
221	0xc007f272	-2.1241727
222	0xc01a5824	-2.4116297
223	0xc018e081	-2.3887026
224	0x40423d99	3.0350096
225	0x3f48ec6e	0.78485763
226	0x3ebf839d	0.374051
227	0x40bffee0	5.9998627
228	0x3e83ed2d	0.25766888
229	0x3f3f4a71	0.74722964
230	0x3ec85b0f	0.39131972
231	0x3edd7929	0.432565
232	0x3f7fa768	0.99864817
233	0x3f813015	1.0092798
234	0xbd974030	-0.0738529
235	0xbd8f725d	-0.07004235
236	0xbf84616b	-1.034223
237	0x3de9db06	0.114187285
238	0x3c860c1a	0.016363192
239	0x3c78c2b7	0.015183142
240	0xbda61d21	-0.08111025
241	0xbd97fe84	-0.07421592
242	0xbe683ec3	-0.22680192
243	0x3e3000a7	0.17187749
244	0x3f387fcd	0.7207001
245	0xbdce0002	-0.10058595
246	0x3b47b848	0.003047483
247	0x3b633bc4	0.0034673074
248	0x40459845	3.0874188
249	0x3f522496	0.82087076
250	0x3ec09bc7	0.3761885
251	0x409cbba9	4.8979077
252	0xbff51d6c	-1.9149604
253	0xc002af80	-2.0419617
254	0xbf016ffd	-0.50561506
255	0x3dffe3e5	0.12494639

model.0.bias f4 [70]
0	0x40ab5da2	5.35518
1	0xc03872e2	-2.882012
2	0x3fb7c9a0	1.4358406
3	0x3ea1e5d8	0.3162067
4	0x3f8e71d6	1.112849
5	0xbf10ef7c	-0.56615424
6	0x404a8c6e	3.1648211
7	0xbf05414e	-0.5205277
8	0xbee7ff7e	-0.45312113
9	0xc0078418	-2.1174374
10	0xc004add2	-2.0731091
11	0xbfc5c027	-1.5449265
12	0xbdc269f9	-0.09492869
13	0x40dfcc7d	6.993712
14	0xc041c8c0	-3.0278778
15	0x40102e80	2.2528381
16	0x3ec8c28d	0.3921093
17	0xc02ff282	-2.7491765
18	0x3f4218b4	0.75818944
19	0xc0f25a13	-7.5734954
20	0x401f6953	2.4908035
21	0xc01e2a52	-2.471333
22	0xbffa20cb	-1.9541258
23	0x407e59d1	3.974232
24	0xc0d2c7fd	-6.5869126
25	0xc0d5db67	-6.6830325
26	0x40187778	2.3822918
27	0xc002a776	-2.041471
28	0x3e543920	0.20724916
29	0x4043b01b	3.0576236
30	0xbffef977	-1.9919881
31	0x405f1d05	3.4861462
32	0xbe7c253c	-0.24623579
33	0xc04370a1	-3.0537493
34	0xc07974b8	-3.897749
35	0xbe899b06	-0.26876086
36	0xbfc9d99e	-1.5769536
37	0xbf823777	-1.0173177
38	0xbfd45438	-1.6588202
39	0x408cf350	4.404701
40	0xbe9a7c7a	-0.30173093
41	0x3ec2f106	0.3807451
42	0x3e13feb9	0.14452638
43	0xc09df907	-4.936649
44	0xbfc866d3	-1.565638
45	0xbfe27615	-1.7692286
46	0x3f6b407b	0.91895264
47	0x40633a5d	3.5504372
48	0x3fba85d7	1.4572095
49	0x3e4ce18c	0.20007914
50	0x40226471	2.5373805
51	0x3e280f6c	0.16412133
52	0xbf59eba6	-0.85125196
53	0x3f88c088	1.0683756
54	0x4013e893	2.3110702
55	0xc0d46406	-6.63721
56	0x40007990	2.0074196
57	0xbed376e4	-0.41301644
58	0xc0259d92	-2.5877423
59	0x40289e78	2.6346722
60	0xbfbd5fa9	-1.4794818
61	0xc0568b67	-3.3522584
62	0x4061ab4c	3.5260801
63	0xc00037b6	-2.0034003
64	0xc040ed6a	-3.0144906
65	0x40229f82	2.5409856
66	0xbf058c54	-0.5216725
67	0x4065f770	3.5932274
68	0x3e48f811	0.1962588
69	0x40017cd6	2.0232444

model.2.weight f4 [70, 70]
0	0xbd54c199	-0.05194244
1	0xbf0c9b78	-0.54924726
2	0x3f649e9a	0.89304507
3	0xbdbab04a	-0.09115656
4	0x3dafc2eb	0.085820995
5	0xbf2e9974	-0.682029
6	0xbcfd0d85	-0.030890236
7	0x3e9b7d65	0.30369106
8	0xbe03849a	-0.12843552
9	0xbed3dd3a	-0.4137972
10	0xbf0624c1	-0.5239983
11	0x3ed9b5bb	0.42521462
12	0xbd9b7297	-0.07590216
13	0xbe1db3e8	-0.1540066
14	0x3eb68eca	0.35655814
15	0x4034d02f	2.8252065
16	0x3d875d8e	0.06609641
17	0x3e0fa353	0.14027147
18	0x3ef150ab	0.47131857
19	0x3de5b916	0.11216943
20	0x3e04acb2	0.12956503
21	0x3edb75b6	0.42863244
22	0x3ddbaf67	0.10726815
23	0xbeaba454	-0.3352381
24	0xbd44d173	-0.04805131
25	0x3e0df0f6	0.1386145
26	0xbdd8f801	-0.10594178
27	0xbd825638	-0.06364101
28	0x3d549374	0.051898435
29	0xbf45e946	-0.7730907
30	0x3f46f524	0.77717805
31	0x3dbe6cee	0.092981204
32	0xbd7c2fe0	-0.061569095
33	0xbdbb2c9e	-0.091393694
34	0x3ce186f1	0.027530165
35	0xbced38e5	-0.028957793
36	0x3edeb4f1	0.43497422
37	0xbe8d2e6b	-0.27574477
38	0x3c62e756	0.0138491
39	0x3b6341da	0.0034676702
40	0x3cccb7e5	0.024990031
41	0xbdecd8e1	-0.11564804
42	0xbe2ab017	-0.16668735
43	0x3f346b8f	0.7047662
44	0x3e01034a	0.12598911
45	0xc005fe8d	-2.0936615
46	0x3ee5dac4	0.44893467
47	0x3e7bc47b	0.2458667
48	0xbe3f85b1	-0.18703343
49	0xbca49091	-0.020088466
50	0xbf5810b8	-0.8440051
51	0x3e5b0995	0.21390374
52	0xbf031e21	-0.5121785
53	0xbde36a38	-0.11104244
54	0xbec8d881	-0.3922768
55	0x3da7bb17	0.081899814
56	0xbe0d85a1	-0.13820507
57	0x3e6b3e7d	0.22973056
58	0xbe02d5a4	-0.1277681
59	0x3e073e65	0.13207395
60	0x3d85ff1b	0.06542798
61	0xbe0aef9c	-0.13567966
62	0x3d4a021d	0.04931842
63	0x3e32a0aa	0.17444101
64	0x3cedc071	0.029022427
65	0xbdbf79b7	-0.09349387
66	0x3e7c8257	0.24659096
67	0x3c10d3d0	0.008839563
68	0xbd5f7921	-0.054558877
69	0xbe607f29	-0.21923508
70	0x3e9cb147	0.30604002
71	0x3e6d31a4	0.23163468
72	0x3f8be368	1.0928774
73	0x3e1e7acb	0.1547653
74	0x3f512b38	0.8170657
75	0xbf821930	-1.0163937
76	0x3e3b97c2	0.1831961
77	0x3e6872eb	0.22700088
78	0x3f8198b3	1.0124725
79	0x3ce6dfc7	0.028182877
80	0xbfc794af	-1.559225
81	0xbea325b1	-0.31864694
82	0xbe3028ca	-0.1720306
83	0x3eb97c9e	0.36227888
84	0xbe2f1e98	-0.17101514
85	0x3f990ee7	1.1957673
86	0xbdb656df	-0.08903288
87	0xbe94964e	-0.29020923
88	0xbc0f1058	-0.008731924
89	0xbed4f9fe	-0.4159698
90	0xbf108550	-0.5645342
91	0xbe31c898	-0.17361677
92	0x3d02e392	0.03195531
93	0x3ff5bda0	1.9198494
94	0xbe1c7418	-0.15278661
95	0xbed85f9c	-0.42260444
96	0x3e475ad0	0.19468236
97	0x3eaa1a5c	0.33223236
98	0x3edc7f6b	0.43065962
99	0xbe8fbf63	-0.28075704
100	0xbe9ee461	-0.31033614
101	0x3fb62b9e	1.4232061
102	0x3e3398ad	0.1753871
103	0x3e9db4f8	0.3080213
104	0xbea1a3bf	-0.3157024
105	0x3f5cae10	0.862031
106	0xbfa78ffa	-1.3090813
107	0xbc89a21e	-0.016800936
108	0xbe6c6ff1	-0.23089577
109	0x3ec09da7	0.3762028
110	0xbe2b46f5	-0.16726287
111	0x3e8a275e	0.2698316
112	0x3e0ebf5f	0.1394019
113	0x3ef070cd	0.4696106
114	0xbe1d4d70	-0.15361571
115	0xbfa49174	-1.2856889
116	0x3f6d52d7	0.9270453
117	0xbd974e89	-0.07388026
118	0xbd3ab39a	-0.045581438
119	0x3ea3dda9	0.3200505
120	0x3f0837c3	0.53210086
121	0x3e12d374	0.14338475
122	0xbe8a6a7e	-0.27034372
123	0x3e623f36	0.22094426
124	0xbe416d31	-0.1888931
125	0xbec20a93	-0.37898692
126	0x3eb98346	0.36232966
127	0x3e76aea3	0.24090056
128	0xbc3e4da1	-0.011615188
129	0x3fee592a	1.8620961
130	0x3c76d83d	0.015066204
131	0xbffce03f	-1.9755934
132	0x3ea3e689	0.32011822
133	0xbeb77fd5	-0.35839716
134	0x3f759017	0.9592299
135	0x3e859e54	0.26097357
136	0xbdb3a3ee	-0.087715015
137	0x3e5e7e7b	0.21727936
138	0x3e22a97d	0.15884967
139	0x3e323f36	0.17406926
140	0xbeadf2cd	-0.33974305
141	0x3e863655	0.26213327
142	0x3e7c2568	0.24623644
143	0xbf055bca	-0.52093184
144	0x3e0ad6fc	0.13558573
145	0xbecb9849	-0.39764622
146	0xbe88907b	-0.2667273
147	0x3f0adea2	0.5424596
148	0x3edb5f96	0.42846364
149	0xbddaed4d	-0.10689793
150	0xbe2e63a9	-0.17030205
151	0x3e6ddeef	0.23229574
152	0x3ebe9ec2	0.37230498
153	0xbe98ac5c	-0.29819
154	0xbef99921	-0.4874964
155	0x3e31f20c	0.1737749
156	0x3ec478f6	0.38373536
157	0x3f013ae9	0.50480515
158	0x3e582901	0.21109392
159	0x3edd7224	0.43251145
160	0x3e638253	0.22217683
161	0xbdd81918	-0.10551661
162	0x3ec6615e	0.3874616
163	0xbe747788	-0.23873723
164	0x3ec8dc37	0.3923051
165	0x3ebd557d	0.36979285
166	0xbf0592ad	-0.52176934
167	0xbe9e7c6c	-0.309543
168	0x3e8287cc	0.2549423
169	0xbe226655	-0.15859349
170	0x3eb5777d	0.35442725
171	0x3ef99cc7	0.48752424
172	0xbee6580f	-0.44989058
173	0xbb9a5342	-0.004709632
174	0x3ebf9d80	0.3742485
175	0x3ed7b38f	0.4212918
176	0x3ce1ac4b	0.027547976
177	0x3e28aba4	0.16471726
178	0x3ed51360	0.41616344
179	0xbf0624b0	-0.5239973
180	0x3ebc5bf0	0.36788893
181	0xbedcbcec	-0.43112886
182	0xbc8c3827	-0.01711662
183	0x3ef80c1a	0.48446733
184	0x3ed78e15	0.42100587
185	0xbe13d0ab	-0.1443507
186	0x3e5bb5ac	0.21456021
187	0x3e770c00	0.24125671
188	0x3e796dbb	0.24358265
189	0xbf075b6e	-0.52873886
190	0xbd9635df	-0.07334494
191	0xbeb4773a	-0.35247213
192	0xbeb72b8f	-0.3577542
193	0xbec5e85a	-0.38653833
194	0x3e25876f	0.16164945
195	0x3f052520	0.52009773
196	0xbeebcf21	-0.46056464
197	0xbe997cd2	-0.29978043
198	0xbe418213	-0.18897276
199	0x3f10b34f	0.56523603
200	0x3e79a862	0.24380639
201	0xbf07666e	-0.5289067
202	0xbf026724	-0.5093863
203	0x3ee74394	0.45168746
204	0xbf1b2fc6	-0.6061977
205	0xbeb8d9ae	-0.36103576
206	0xbe2f7be7	-0.17137109
207	0xbef597c3	-0.47967348
208	0xbefa93e9	-0.48940971
209	0xbee16452	-0.4402185
210	0x3dfc86f2	0.12330426
211	0x3e9cefc1	0.30651668
212	0x3d5a22e6	0.053255938
213	0x3dd977a2	0.10618521
214	0x3eadbdc5	0.33933845
215	0xbeb861c3	-0.36012086
216	0x3c80451d	0.015657956
217	0x3d7f2435	0.06229039
218	0x3e6a8cc7	0.22905265
219	0x3f08868c	0.533303
220	0xbf10150e	-0.56282127
221	0xbd165a05	-0.036706943
222	0xbedd1fcf	-0.4318833
223	0xbdb77284	-0.08957389
224	0x3f8758b1	1.0573941
225	0x3d0097c8	0.03139475
226	0x3d48ea61	0.049051646
227	0x3d410a4b	0.047128957
228	0xbf0d289a	-0.5514008
229	0xbcac6e11	-0.021048578
230	0x3da1d772	0.07902421
231	0xbd15cdd5	-0.03657325
232	0x3d122ece	0.035689168
233	0x3fa49239	1.2857124
234	0x3e5a1ee2	0.21300843
235	0x3dd4d261	0.10391689
236	0xbdb9ed78	-0.09078497
237	0x3d9a4741	0.07533122
238	0x3ee3de29	0.44505432
239	0xbe589f88	-0.21154606
240	0xbd90040c	-0.07032022
241	0x3c6cd0a6	0.014454043
242	0x3e325c87	0.17418109
243	0xbe20e66d	-0.157129
244	0xbc728dce	-0.014804317
245	0xbec2a651	-0.38017514
246	0xbda52be4	-0.08065012
247	0xbd89ffa4	-0.06738213
248	0xbd36321f	-0.044481393
249	0xbd90864b	-0.07056864
250	0x3d552b93	0.05204351
251	0x3eb7bf25	0.3588802
252	0x3ec2b6a0	0.38029957
253	0x3eef18d6	0.46698636
254	0x3d802324	0.062567025
255	0xbee9d895	-0.4567305

model.2.bias f4 [70]
0	0xbe1ab3bb	-0.15107624
1	0x3e82000f	0.2539067
2	0xbec2dce1	-0.38059142
3	0x3daca89b	0.084305964
4	0x3d67cd72	0.056592412
5	0xbef03529	-0.46915558
6	0x3d76509b	0.060135465
7	0x3f07ba8b	0.53019017
8	0x3e3c8e56	0.18413672
9	0xbee5c1f1	-0.44874528
10	0xbe73dd17	-0.23814808
11	0xbea2fbd3	-0.31832752
12	0xbf0ebef8	-0.55760145
13	0xbd1331d7	-0.035936203
14	0x3c12a844	0.00895125
15	0x3f01c9a4	0.50698304
16	0xbe58ca70	-0.21170974
17	0x3eb01216	0.34388798
18	0x3d95f9bd	0.073230244
19	0xbe65c06a	-0.22436681
20	0x3e8f096f	0.27936885
21	0xbea1452e	-0.31498092
22	0xbd6a7338	-0.057238787
23	0xbf067d68	-0.52535105
24	0x3ed57e8c	0.4169811
25	0xbe64d8fe	-0.22348401
26	0xbea20521	-0.31644538
27	0xbf16b5e3	-0.5887129
28	0xbd2e2900	-0.04251957
29	0x3ea4ec96	0.3221175
30	0x3d550b0e	0.052012496
31	0x3eb51220	0.3536539
32	0xbdcf4d2c	-0.10122141
33	0x3ec79f85	0.3898889
34	0x3ed0d3ee	0.4078669
35	0xbea59667	-0.3234131
36	0xbeebf999	-0.46088865
37	0x3eb8c2d1	0.36086133
38	0x3e733e2b	0.23754184
39	0x3ea58728	0.3232968
40	0x3ee097b3	0.43865737
41	0xbea20289	-0.3164256
42	0x3ef8a603	0.48564157
43	0x3ebd0e8c	0.3692516
44	0xbea1590f	-0.3151326
45	0x3ee6a8b7	0.45050594
46	0xbec2789b	-0.3798264
47	0xbf131024	-0.57446504
48	0x3eeb38cb	0.45941767
49	0xbed6a3d3	-0.41921863
50	0xbe10ad91	-0.1412871
51	0xbed0cbde	-0.40780538
52	0xbe98bd83	-0.29832086
53	0x3e36311d	0.17792173
54	0x3ee9d6bd	0.45671645
55	0x3ee03f97	0.43798515
56	0xbe97b660	-0.2963133
57	0xbeddd43f	-0.43325993
58	0x3e90b6ee	0.28264564
59	0x3d01e7df	0.03171527
60	0x3eae89f6	0.3408963
61	0xbe728821	-0.23684742
62	0xbed2abaf	-0.4114661
63	0x3db09259	0.086216636
64	0xbeb1a06b	-0.34692702
65	0x3eca188b	0.3947185
66	0x3ecda017	0.401612
67	0x3ecae956	0.39631146
68	0x3ed890b6	0.42297906
69	0xbd14bd2e	-0.03631323

model.4.weight f4 [70, 70]
0	0x3caa7337	0.020806892
1	0xbfa6b007	-1.3022469
2	0x3e831e89	0.25609234
3	0xbe62d866	-0.22152862
4	0xc08e7f80	-4.453064
5	0xbcaf4742	-0.021396283
6	0x3f44f600	0.76937866
7	0xbda6bb08	-0.08141142
8	0xbffeaacc	-1.9895873
9	0x3e661a3c	0.22470945
10	0x3e0e248c	0.13881129
11	0xbebcbeb3	-0.36864242
12	0xbc0bb57d	-0.008527157
13	0xbe503bb4	-0.20335275
14	0x3e92f850	0.28705072
15	0xbd278ac7	-0.040903833
16	0x3f4e8933	0.806781
17	0xbdce2893	-0.10066333
18	0x3e5b161f	0.21395157
19	0x3d84051c	0.06446287
20	0xbd7b359e	-0.06133043
21	0x3e2b5ff3	0.1673582
22	0xbeb1a55d	-0.34696475
23	0xbe01c220	-0.12671709
24	0xbe559286	-0.20856676
25	0x3d7e2414	0.062046126
26	0x3dedd4c7	0.1161285
27	0x3e071ca8	0.13194525
28	0x3f97ca1c	1.1858554
29	0xbd460da5	-0.048352856
30	0x4011e098	2.279333
31	0xbe8099d2	-0.25117356
32	0x3d97c597	0.07410734
33	0xbd587b24	-0.05285181
34	0x3e02b501	0.1276436
35	0x3e0ab526	0.13545665
36	0x3e3b986e	0.18319866
37	0x3cd3edef	0.025870292
38	0xbdf622ec	-0.120183796
39	0xbe5551f2	-0.20832041
40	0x3cebe65a	0.028796364
41	0x3da070b9	0.07834
42	0xbe85350e	-0.2601704
43	0xba11bc3a	-0.0005559359
44	0x3e39aa7d	0.18131442
45	0xbe1a5ff7	-0.1507567
46	0x3de03c53	0.10949006
47	0x3ea50889	0.32233074
48	0xbebf0d53	-0.37314853
49	0x3de09a7e	0.10966967
50	0x3ed004f2	0.40628773
51	0x3e678636	0.22609791
52	0x401f231d	2.4865181
53	0xbf9fafbd	-1.2475506
54	0xbd3a6eb9	-0.04551575
55	0xbf021d1c	-0.5082567
56	0x3e5ab44d	0.21357842
57	0x3e0262bd	0.12732978
58	0xbec237c5	-0.37933174
59	0xbf98eb8d	-1.1946884
60	0xbe896106	-0.26831836
61	0x3df6a9f7	0.12044137
62	0x3e1ad76e	0.15121242
63	0x409bfb40	4.87442
64	0x3f6377bc	0.88854575
65	0xbd2caa2d	-0.04215448
66	0xbeb37092	-0.35046822
67	0xbe42eb20	-0.19035006
68	0xbd4b0bb9	-0.049571726
69	0xbf96be68	-1.1776857
70	0x3ef6a49d	0.48172465
71	0x3e02f280	0.12787819
72	0xbbd3687c	-0.0064516645
73	0x3e62c7f4	0.22146589
74	0xc035153b	-2.8294208
75	0xbe8e9720	-0.27849674
76	0x3fadc354	1.3575234
77	0x3e8cfc56	0.27536267
78	0x3f4d7ca4	0.8026831
79	0xbb93b7dc	-0.0045080017
80	0xbdbbba76	-0.09166424
81	0xbf7b12e4	-0.980757
82	0xbe369038	-0.17828453
83	0x3e45a232	0.19300154
84	0x3eea2bdc	0.45736587
85	0xbdc2f3d1	-0.095191605
86	0x3f6b73b1	0.91973406
87	0x3eb4cd12	0.35312706
88	0xbd958ec5	-0.07302622
89	0x3df8759c	0.12131807
90	0x3d425b8a	0.04745058
91	0x3cf682ea	0.030091722
92	0x3f23de8e	0.64011467
93	0xbe50ae9d	-0.2037911
94	0x3d2b202a	0.04177872
95	0xbec815a3	-0.39079008
96	0xbdde36ca	-0.10850294
97	0x3de37562	0.11106373
98	0x3f05c5f1	0.5225516
99	0x3e017039	0.12640466
100	0x4085a445	4.1763024
101	0xbd9f484d	-0.07777462
102	0x3d86180a	0.06547554
103	0xbe8f44f2	-0.2798229
104	0x3ef1a2b7	0.47194454
105	0x3cca35e3	0.024683898
106	0xbe20b264	-0.1569305
107	0x3e5340f1	0.20630242
108	0xbe9e45de	-0.3091268
109	0x3ea90a2a	0.33015567
110	0x3dc56b3e	0.096395954
111	0xbed8d44c	-0.4234947
112	0x3ceb5200	0.028725624
113	0x3e8b909b	0.27258763
114	0x3dd1d434	0.10245553
115	0x3ea640ff	0.32471463
116	0xbe9fb93f	-0.3119602
117	0xbe83ea1d	-0.25764552
118	0x3ea2c44f	0.31790397
119	0xbdaa3fe8	-0.083129704
120	0x3fa1c85a	1.2639267
121	0xbe895950	-0.26825953
122	0x3f33b5bc	0.7019918
123	0xbf924ec1	-1.1430284
124	0x3da5df4b	0.080992304
125	0x3e717e87	0.23583423
126	0x3bb02c9c	0.0053764116
127	0xbd4a12c0	-0.049334288
128	0xbe2fad50	-0.17155957
129	0xbf616c42	-0.88055813
130	0x3dbd20f0	0.09234798
131	0xbd9caf11	-0.07650579
132	0xbebedfb9	-0.37280062
133	0x3fa1d07b	1.2641748
134	0x3f03d7af	0.5150098
135	0x3d32f95c	0.04369484
136	0x3e75ffc6	0.24023351
137	0x3eb09db4	0.34495318
138	0xbd7a3534	-0.061085895
139	0xc008cc5a	-2.1374726
140	0xbd55927f	-0.052141663
141	0xbf2b3cbb	-0.6688954
142	0x3e2d9cdb	0.16954367
143	0xbfcaf1ae	-1.5855005
144	0xbf42d612	-0.76107895
145	0xbe6c8a88	-0.2309972
146	0x400e9378	2.2277508
147	0x3e1904d8	0.14943254
148	0xbea9b64e	-0.331469
149	0x3cbbeea7	0.022940947
150	0xbc4fb2e3	-0.012676927
151	0xbe2049bf	-0.15653132
152	0x3d61366b	0.054983538
153	0x3d3ea24a	0.04654149
154	0x3e8ab483	0.27090845
155	0x3d56688e	0.052345805
156	0x3f9c4b0b	1.2210401
157	0x3d4129a1	0.04715884
158	0x3e0059d9	0.12534274
159	0x3dbe9021	0.09304834
160	0xbe2a02d0	-0.16602635
161	0x3e2225f4	0.1583479
162	0x40059347	2.087114
163	0xbdcba701	-0.09943963
164	0xbca63d65	-0.020292947
165	0xbe6823ae	-0.2266986
166	0x3e0fadbf	0.14031123
167	0x3d91264d	0.070873834
168	0x3e9bf513	0.30460414
169	0xbbc646ee	-0.006050936
170	0x4043f62a	3.0618997
171	0xbe069789	-0.13143744
172	0x3de010e8	0.109407246
173	0x3eeba9e4	0.46028054
174	0x3e21b0b4	0.15790063
175	0x3ddff921	0.109361894
176	0xbcbe8092	-0.023254666
177	0xbd0cd515	-0.0343829
178	0xbe267718	-0.16256368
179	0x3e33ee28	0.17571318
180	0x3d4db73a	0.050223567
181	0xbee6d9c3	-0.45088014
182	0xbdf92329	-0.121649094
183	0x3de341b6	0.11096518
184	0x3def3701	0.11680413
185	0x3decd296	0.115636036
186	0xbe9102c5	-0.28322425
187	0xbdc46f1e	-0.095915064
188	0x3dd2e737	0.10298007
189	0x3e40cb68	0.18827593
190	0xbdc9f840	-0.09861803
191	0xbe73edeb	-0.23821227
192	0x3f46bcfe	0.7763213
193	0xbf811866	-1.0085571
194	0xbe38aefe	-0.18035504
195	0x3ec88303	0.39162454
196	0xbcf5b73f	-0.029994605
197	0xbb857411	-0.004072674
198	0xbee04e48	-0.43809724
199	0xbf2e3901	-0.6805573
200	0x3d2cb538	0.04216501
201	0xbc97ae1f	-0.018515645
202	0xbc55dd12	-0.013053196
203	0x3fa0768a	1.2536175
204	0x3eda2f5c	0.42614257
205	0xbe11614b	-0.1419727
206	0x3e420eb3	0.1895092
207	0x3dbeec30	0.09322393
208	0xbe11c633	-0.14235763
209	0xbf551244	-0.83230996
210	0x3b5e403c	0.0033912798
211	0xbdb6f086	-0.08932595
212	0xbe10fa61	-0.14158012
213	0xbfcb97e3	-1.5905727
214	0xbfadf102	-1.3589175
215	0xbe91f41f	-0.28506562
216	0x3f8e95db	1.1139482
217	0x3e18d384	0.14924437
218	0xbebb8edb	-0.36632428
219	0x3d97500c	0.073883146
220	0xbdf33dc9	-0.11877019
221	0xbeaa6e84	-0.33287442
222	0xbdd5494f	-0.10414373
223	0xbf807a9a	-1.0037415
224	0x3ec4d6d1	0.38445142
225	0x3dd827a0	0.10554433
226	0x3f03e817	0.51526016
227	0x3eaff6d5	0.34368005
228	0x3fe0f3ec	1.7574439
229	0xbd452c5d	-0.04813801
230	0xbd3a4abe	-0.045481436
231	0xbd8cbe3c	-0.06872222
232	0x3edfe39a	0.43728334
233	0xbe256c15	-0.16154511
234	0x3d7d2883	0.061806213
235	0xbe9e6851	-0.30938962
236	0xbd5acc5a	-0.05341754
237	0xbc879788	-0.016551748
238	0x3f56b96a	0.8387667
239	0x3d0fefd9	0.035140846
240	0x4002d38d	2.044162
241	0xbd692659	-0.056921337
242	0x3e960afd	0.29305258
243	0xbebab825	-0.36468616
244	0x3ebd6a59	0.369952
245	0x3cb9f004	0.022697456
246	0xbdb366a0	-0.087598085
247	0x3e94b1b6	0.29041833
248	0xbeb6f9a8	-0.35737348
249	0x3ea58c4f	0.3233361
250	0x3dc9b764	0.09849432
251	0xbe0c7ae9	-0.13718762
252	0xbcdd88ca	-0.027042765
253	0x3e593bb0	0.21214175
254	0xbc09e603	-0.0084166555
255	0x3ed498d2	0.41522843

model.4.bias f4 [70]
0	0xbe63b2de	-0.22236201
1	0xbd1a5c97	-0.037685957
2	0x3be778ea	0.0070639746
3	0xbd9babbd	-0.07601116
4	0x3ee5e715	0.44902864
5	0xbeb8998b	-0.36054644
6	0x3cae8a40	0.021306157
7	0x3eb102c5	0.34572425
8	0xbd0ca577	-0.034337487
9	0xbe108d3a	-0.14116374
10	0x3d170b6f	0.03687614
11	0x3e6f6ce0	0.23381376
12	0x3d98bfaf	0.07458436
13	0xbd8a4fa8	-0.067534745
14	0xbdd8aafe	-0.10579489
15	0x3e40f4b6	0.1884335
16	0x3e3cc726	0.18435344
17	0xbc17b218	-0.009258769
18	0x3e41a319	0.18909873
19	0x3e7296f3	0.23690395
20	0x3d21c622	0.039495595
21	0xbedb7483	-0.4286233
22	0x3e6515dc	0.2237162
23	0x3d989287	0.07449823
24	0xbb8df746	-0.004332456
25	0xbe3455a3	-0.17610793
26	0x3f18d2aa	0.5969645
27	0x3ddd9aac	0.10820517
28	0x3e5fe975	0.218664
29	0xbdeb7dd2	-0.11498608
30	0x3ea2f6ef	0.3182902
31	0xbe4cd6db	-0.20003836
32	0x3e8c5d23	0.27414808
33	0xbd975906	-0.07390027
34	0x3f06f950	0.5272417
35	0x3f0330bb	0.5124623
36	0xbd016032	-0.03158588
37	0x3e0c01e3	0.13672595
38	0xbf0332b5	-0.5124925
39	0x3ee3d706	0.44499987
40	0x3dbdf7c5	0.09275774
41	0xbef7ccce	-0.4839844
42	0xbd63dc11	-0.055629794
43	0xbe0a6d09	-0.13518156
44	0x3da4dc3e	0.0804982
45	0x3eb13e44	0.34617817
46	0xbecc3974	-0.39887583
47	0xbe7d2fd9	-0.24725284
48	0xbf01d88f	-0.5072107
49	0x3d1e109b	0.038590055
50	0xbcef1e2d	-0.029189194
51	0xbea3d94b	-0.3200172
52	0xbea8eae9	-0.32991722
53	0xbc29c7cf	-0.0103625795
54	0xbdf6d315	-0.120519795
55	0x3e36f683	0.17867474
56	0xbe75b27b	-0.23993866
57	0xbe8f6631	-0.28007653
58	0x3cd08576	0.025454264
59	0x3d2a2f9f	0.04154932
60	0x3dd65682	0.10465719
61	0x3de94858	0.113907516
62	0x3ebc8878	0.36822867
63	0x3f08950e	0.5335244
64	0xbf090ef7	-0.5353846
65	0x3d915709	0.07096679
66	0xbaa243b1	-0.0012379793
67	0xbca79ee4	-0.020461507
68	0xbe84c282	-0.25929648
69	0xbe8b819d	-0.27247325

model.6.weight f4 [1, 70]
0	0xc0a8d250	-5.275673
1	0xc0a654b5	-5.19784
2	0xc0985258	-4.7600517
3	0xc098bbd3	-4.7729278
4	0x3ff1347a	1.884414
5	0xbfea5a9a	-1.8308899
6	0x409baaa2	4.864579
7	0x402728bf	2.611862
8	0xc09328ca	-4.598729
9	0x40a8a578	5.270199
10	0x40b26423	5.5747237
11	0x4089467b	4.2898536
12	0xc0a67881	-5.20221
13	0xc0a3931c	-5.1117077
14	0x40a48389	5.1410565
15	0x40a777a8	5.2333565
16	0x408e2fb1	4.4433217
17	0xc095f65f	-4.6863246
18	0x40bbf75c	5.873945
19	0x40c0f0c6	6.0293913
20	0xc096d2ed	-4.713248
21	0xc0023c93	-2.0349472
22	0x409db2a4	4.9280567
23	0x40ae325e	5.4436483
24	0xc08ca788	-4.3954506
25	0xc0912535	-4.535792
26	0x3ff12983	1.8840793
27	0x4098f641	4.7800603
28	0x40973ab9	4.7259183
29	0x4097d315	4.744517
30	0x40aa0c31	5.313988
31	0xc09080a4	-4.515703
32	0x40a6b31a	5.209363
33	0x40a02b52	5.005288
34	0x3ffa6ad6	1.9563854
35	0x40704252	3.7540479
36	0x40ac0067	5.375049
37	0x40a57eef	5.171745
38	0xbff18f49	-1.8871852
39	0x3fe7c376	1.8106525
40	0xc0a81641	-5.2527165
41	0xbfec1446	-1.8443687
42	0xc0ac06d6	-5.3758345
43	0xc0818b48	-4.048252
44	0xc098894a	-4.766759
45	0x4085fece	4.187354
46	0xbff9b387	-1.9507912
47	0xc09c6036	-4.8867445
48	0xbfe70673	-1.8048843
49	0x409a6e3f	4.825958
50	0xc089e9b4	-4.309778
51	0xc0895d69	-4.2926526
52	0xc08b2e52	-4.3494043
53	0xc09a53ae	-4.822715
54	0xc0bdd8b8	-5.932705
55	0x4093ed14	4.62269
56	0xc0a47012	-5.1386805
57	0xc0a3e060	-5.1211395
58	0xc08c4693	-4.383615
59	0x409ea8d2	4.958108
60	0x408635cb	4.1940665
61	0xc0a314a1	-5.096268
62	0x3ff10dc9	1.8832332
63	0x3fec9714	1.8483605
64	0xbff4e9e2	-1.9133875
65	0x408f58f0	4.4796066
66	0xc0a5e48c	-5.184149
67	0x409d800b	4.9218802
68	0xc0abfc99	-5.3745847
69	0xbff54a8c	-1.9163375
