result/last_model.pth (torch, 75819 bytes, 25 tensors)

model.0.weight f4 [70, 8]
0	0x3f578988	0.8419423
1	0x3d0c2be7	0.034221556
2	0x3fc3bf17	1.5292691
3	0x3f0ff38a	0.56230986
4	0xbd438eea	-0.047743715
5	0xbf1ca1b2	-0.6118423
6	0x3f250f57	0.6447653
7	0x40421821	3.0327227
8	0xbf60136c	-0.87529635
9	0xbc9cf217	-0.019158406
10	0xbfc62523	-1.5480083
11	0xbf10aee6	-0.56516874
12	0x3dc0394f	0.09385931
13	0x3ee16d2b	0.440286
14	0xbf11711a	-0.56813204
15	0xc044e33e	-3.0763698
16	0xbf8998b8	-1.0749731
17	0xbd325ae7	-0.043543722
18	0xbfd59980	-1.668747
19	0xbf08aae6	-0.5338577
20	0xbd211c9a	-0.039333917
21	0x3f2a47c2	0.66515744
22	0xbf1c5f5a	-0.61082995
23	0xc0550fbb	-3.329085
24	0xbf602c2b	-0.87567395
25	0xbd437440	-0.047718287
26	0xbfc44663	-1.533398
27	0xbf008fb2	-0.5021926
28	0x3d1d2a49	0.038370404
29	0x3f0bceb2	0.54612267
30	0xbf122b24	-0.5709708
31	0xc042b487	-3.0422685
32	0x3f67fd8f	0.90621275
33	0xbbf75406	-0.007547858
34	0x3fcb4d3c	1.5882945
35	0x3f2bc8a9	0.6710306
36	0x3aba932d	0.0014234536
37	0xbf12926c	-0.5725467
38	0x3f1d0534	0.61336064
39	0x404c54ee	3.1926837
40	0x3f7b6d84	0.9821398
41	0x3cf733fa	0.030176152
42	0x3fcaae2a	1.5834401
43	0x3f400f2d	0.75023156
44	0x3c0a39dd	0.008436647
45	0xbf203296	-0.6257719
46	0x3f305ed8	0.6889472
47	0x404fe4fe	3.2483516
48	0xbf6b4d04	-0.9191439
49	0x3c92a87a	0.017902602
50	0xbfc78bb5	-1.558951
51	0xbf23499f	-0.6378421
52	0x3be9c8fa	0.007134554
53	0x3f1f5338	0.62236357
54	0xbf20a834	-0.6275666
55	0xc0513aa7	-3.2692049
56	0x3f6430c1	0.8913689
57	0x3e01958e	0.12654707
58	0x3fcada24	1.5847821
59	0x3f313f5b	0.692373
60	0x3d9c417a	0.07629676
61	0xbefb5d4d	-0.4909462
62	0x3f2d861e	0.6778277
63	0x40436939	3.0532973
64	0x3f6eeca4	0.93329835
65	0x3d96c82f	0.07362401
66	0x3fc13a37	1.5095891
67	0x3f0d9357	0.5530295
68	0x3d10295f	0.035195705
69	0xbf181b99	-0.5941711
70	0x3f0c168a	0.5472189
71	0x403dd718	2.9662533
72	0xbf6da9ee	-0.9283742
73	0xbd79a1ff	-0.060945507
74	0xbfc9e836	-1.577399
75	0xbf1abae3	-0.60441417
76	0x3d483269	0.0488762
77	0x3f050f8a	0.51976836
78	0xbf11bf7e	-0.5693282
79	0xc03d2845	-2.9555829
80	0x3f825174	1.0181108
81	0x3d9f19c5	0.07768587
82	0x3fd7f9e9	1.6873142
83	0x3f34e6c5	0.70664626
84	0xbdcee7f6	-0.10102837
85	0xbf19151c	-0.59797835
86	0x3f2d84a2	0.67780507
87	0x404dd0a0	3.2158585
88	0x3f8c3dab	1.095632
89	0x3b8986dc	0.0041969847
90	0x3fe22d2b	1.7670034
91	0x3f48933d	0.7834967
92	0xbc8adcb7	-0.016950948
93	0xbf2d2dd8	-0.67648077
94	0x3f222a22	0.6334554
95	0x405aaa8d	3.4166596
96	0x3f795d87	0.97408336
97	0x3d312021	0.04324353
98	0x3fb6704d	1.4253021
99	0x3f25d245	0.6477397
100	0xbcbc30ae	-0.022972431
101	0xbf2ac229	-0.66702515
102	0x3f2dc2ef	0.6787557
103	0x4041eea1	3.0301898
104	0x3f6f5c9a	0.93500674
105	0x3ba6962e	0.005083821
106	0x3fb4b8a0	1.4118843
107	0x3f201ddc	0.6254556
108	0x3c95e132	0.018295858
109	0xbf065e53	-0.5248768
110	0x3ef7639e	0.4831819
111	0x403b02a2	2.9220357
112	0xbf811768	-1.0085268
113	0xbd89565d	-0.067059256
114	0xbfd3a80c	-1.6535659
115	0xbf14d84a	-0.5814253
116	0xbb71aba6	-0.0036875992
117	0x3f1318ce	0.57459724
118	0xbf1fbe96	-0.62400186
119	0xc0415037	-3.020521
120	0xbf835e4b	-1.0263151
121	0xbdab6b32	-0.08370055
122	0xbfdb4c58	-1.7132673
123	0xbf0d8810	-0.5528574
124	0xba0bb577	-0.00053294696
125	0x3f1a1b80	0.6019821
126	0xbf311058	-0.69165564
127	0xc0513fe2	-3.269524
128	0xbf6a789c	-0.91590285
129	0xbd0f3b05	-0.034968395
130	0xbfbc92dd	-1.4732319
131	0xbf17182e	-0.5902127
132	0x3c3f8465	0.01168928
133	0x3f140f41	0.57835776
134	0xbf1a3d76	-0.6025003
135	0xc040a9c3	-3.0103614
136	0xbf5bbace	-0.85831916
137	0xbd76d376	-0.06026026
138	0xbfb609b6	-1.4221714
139	0xbf11c600	-0.5694275
140	0x3ab6adf3	0.0013937339
141	0x3f0d16db	0.55113
142	0xbf194039	-0.5986362
143	0xc038f533	-2.8899658
144	0x3f80bcc8	1.0057611
145	0x3d659438	0.056049556
146	0x3fd51089	1.6645671
147	0x3f304c53	0.6886646
148	0xbe3853ac	-0.18000668
149	0xbee43309	-0.44570187
150	0x3f3b24fe	0.7310332
151	0x40511738	3.2670422
152	0xbf6396ac	-0.8890178
153	0xbd1a5e48	-0.03768757
154	0xbfc5ad33	-1.5443481
155	0xbf182d30	-0.5944395
156	0x3d871f9e	0.065978274
157	0x3f118251	0.5683947
158	0xbf178b10	-0.5919657
159	0xc03ea77d	-2.9789727
160	0x3f80acee	1.0052774
161	0x3d6144e9	0.05499736
162	0x3fbeeb79	1.491561
163	0x3f2c1c5b	0.67230767
164	0xbe0eb474	-0.13936025
165	0xbf05b2b7	-0.5222582
166	0x3f28ca5b	0.6593377
167	0x404b15b9	3.1732008
168	0x3f6f33ca	0.934384
169	0xbc4ae65e	-0.012384025
170	0x3fd9a9f6	1.7004993
171	0x3f2df828	0.6795678
172	0xbd062396	-0.03274878
173	0xbf18c31c	-0.59672713
174	0x3f36b064	0.713629
175	0x4057f3b2	3.374249
176	0xbf566cb3	-0.8375961
177	0xbd6bf630	-0.05760783
178	0xbfc370a7	-1.5268754
179	0xbf2fdc71	-0.6869574
180	0xba479ea7	-0.00076148886
181	0x3f0c71ec	0.5486133
182	0xbf32e3f8	-0.698791
183	0xc0419fb1	-3.0253718
184	0xbf6e301f	-0.93042177
185	0x3c896a47	0.01677431
186	0xbfd0748d	-1.6285568
187	0xbf345825	-0.70447
188	0x3d9a8eb2	0.07546748
189	0x3f19ddf6	0.6010431
190	0xbf394bd7	-0.7238135
191	0xc04f9d92	-3.2439923
192	0xbf641d5a	-0.89107287
193	0xbd846cd3	-0.06466069
194	0xbfbc1393	-1.4693474
195	0xbf0eb56f	-0.55745596
196	0x3e335035	0.17511065
197	0x3f0034f7	0.5008082
198	0xbf14786a	-0.5799624
199	0xc039e77d	-2.904754
200	0xbf589e13	-0.846162
201	0xbccbb2eb	-0.024865588
202	0xbfbc0aa3	-1.4690746
203	0xbf1a8381	-0.6035691
204	0x3d1bdf07	0.038054492
205	0x3f100032	0.562503
206	0xbf25eb59	-0.6481224
207	0xc03d39ab	-2.9566448
208	0x3f34a6d9	0.7056709
209	0x3d8971d0	0.06711161
210	0x3fbf46be	1.4943464
211	0x3f29a565	0.66268
212	0x3caf4a5a	0.021397758
213	0xbef020ff	-0.46900174
214	0x3f15affe	0.5847167
215	0x403989e4	2.8990412
216	0xbf721cd4	-0.9457524
217	0xbd25da5f	-0.040491458
218	0xbfca13ff	-1.5787352
219	0xbf1d4da0	-0.6144657
220	0x3e128619	0.14308967
221	0x3f01b358	0.5066428
222	0xbf1e44e2	-0.61823857
223	0xc04aa911	-3.166569
224	0x3f4c599f	0.7982425
225	0x3d8674cb	0.06565245
226	0x3fb8e3e5	1.4444548
227	0x3f22b428	0.63556147
228	0xbde1fd2d	-0.110346176
229	0xbee87472	-0.4540134
230	0x3f2b4e1d	0.66916066
231	0x403234f0	2.784481
232	0x3f5af980	0.85536957
233	0xbc3d2acc	-0.011545848
234	0x3fc7be4c	1.5604949
235	0x3f17f7ef	0.5936269
236	0xbd38d94f	-0.045129117
237	0xbf23a77c	-0.63927436
238	0x3f1cdc8e	0.6127404
239	0x403dd77a	2.9662766
240	0xbf5d1c80	-0.8637161
241	0xbda9568a	-0.08268459
242	0xbfc8cd5e	-1.5687673
243	0xbf23b5e7	-0.63949436
244	0x3d52f251	0.051500622
245	0x3f152390	0.5825739
246	0xbf16f808	-0.58972216
247	0xc03ad13f	-2.9190214
248	0xbf801223	-1.0005535
249	0xbc5bfed9	-0.01342746
250	0xbfc68267	-1.5508546
251	0xbf141b2c	-0.5785396
252	0x3c896e73	0.0167763
253	0x3f14fef2	0.58201516
254	0xbf388aa3	-0.7208654
255	0xc046181c	-3.0952215

model.0.bias f4 [70]
0	0xc0331b14	-2.7985277
1	0x4094d197	4.6505847
2	0x3e14f091	0.14544894
3	0x40825300	4.072632
4	0xc01bd9c2	-2.435166
5	0xc0892140	-4.285309
6	0x402811f0	2.6260948
7	0xbfebe79a	-1.8430054
8	0xc026a9ac	-2.604106
9	0x404ae7f4	3.1704073
10	0xbf9afc56	-1.2108257
11	0x3e54247b	0.20717041
12	0xbff8c70c	-1.9435744
13	0xc0233a4c	-2.5504332
14	0x406d4191	3.7071269
15	0x401c9ad4	2.44695
16	0x406ec553	3.7307937
17	0x40838403	4.1098647
18	0xc017bf6b	-2.3710582
19	0x40320808	2.7817402
20	0xc05c0f06	-3.438417
21	0xbffdbf8c	-1.982408
22	0x3fd660e5	1.674832
23	0x4002a239	2.0411513
24	0x4045c12a	3.0899148
25	0x40071e7d	2.1112359
26	0xbfeb5428	-1.8385057
27	0x3f7cea25	0.98794776
28	0xc0425895	-3.0366566
29	0xc08e59a0	-4.4484406
30	0x4041b25d	3.0265114
31	0x3f813cb9	1.0096656
32	0x3f365ddd	0.71236974
33	0xbfbe9139	-1.4888068
34	0x3f1c33fd	0.6101683
35	0x4093fb8e	4.6244574
36	0x40289c19	2.6345274
37	0x4048a350	3.1349678
38	0x3f183d06	0.59468114
39	0x4077af3e	3.870071
40	0xbfe08d6c	-1.7543159
41	0xc0504cf8	-3.2546978
42	0xc06244fe	-3.535461
43	0x3f7db7cc	0.99108577
44	0x4063b02b	3.5576274
45	0xc084de3c	-4.152128
46	0x40817bfe	4.046386
47	0xbfcadfac	-1.5849509
48	0x3ef50a1d	0.47859278
49	0x4077d6dd	3.8724892
50	0x405c1575	3.4388096
51	0x407744a3	3.8635643
52	0x3fcadf1e	1.584934
53	0x3ffcc895	1.9748713
54	0xc0681a99	-3.6266234
55	0x406b90d3	3.6807144
56	0x4013fe70	2.3124046
57	0x404cfe44	3.2030191
58	0x3f68a6cb	0.90879506
59	0xc046ee15	-3.1082814
60	0x4057ac1c	3.3698797
61	0x4080a932	4.0206537
62	0x4024431a	2.5665956
63	0x40192c0c	2.3933134
64	0x403bf652	2.9369092
65	0xc0692f56	-3.6435142
66	0xc0933b12	-4.6009607
67	0x40a061e0	5.0119476
68	0xc03fa2e7	-2.9943178
69	0xc05d3d4e	-3.4568667

model.1.weight f4 [70]
0	0x3e4f9232	0.20270613
1	0x3e1737de	0.14767405
2	0x3f6964c9	0.9116941
3	0x3e09c9ee	0.13455936
4	0x3eaddbe1	0.33956817
5	0x3e104f0e	0.14092657
6	0x3e01b035	0.12664874
7	0x3e37808e	0.17920133
8	0x3e47969e	0.1949105
9	0x3df5ff09	0.12011535
10	0x3ec7051b	0.38871083
11	0x3f5eb015	0.8698743
12	0x3e3816ef	0.17977498
13	0x3e31cb4d	0.1736271
14	0x3e149ba4	0.14512497
15	0xbe01ef56	-0.12688956
16	0x3e0ae8b8	0.13565338
17	0x3e04d00a	0.12969986
18	0x3ebc44fe	0.36771387
19	0x3e1d6d41	0.15373708
20	0x3e38fe4f	0.18065761
21	0x3ebc90dd	0.36829272
22	0x3e090414	0.13380462
23	0x3eb43a1c	0.35200584
24	0x3e15124a	0.14557758
25	0x3e40940b	0.18806474
26	0x3e0c3242	0.13691047
27	0x3e490d85	0.19634064
28	0x3e670b1b	0.2256283
29	0x3e1d41a6	0.15357074
30	0x3e133e96	0.14379343
31	0x3e216778	0.15762126
32	0x3e1ce8b2	0.15323141
33	0x3e5791e5	0.21051748
34	0x3f59a97d	0.85024244
35	0x3e14ccd3	0.14531259
36	0x3e34c22d	0.17652197
37	0x3e1476d6	0.14498457
38	0x3e068b29	0.13139023
39	0x3e0458c8	0.12924492
40	0x3dfb9157	0.12283581
41	0x3e1d421f	0.15357254
42	0x3e0d5e5a	0.13805524
43	0x3eb52ca1	0.35385612
44	0x3e137283	0.14399152
45	0x3e091724	0.13387734
46	0x3e36fdfa	0.17870322
47	0x3ec00842	0.375063
48	0x3f7e11ad	0.9924572
49	0x3e16ef4d	0.14739724
50	0x3e1453f7	0.14485155
51	0x3e1c3f4b	0.1525852
52	0x3e329542	0.1743975
53	0x3df5cf23	0.12002399
54	0x3e435035	0.19073565
55	0x3e251c22	0.16124013
56	0x3e1bab6c	0.15202111
57	0x3e2f193a	0.17099467
58	0x3e164191	0.14673449
59	0x3e0d2935	0.1378525
60	0x3e194cb6	0.14970669
61	0x3e28a1bd	0.16467948
62	0x3e0cce33	0.13750534
63	0x3e1f1f76	0.15539345
64	0x3e03f8d9	0.12887897
65	0x3e15e52b	0.14638202
66	0x3e0e1250	0.13874173
67	0x3e11e7ad	0.14248534
68	0x3e63f902	0.22262958
69	0x3df104a8	0.11768466

model.1.bias f4 [70]
0	0xbdc74acb	-0.097310625
1	0xbd3828e4	-0.04496087
2	0x3fc95768	1.5729799
3	0xbe2e8f0a	-0.17046753
4	0xbed65d12	-0.41867882
5	0x3e17cfc9	0.14825357
6	0xbc4da2a0	-0.01255098
7	0xbdbb24ca	-0.09137876
8	0xbdb4ecde	-0.08834241
9	0xbe3b9128	-0.18317091
10	0xbecb362f	-0.39689776
11	0xbfbcb269	-1.4741946
12	0xbdb4493c	-0.08803031
13	0xbdcee0d1	-0.10101474
14	0xbe2c9c75	-0.16856559
15	0x3e157e88	0.14599049
16	0xbe295374	-0.16535741
17	0xbe1a9957	-0.15097557
18	0xbec9c850	-0.3941064
19	0xbb761db4	-0.0037554326
20	0xbdb3a8ca	-0.08772428
21	0xbede81d4	-0.43458426
22	0xbd33557a	-0.04378269
23	0x3ee5d0ae	0.44885772
24	0xbe327e2f	-0.17430948
25	0x3e0e1019	0.13873328
26	0x3d16586d	0.036705423
27	0x3d3c41aa	0.04596106
28	0xbd7fbd65	-0.06243648
29	0x3d292a55	0.041300137
30	0xbe0976cd	-0.13424225
31	0x3d9c3c36	0.07628672
32	0x3dae11d9	0.08499498
33	0xbda41655	-0.08012072
34	0x3fbb6049	1.4638759
35	0xbe246d19	-0.16057242
36	0xbce89702	-0.028392319
37	0xbd267e95	-0.04064806
38	0xbccead6c	-0.025229178
39	0xbe3efcbe	-0.18651101
40	0x3cb390fa	0.021919716
41	0x3e224e39	0.15850152
42	0x3e270a16	0.16312441
43	0x3ebced69	0.3689988
44	0xbd40b411	-0.047046725
45	0x3e293883	0.16525464
46	0xbd66eb83	-0.056376945
47	0xbeeed0bc	-0.46643627
48	0xbfd1b2da	-1.6382706
49	0xbe3e125b	-0.1856169
50	0xbccee7a1	-0.025256934
51	0xbd27842c	-0.040897533
52	0x3dc3c084	0.09558204
53	0xbba6ab19	-0.0050863144
54	0xbda1e732	-0.07905425
55	0xbe06eb55	-0.1317571
56	0xbcf643c3	-0.030061608
57	0x3dd9446d	0.10608754
58	0x3dd6ca98	0.104878604
59	0x3e1b1829	0.15145935
60	0xbe16463a	-0.14675227
61	0xbe37dfa9	-0.17956413
62	0xbd5539c9	-0.05205706
63	0x3dabb63e	0.08384369
64	0xbe17e480	-0.1483326
65	0x3e3667b5	0.17812999
66	0x3e0a133b	0.13483898
67	0xbe2668c4	-0.16250902
68	0xbdb06627	-0.08613234
69	0x3d497575	0.04918428

model.1.running_mean f4 [70]
0	0x41d8e778	27.113022
1	0xc1d00818	-26.003952
2	0xc203f896	-32.99276
3	0xc1ced07e	-25.851803
4	0x41eb8f78	29.445053
5	0x41e7eb38	28.989853
6	0xc1e9f400	-29.24414
7	0x41f8bb72	31.091526
8	0x41dc3f61	27.530947
9	0xc1db8adc	-27.442802
10	0x42008a94	32.13533
11	0x420ca06c	35.156662
12	0x41e55c9e	28.670223
13	0x41d704d5	26.87736
14	0xc1e1ad84	-28.209724
15	0xc1f9d4ab	-31.228842
16	0xc1d2f744	-26.370735
17	0xc1c8e40c	-25.111351
18	0x41fbed7b	31.490957
19	0xc1d9d288	-27.227798
20	0x41e4c6a1	28.596987
21	0x41fe6518	31.799362
22	0xc1ee06ee	-29.753384
23	0xc1f486d6	-30.565838
24	0xc1cf97eb	-25.949179
25	0xc1dc95a3	-27.573065
26	0x41dfc005	27.96876
27	0xc1f58903	-30.6919
28	0x41d18f14	26.194862
29	0x41c8cfa6	25.10139
30	0xc1d8d26c	-27.102745
31	0xc1f6cee4	-30.85102
32	0xc1e57e00	-28.686523
33	0x41effbfb	29.998037
34	0xc20e82a4	-35.62758
35	0xc1e07b88	-28.060318
36	0xc1d4a8ca	-26.582417
37	0xc1d3e948	-26.488907
38	0xc1f5a479	-30.705309
39	0xc1cb75f0	-25.432587
40	0x41d8a0dc	27.078545
41	0x41d30710	26.378448
42	0x41cc4f8a	25.538837
43	0xc202f4d4	-32.73909
44	0xc1c662ce	-24.798244
45	0x41ccdeec	25.608849
46	0xc1d014b6	-26.010113
47	0x41f6d0eb	30.85201
48	0x420b6e1f	34.85754
49	0xc1d03901	-26.027834
50	0xc1ce5ce4	-25.795357
51	0xc1ee8eca	-29.819721
52	0xc1e97d61	-29.18622
53	0xc1cd2bf4	-25.646461
54	0x41e1a648	28.206192
55	0xc1cef49a	-25.869434
56	0xc1d77d6e	-26.936245
57	0xc1e3f622	-28.495182
58	0xc1f7bffa	-30.968739
59	0x41d3139e	26.384579
60	0xc1d49972	-26.574924
61	0xc1ce0e67	-25.757032
62	0xc1c965ff	-25.174803
63	0xc1e2882e	-28.316494
64	0xc1d42d89	-26.522234
65	0x41d0fb93	26.122839
66	0x41d80bf4	27.005836
67	0xc1d1699d	-26.176569
68	0x41df4d7b	27.912832
69	0x41d10a5b	26.130056

model.1.running_var f4 [70]
0	0x42e2a857	113.32879
1	0x42e43192	114.09682
2	0x430923eb	137.1403
3	0x42e0e910	112.4552
4	0x42f989ea	124.76936
5	0x430317d2	131.09305
6	0x43007892	128.47098
7	0x42eaa10a	117.31453
8	0x42daf14a	109.47127
9	0x42dd6c02	110.71095
10	0x4303fe7d	131.9941
11	0x43145471	148.32985
12	0x42e4c79f	114.389885
13	0x42d08f01	104.279305
14	0x42ec29f3	118.08193
15	0x430622a2	134.13528
16	0x42dee251	111.442024
17	0x42cd7a0d	102.73838
18	0x43054f1d	133.30904
19	0x42ddaf5c	110.8425
20	0x42f5786a	122.73518
21	0x430bec56	139.92319
22	0x42e41ab7	114.05218
23	0x4302f374	130.95099
24	0x42d126a3	104.57546
25	0x42d7c3cd	107.88242
26	0x42cd9cf4	102.80655
27	0x42f4fe43	122.496605
28	0x42c41c3a	98.05513
29	0x42de038e	111.00694
30	0x42d97f36	108.74846
31	0x42f0b87d	120.36033
32	0x42e0894e	112.26817
33	0x42eabf31	117.37342
34	0x4321eef9	161.93349
35	0x43042a89	132.16615
36	0x42cfa2f4	103.81827
37	0x42cd0352	102.506485
38	0x42e808a2	116.01686
39	0x42cad68a	101.41902
40	0x42cecf4c	103.40488
41	0x42da71b9	109.222115
42	0x42d7c4d7	107.88445
43	0x4308d785	136.84187
44	0x42c8c8fc	100.39255
45	0x42d59979	106.79975
46	0x42e6f78b	115.48348
47	0x42fbeae9	125.95881
48	0x430cf70b	140.96501
49	0x42dfef46	111.96733
50	0x42b59802	90.79689
51	0x4304e73f	132.9033
52	0x42dda35f	110.819084
53	0x42ba9f27	93.310844
54	0x42f5ec99	122.962105
55	0x42d36f45	105.71732
56	0x42d26bae	105.21031
57	0x42f26a61	121.20777
58	0x42facd8f	125.40148
59	0x42d11593	104.54214
60	0x42e0c9aa	112.393875
61	0x42df3c66	111.617966
62	0x42bf8682	95.76271
63	0x42ebfc1a	117.992386
64	0x42cdb3a1	102.85084
65	0x42cf14f0	103.54089
66	0x42ddc035	110.875404
67	0x42df15fe	111.54295
68	0x42e3c924	113.89285
69	0x42d6fd76	107.49504

model.4.weight f4 [70, 70]
0	0x3df6b283	0.12045767
1	0x3f8f397b	1.1189417
2	0x3e44ce98	0.19219434
3	0x402930a3	2.6435935
4	0xbcd43c0a	-0.025907535
5	0xc05a75f5	-3.4134495
6	0x3e554971	0.20828797
7	0x3d1b6802	0.037940986
8	0xbe3e4311	-0.18580271
9	0x40141758	2.3139248
10	0x3e6ff7bd	0.23434348
11	0x3d9ba3c4	0.07599595
12	0x3c074632	0.008256482
13	0x3e4ad958	0.19809473
14	0x40189c49	2.384539
15	0xc05f6e9f	-3.4911268
16	0x400f1da3	2.236184
17	0x40258e6e	2.5868182
18	0xbce9ee50	-0.028556019
19	0xbd3ddb2f	-0.046351608
20	0xbf009fa2	-0.5024358
21	0xbde013a0	-0.10941243
22	0x3e755080	0.2395649
23	0x3e1df7ae	0.15426514
24	0x405bcba1	3.4343035
25	0xbea74fda	-0.3267811
26	0xbe893926	-0.26801413
27	0x3e9cd1a7	0.30628702
28	0x3e00b04a	0.12567249
29	0xbed6d67a	-0.41960508
30	0x40039789	2.056124
31	0x3ceb29ca	0.02870645
32	0xbe5a97ff	-0.21347044
33	0xbe0ba58e	-0.13637373
34	0x3dcb1c75	0.09917537
35	0x40567b04	3.3512583
36	0xbe4acf66	-0.19805679
37	0x3f3a0c46	0.7267498
38	0x3f062f39	0.52415806
39	0x3fc967dd	1.5734822
40	0xbe40957e	-0.18807027
41	0xc049005a	-3.1406465
42	0xc0360a94	-2.8443956
43	0x3d56a74d	0.052405644
44	0x3f1c6fa1	0.6110783
45	0xc02fec09	-2.7487814
46	0x3e669cf2	0.22520807
47	0xbe0756ba	-0.13216677
48	0xbe530d4c	-0.20610541
49	0x403dd470	2.9660912
50	0xbabee156	-0.0014563005
51	0x3f070024	0.5273459
52	0x3f4124a4	0.75446534
53	0x3f46c885	0.7764972
54	0xbd53cea1	-0.05171073
55	0x40163477	2.3469522
56	0xbe0abf77	-0.135496
57	0x3eb8819e	0.3603639
58	0x3f396700	0.7242279
59	0xc0417483	-3.0227363
60	0x402e3fa1	2.7226336
61	0x40490ea5	3.1415188
62	0x3ea5b185	0.32362
63	0xbd844f47	-0.064604335
64	0x405ccbe2	3.449944
65	0xc016da56	-2.3570762
66	0xbff185c7	-1.8868951
67	0x402771b5	2.6163151
68	0xbc9e1a83	-0.019299751
69	0xbd16f4ae	-0.03685444
70	0x3e3136ba	0.17306033
71	0xbf310432	-0.69147027
72	0xbdba2b1b	-0.09090253
73	0xc00c347c	-2.1907034
74	0xbc2f02a8	-0.010681786
75	0x405c7b80	3.4450378
76	0xbeaa5b61	-0.33272842
77	0x3ceb6519	0.02873473
78	0x3ef60fe7	0.48059008
79	0xbfeb5187	-1.8384255
80	0xbe1e0807	-0.1543275
81	0x3e40c37d	0.18824573
82	0xbe4af6e5	-0.19820745
83	0x3e3ef48f	0.18647979
84	0xc00fe3b6	-2.2482734
85	0x405bf2a7	3.4366853
86	0xc03287b7	-2.7895334
87	0xc04af7f0	-3.171383
88	0x3e6c7fc8	0.2309562
89	0x3dc1fe0a	0.09472282
90	0x3d8715cb	0.065959536
91	0x3c63e542	0.01390964
92	0xbe63baa0	-0.2223916
93	0x3e19d070	0.15020919
94	0xc04b2626	-3.1742034
95	0xbf014b27	-0.505053
96	0x3c9f9cf4	0.01948402
97	0xbe4f2d67	-0.20232163
98	0xbdf3ba65	-0.11900786
99	0x3e55d490	0.20881867
100	0xbfd77305	-1.6831976
101	0xbee895dd	-0.45426837
102	0xbdb53030	-0.08847082
103	0xbbf3c189	-0.0074388427
104	0xbd0282e0	-0.031863093
105	0xc0502fc9	-3.2529166
106	0x3eb5c21f	0.35499665
107	0x3d2a2055	0.04153474
108	0xbef5b9a4	-0.47993195
109	0xc002564f	-2.0365179
110	0x3e95f89d	0.2929124
111	0x4056c7c7	3.3559434
112	0x40760a11	3.8443644
113	0xbdcf3187	-0.101168685
114	0x3d812bdd	0.063071944
115	0x404c764e	3.1947207
116	0x3e843635	0.25822607
117	0x3e9b0385	0.30276123
118	0x3e5a32a5	0.21308382
119	0xc0268853	-2.6020706
120	0xbdb4a3f3	-0.08820333
121	0x3e95ec5d	0.29281893
122	0x3e36605f	0.178102
123	0xbe261e88	-0.16222584
124	0x3de21ac4	0.110402614
125	0xbfc0fdbe	-1.5077436
126	0x3d801ba4	0.06255272
127	0x3e3c8d13	0.1841319
128	0xbd9d71c6	-0.07687716
129	0x4025f1bb	2.592879
130	0xc041e5ab	-3.0296428
131	0xc03f31d3	-2.987416
132	0xbf0c38fe	-0.54774463
133	0xbdd5efb9	-0.10446114
134	0xc05e2598	-3.4710445
135	0x4005eaab	2.092448
136	0x40283fe9	2.6289008
137	0xc03898c8	-2.884325
138	0x3ec29f33	0.38012084
139	0xbc8bb376	-0.017053347
140	0xbe1a2ca5	-0.15056093
141	0xbe45748d	-0.19282742
142	0x3e894e8a	0.26817733
143	0xbe406b09	-0.1879083
144	0xc0ac1a98	-5.3782463
145	0xbe86ea1e	-0.26350492
146	0xbe81c663	-0.2534667
147	0x3d11bab0	0.03557843
148	0xbdf8b432	-0.121437445
149	0x3e5fc370	0.21851897
150	0xc0a10c5b	-5.032758
151	0xbe987f7f	-0.29784772
152	0xbe41c64c	-0.189233
153	0x3cfc5305	0.030801306
154	0xbcc49a4d	-0.023999358
155	0xbd111be7	-0.035427
156	0x3cb068ed	0.021534408
157	0xbee82b73	-0.4534565
158	0xc0a1c467	-5.055225
159	0xbec2081c	-0.37896812
160	0x3ec1ba7f	0.37837598
161	0xc0a88b5f	-5.267013
162	0x3d00ee1a	0.03147707
163	0x40a5c585	5.1803613
164	0xbdf40f54	-0.11916986
165	0xbe6ca335	-0.23109134
166	0xbe81d1d7	-0.25355408
167	0xbe871ba0	-0.26388264
168	0x3e1b0742	0.15139487
169	0x3de58da6	0.11208658
170	0x3e6dd4eb	0.23225753
171	0xbf4f5e3c	-0.81003165
172	0x3cfdaf8a	0.030967493
173	0x3ebf6e44	0.37388813
174	0x3f1e89e9	0.61929184
175	0xbe141a73	-0.14463215
176	0xbed29f2c	-0.41137064
177	0xbe71592e	-0.23569176
178	0x3d3dc479	0.04632995
179	0xbeb742a7	-0.3579304
180	0x3eb985c6	0.36234874
181	0x3e1ef271	0.15522172
182	0x3e9fa0f5	0.31177488
183	0x40a29c5e	5.081588
184	0x3e4e29c9	0.20133127
185	0x3eab1677	0.33415577
186	0xbe3d99bf	-0.1851568
187	0xc09aa9df	-4.833236
188	0xbe690bd5	-0.2275842
189	0xbe4a005f	-0.19726704
190	0x3daeabd8	0.0852887
191	0x3cfc67ab	0.030811151
192	0xbe1dd91b	-0.1541485
193	0xbda5e355	-0.08100001
194	0xbe3ef5d5	-0.18648465
195	0xbeab0be6	-0.33407515
196	0xbe7f5fbf	-0.24938868
197	0x3c87f7e0	0.016597688
198	0xbe804045	-0.25049034
199	0xbde9a529	-0.11408455
200	0x3d51ce92	0.05122239
201	0xbe48e3a0	-0.19618082
202	0xbcb4bc7c	-0.022062533
203	0xbe2191e5	-0.1577831
204	0x3ee02560	0.43778515
205	0xbe71270b	-0.2355005
206	0x3de15531	0.11002577
207	0x3d186ee4	0.03721513
208	0xbdd1cc2c	-0.10244021
209	0x3d340690	0.04395157
210	0xbdf8ceb6	-0.12148802
211	0xc02af9f9	-2.6715071
212	0x3e545e4a	0.20739093
213	0x3f845273	1.0337662
214	0x3cd16283	0.02555967
215	0xbead9e33	-0.3390976
216	0xc0550fa6	-3.32908
217	0xbe0f0e3b	-0.13970272
218	0xbd7d140b	-0.061786693
219	0x3ef83ef4	0.4848553
220	0xbdd16719	-0.102247424
221	0xbde1fe6c	-0.11034855
222	0xbceffa4e	-0.02929416
223	0xbe9756e0	-0.29558468
224	0x3effa8a4	0.4993335
225	0xbe8325ef	-0.2561488
226	0x3e949569	0.2902024
227	0x3f4c8666	0.79892576
228	0x3dc69e64	0.09698179
229	0xc05674cc	-3.3508787
230	0x3d203fb2	0.039123245
231	0xbca9fd18	-0.020750567
232	0xc03d908c	-2.9619474
233	0x3d89186f	0.066941135
234	0x3f028fdd	0.5100077
235	0x3ee315a8	0.4435246
236	0x40537081	3.3037417
237	0x3e50190e	0.20322058
238	0x3eba7c80	0.3642311
239	0x403f4ef5	2.9891942
240	0x3f0c511a	0.5481125
241	0xbe93d4cf	-0.28873298
242	0x3d91634c	0.070990175
243	0xbe402841	-0.18765356
244	0xbcfd8cc5	-0.030950913
245	0x3f3c365e	0.7352046
246	0xc045bd9e	-3.0896983
247	0xc024ed8e	-2.5769992
248	0xc03f0659	-2.9847624
249	0x3ebe7db9	0.37205294
250	0x40537f3f	3.3046415
251	0xbec76613	-0.38945064
252	0xbed36220	-0.412858
253	0x3dd56bd7	0.104209594
254	0xc0452b05	-3.0807507
255	0x3dc7c4cd	0.09754334

model.4.bias f4 [70]
0	0x4001a592	2.0257306
1	0xbffcd5ef	-1.9752787
2	0xbfe03794	-1.7516961
3	0x3e28ae8d	0.16472836
4	0x3ee78f17	0.45226356
5	0xbfabd759	-1.3425094
6	0xbf9bc2d8	-1.2168837
7	0x3fb8014d	1.4375397
8	0xc015485c	-2.3325415
9	0x3f99bad9	1.2010146
10	0xc01700a6	-2.3594146
11	0x4028867c	2.6332083
12	0x400d63ef	2.2092245
13	0xc02a626f	-2.662258
14	0xbf66c139	-0.90138584
15	0xbf8f867a	-1.1212914
16	0x3e902d64	0.2815963
17	0x3f58314e	0.84450233
18	0xbfe96e2b	-1.8236746
19	0xc010ff0c	-2.2655668
20	0x3fa85215	1.315005
21	0x3f504bd6	0.81365716
22	0x3f8a9504	1.0826726
23	0xbffbd51d	-1.9674412
24	0x3fd8aacc	1.6927123
25	0xbf32977d	-0.697624
26	0xbe963ae8	-0.29341817
27	0xbe422b9c	-0.18961948
28	0x3f62f21a	0.8865067
29	0xbfae9cda	-1.3641617
30	0xbc066e5e	-0.0082050245
31	0x3fb14290	1.3848438
32	0x402a1318	2.6574154
33	0x3ef39f80	0.47582626
34	0x40342b4c	2.8151426
35	0xc05292b5	-3.2902043
36	0x3fc9ca34	1.5764832
37	0xbfbdf83b	-1.4841379
38	0x3db2a11d	0.08722136
39	0xc00d4f9e	-2.2079844
40	0x3f8ec76c	1.1154609
41	0xc016e992	-2.358006
42	0xbf1a6646	-0.60312307
43	0xbfcae24b	-1.5850309
44	0xbff800a4	-1.9375196
45	0x4037e145	2.8731244
46	0xbfcbbd75	-1.5917193
47	0x409004a5	4.500567
48	0x3fed5720	1.8542213
49	0x3eb3c17e	0.3510856
50	0xc00037b1	-2.0033991
51	0xbfbf57c9	-1.4948665
52	0x3ff36098	1.9013853
53	0x3de5d977	0.11223119
54	0xc015d79c	-2.3412848
55	0x3ef35336	0.47524422
56	0xc00bb0ca	-2.1826653
57	0xc0095004	-2.1455088
58	0xbecb40af	-0.39697787
59	0xc03467c5	-2.8188336
60	0xbf001707	-0.50035137
61	0x3fb13b37	1.3846196
62	0xbe88566c	-0.26628435
63	0x4025639b	2.5842044
64	0xc00095c7	-2.0091417
65	0xbdfd45a6	-0.123668
66	0x3f8541a6	1.0410659
67	0x3ed670bc	0.41882885
68	0x3f2a618a	0.6655508
69	0xbd60f601	-0.054922108

model.5.weight f4 [70]
0	0x3e1533b0	0.14570498
1	0x3e24fc90	0.1611197
2	0x3f02eb83	0.5114061
3	0x3e2750ad	0.16339369
4	0x3e6baa7b	0.23014252
5	0x3e4be044	0.1990977
6	0x3e19f627	0.15035306
7	0x3e1c48a8	0.15262091
8	0x3e27be4e	0.16381189
9	0x3e125769	0.14291157
10	0x3e13d28e	0.14435789
11	0x3e1c5d23	0.15269904
12	0x3e5564c5	0.20839222
13	0x3e323e33	0.1740654
14	0x3e32779d	0.17428441
15	0x3e2f99e1	0.17148544
16	0x3e454e03	0.1926804
17	0x3e1d5037	0.15362631
18	0x3fa24e39	1.2680122
19	0x3e27d07b	0.16388123
20	0x3e6f451e	0.2336621
21	0x3e2b489d	0.16726919
22	0x3e698878	0.22805965
23	0x3e332348	0.17493927
24	0x3e9d41f4	0.3071438
25	0x3e5094dc	0.20369285
26	0x3f1c705f	0.61108965
27	0x3e5a2d13	0.21306257
28	0x3f8e5ae3	1.1121486
29	0x3e5193f7	0.204666
30	0x3ee6bb77	0.450649
31	0x3ecbc028	0.3979504
32	0x3e218840	0.15774632
33	0x3e48da1b	0.1961445
34	0x3e128019	0.14306678
35	0x3e1df5f8	0.15425861
36	0x3e253929	0.16135086
37	0x3e2ef078	0.17083919
38	0x3f39be1e	0.7255572
39	0x3e14471e	0.14480254
40	0x3e2eeb09	0.17081846
41	0x3e2ae10d	0.16687413
42	0x3e43465d	0.1906981
43	0x3e7aa8c7	0.24478446
44	0x3e5a6f94	0.21331626
45	0x3e1d39da	0.153541
46	0x3e16d939	0.14731301
47	0x3e395292	0.18097904
48	0x3e15c4d6	0.14625868
49	0x3e2205a2	0.15822461
50	0x3e23b5a2	0.15987256
51	0x3e36d640	0.17855167
52	0x3fa6c2bb	1.3028177
53	0x3e65be0e	0.22435781
54	0x3e169614	0.14705688
55	0x3e4ccb34	0.19999391
56	0x3e30a529	0.17250504
57	0x3e155b83	0.1458569
58	0x3e3c8c1e	0.18412825
59	0x3e3d89d4	0.18509609
60	0x3e57797f	0.21042441
61	0x3ee774fe	0.45206445
62	0x3e34dbf5	0.17662032
63	0x3e1e7af1	0.15476586
64	0x3f9ff18b	1.2495588
65	0x3e538088	0.206545
66	0x3f8b8e24	1.0902753
67	0x3e3dcbc7	0.18534766
68	0x3e59fbd1	0.21287467
69	0x3e48b40f	0.19599937

model.5.bias f4 [70]
0	0xbe218670	-0.1577394
1	0x3e27d5a3	0.1639009
2	0x3f1e02eb	0.617232
3	0x3d11d40e	0.03560262
4	0xbdcedf22	-0.10101153
5	0x3dcfc980	0.10145855
6	0x3e350c42	0.17680457
7	0xbe48f895	-0.19626077
8	0x3e094f38	0.13409126
9	0xbe18f245	-0.14936168
10	0x3e19e586	0.15028962
11	0xbe48cccb	-0.19609372
12	0xbdc9bde9	-0.098506756
13	0x3e393ae7	0.18088876
14	0x3cf096d1	0.02936879
15	0xbd464c84	-0.048412815
16	0x3d722989	0.059121642
17	0xbe237b1d	-0.15964933
18	0x40382936	2.8775153
19	0x3e3953bc	0.18098348
20	0xbd8fa813	-0.070144795
21	0x3d1ff83f	0.039055105
22	0xbdc43594	-0.09580532
23	0x3e3b42b5	0.18287165
24	0xbec27be7	-0.37985155
25	0x3dab5cfb	0.08367344
26	0xbf300381	-0.68755347
27	0x3e0c5103	0.13702779
28	0xc00ea1b1	-2.2286189
29	0x3de30bbb	0.11086222
30	0x3f0ff90b	0.56239384
31	0xbef894cb	-0.4855102
32	0xbe29305f	-0.16522358
33	0xbdd5c800	-0.104385376
34	0xbe1bc3ad	-0.15211363
35	0x3e3bbfb1	0.18334843
36	0xbe35deac	-0.17760724
37	0x3e2416ff	0.16024397
38	0xbf7092a1	-0.9397374
39	0x3e4bae2e	0.19890663
40	0xbe34fd1d	-0.1767468
41	0x3e4448b1	0.19168355
42	0xbd746b57	-0.05967268
43	0x3df0b29a	0.117528155
44	0xbcaaa852	-0.020832215
45	0xbe302aa8	-0.17203772
46	0x3e41794f	0.18893932
47	0xbe3a0437	-0.1816567
48	0xbe2ed7fe	-0.17074582
49	0xbc5e41db	-0.013565506
50	0x3c97a7ec	0.018512689
51	0x3d2e52ff	0.04255962
52	0xc048b12c	-3.1358137
53	0x3dd0f95f	0.10203814
54	0x3e3c7b93	0.18406515
55	0xbda7fac3	-0.08202126
56	0x3dffb1de	0.12485097
57	0x3e2e0fbe	0.16998193
58	0x3dee1a06	0.11626057
59	0x3e2e3e3b	0.17015927
60	0x3d51cc70	0.051220357
61	0xbf09ea35	-0.53872997
62	0x3e0fa16f	0.14026426
63	0xbe206b95	-0.1566604
64	0x403ba038	2.931654
65	0xbdec15be	-0.115275845
66	0xc0110531	-2.2659419
67	0x3c713baa	0.014723698
68	0xbdfe6de2	-0.12423302
69	0xbd7b6e5b	-0.06138454

model.5.running_mean f4 [70]
0	0xc0f1d971	-7.557793
1	0x40ec4b04	7.384157
2	0x4141d231	12.113816
3	0x3f62deae	0.8862103
4	0xc096680f	-4.7002025
5	0x404a4d5b	3.1609714
6	0x40fba162	7.86345
7	0xc1100cf8	-9.003166
8	0x40f8c78f	7.77436
9	0xc0f996f3	-7.7996764
10	0x40dbbb09	6.8665814
11	0xc0eb87f8	-7.3603477
12	0xc03ac3d9	-2.9182036
13	0x40e29730	7.0809555
14	0xbda3ee9c	-0.080044955
15	0xbfd258ca	-1.6433346
16	0x3f136332	0.57573235
17	0xc1102f0a	-9.011484
18	0x4194e10a	18.609882
19	0x40df4cac	6.9781094
20	0xc044d844	-3.0756998
21	0x3fe3c8c4	1.7795644
22	0xc090afb8	-4.52145
23	0x4106a9d5	8.416463
24	0xc124a633	-10.290576
25	0x404a87b4	3.1645327
26	0xc15ee323	-13.930453
27	0x4094f31d	4.654677
28	0xc187c210	-16.969757
29	0x40642ec7	3.565355
30	0x41544cd0	13.268753
31	0xc1490417	-12.5634985
32	0xc0ebdb70	-7.370537
33	0xc0841229	-4.127217
34	0xc0efa53d	-7.4889207
35	0x40e22e75	7.068171
36	0xc100052e	-8.001265
37	0x4107913b	8.472957
38	0xc1464d1a	-12.393824
39	0x40f4a47f	7.64508
40	0xc10fb6e2	-8.982149
41	0x40ea00a1	7.312577
42	0xbfeefb8b	-1.8670515
43	0x40739e48	3.8065357
44	0xc0238936	-2.5552497
45	0xc0d7fb7d	-6.7494493
46	0x4101c58b	8.110728
47	0xc0b4ed1f	-5.6539454
48	0xc0f42d8c	-7.63056
49	0xbf9af281	-1.2105256
50	0xbfd440f3	-1.6582321
51	0xbf5ae1b4	-0.85500646
52	0xc191497c	-18.160881
53	0x4080d058	4.0254326
54	0x410582c8	8.344429
55	0xc062a4b5	-3.541303
56	0x403f7aca	2.9918694
57	0x41052f56	8.324057
58	0x40711e3a	3.76747
59	0x41007653	8.028888
60	0x3e25f53c	0.1620683
61	0xc13b4a26	-11.705603
62	0x40856316	4.1683455
63	0xc0eb01f6	-7.3439894
64	0x418c395d	17.52801
65	0xc0a6089e	-5.188552
66	0xc1996336	-19.173443
67	0x3fd69f9f	1.6767462
68	0xc0971a79	-4.7219815
69	0xbf2d619d	-0.6772707

model.5.running_var f4 [70]
0	0x42c197e1	96.79664
1	0x42b1e21a	88.941605
2	0x42e378f8	113.73627
3	0x421e7af7	39.620083
4	0x42a6aac5	83.333534
5	0x42bc325d	94.098366
6	0x42c95857	100.67254
7	0x4284d4ba	66.41548
8	0x429225cf	73.073845
9	0x42f36c1c	121.71115
10	0x42c6fd7f	99.49511
11	0x429439e0	74.11304
12	0x42be0ccd	95.025
13	0x42a39cb3	81.80605
14	0x423bb358	46.92514
15	0x425baf5b	54.921246
16	0x421c9c0c	39.15239
17	0x42ccd5d4	102.41763
18	0x42ceabe8	103.335754
19	0x42bbaee2	93.84157
20	0x42eeb61b	119.355675
21	0x426807ca	58.007607
22	0x42d1d436	104.914474
23	0x42a95cbb	84.681114
24	0x432bd944	171.8487
25	0x43054a4e	133.29025
26	0x42ee12f8	119.03705
27	0x42b7dc36	91.9301
28	0x42a169d6	80.70671
29	0x42c6d86f	99.42272
30	0x42e563e2	114.69508
31	0x4300203c	128.12592
32	0x428c162c	70.043304
33	0x42dec05b	111.375694
34	0x429c5c91	78.18079
35	0x429b589f	77.67309
36	0x42bdf538	94.97894
37	0x42a9b148	84.84625
38	0x42afc8b4	87.892
39	0x42b169c0	88.70654
40	0x42a5a22e	82.81676
41	0x429ff011	79.96888
42	0x422b8b42	42.885994
43	0x42b07aea	88.24007
44	0x421835c7	38.052517
45	0x42cbe2f7	101.94329
46	0x42a9ef72	84.96767
47	0x429ef286	79.47368
48	0x42970483	75.50881
49	0x42752a26	61.29116
50	0x424d8638	51.381073
51	0x423526bc	45.287827
52	0x42bbcd4a	93.900955
53	0x42cf4a96	103.645676
54	0x42bffbe4	95.991974
55	0x42be4f41	95.15479
56	0x42cc511c	102.15842
57	0x42990983	76.51858
58	0x42a29c4a	81.30525
59	0x4291d76b	72.92074
60	0x4221c4ca	40.442177
61	0x42ef0495	119.50895
62	0x42e8613d	116.18992
63	0x42b75691	91.669075
64	0x42bd4754	94.63931
65	0x42a0640c	80.195404
66	0x42bad624	93.41824
67	0x425a5bce	54.589653
68	0x42c23068	97.09454
69	0x421276b7	36.615932

model.8.weight f4 [70, 70]
0	0x3ee82260	0.45338726
1	0xbecb72b4	-0.3973595
2	0x3e1173ed	0.14204378
3	0xc0889196	-4.2677717
4	0x3f8220a8	1.0166216
5	0xbf6f92e2	-0.935835
6	0xbf0ed9dc	-0.5580118
7	0x3d9bf96b	0.07615932
8	0xbe53ea7d	-0.20694919
9	0x3f5f68f6	0.8726953
10	0xbeac3075	-0.3363072
11	0xbca9b289	-0.020715015
12	0x3ee45a88	0.4460032
13	0xbcd70b06	-0.026250374
14	0xc070b0d1	-3.760792
15	0x40360c24	2.844491
16	0xc0831c45	-4.097201
17	0x3f163745	0.58678085
18	0x3cfd70b4	0.03093753
19	0xbea7c628	-0.3276837
20	0x3f797331	0.97441393
21	0xc049a14a	-3.1504693
22	0x3f16e423	0.5894186
23	0xbeec8426	-0.4619457
24	0xbda92f8f	-0.08261024
25	0xc03a4492	-2.9104352
26	0x3d1d5b5d	0.03841721
27	0xbf5d31a5	-0.86403877
28	0xbd0572ec	-0.0325803
29	0xbf563876	-0.836799
30	0x3d82350d	0.06357775
31	0xbe28a43f	-0.16468905
32	0x3e94f889	0.29095867
33	0x3f083de7	0.53219455
34	0xbc9d0972	-0.019169543
35	0xbd90909c	-0.07058832
36	0x3e37ecc0	0.17961407
37	0xbea1c305	-0.315941
38	0x3d1250b9	0.035721514
39	0xbebf1252	-0.37318665
40	0x3ed5839f	0.4170198
41	0xbe01abc2	-0.12663177
42	0x408a3ed3	4.320169
43	0xbf3fe7d5	-0.7496312
44	0x4093bb00	4.616577
45	0x3de0fafd	0.10985372
46	0xbe3b1553	-0.18269853
47	0x3e8db5f2	0.27677876
48	0x3e47a995	0.19498284
49	0x4001b42d	2.026622
50	0xc06c62d6	-3.6935325
51	0xc081219e	-4.0353537
52	0x3c7ba12d	0.0153582515
53	0xbf2cbbce	-0.6747407
54	0xbe1b5d6e	-0.1517236
55	0x3f1722db	0.5903756
56	0xbf4cb7b5	-0.79967815
57	0xbe3337a7	-0.17501698
58	0xbf096ffe	-0.5368651
59	0xbefeb5f4	-0.49748194
60	0xc089bc38	-4.304226
61	0xbcde4460	-0.027132213
62	0xbfb79c17	-1.434451
63	0x3ecf111b	0.40442738
64	0x3ca0f4d0	0.019647986
65	0x3f441668	0.7659669
66	0xba3fcb0f	-0.000731633
67	0xc054e3e0	-3.3264084
68	0x3f3a310d	0.72731096
69	0x40708692	3.7582135
70	0xbba80dcf	-0.0051285992
71	0xbde87364	-0.11350134
72	0xbe145659	-0.14486064
73	0x3e3115ba	0.17293444
74	0x3e6b191b	0.22958796
75	0x3d8930ab	0.06698736
76	0x3f201b6f	0.6254186
77	0xbeb94249	-0.36183384
78	0xbdd36411	-0.103218205
79	0x3e2ff947	0.17184936
80	0xbda5fa8e	-0.0810443
81	0xbe2df37a	-0.1698741
82	0xbe116ac0	-0.14200878
83	0xbee63f3e	-0.44970125
84	0xbe8e97e4	-0.27850258
85	0xbe59d7fd	-0.21273799
86	0x3e4c72c5	0.19965656
87	0x3e80b727	0.25139734
88	0xc0958817	-4.6728625
89	0x3d8c9bee	0.06865679
90	0x3ed5811f	0.41700074
91	0x3eb0629b	0.3445023
92	0xbe42ab8f	-0.19010757
93	0x3f04835c	0.5176294
94	0x3f18f682	0.5975114
95	0x3d204a5b	0.03913341
96	0xbe975ba9	-0.2956212
97	0x3ecbb8e7	0.39789507
98	0x40189290	2.3839455
99	0x3ee41462	0.445468
100	0xbe881d44	-0.26584828
101	0x3ed710eb	0.42005095
102	0x3e4d4559	0.20045985
103	0x3ea1e540	0.31620216
104	0xbecf6ce8	-0.40512776
105	0x3e379704	0.17928702
106	0xbe02c308	-0.12769711
107	0xbecb838b	-0.39748797
108	0xbf0a2c02	-0.539734
109	0xbe32abab	-0.17448299
110	0x3e702174	0.23450261
111	0x3e9656e1	0.29363158
112	0xbf1fcf49	-0.6242567
113	0xbcf2d634	-0.029643156
114	0x3f02bfae	0.5107373
115	0xbe7f4cc1	-0.24931623
116	0xbeb17613	-0.34660396
117	0x3d76536f	0.060138162
118	0x3d302611	0.043005053
119	0x3cc70b69	0.024297433
120	0xbd21c88c	-0.039497897
121	0x3dc0dc5a	0.09417029
122	0x409f79f2	4.983636
123	0xbec19bf5	-0.37814298
124	0xbdf84054	-0.121216446
125	0xbddb2b73	-0.10701647
126	0xbdbc9c4f	-0.09209501
127	0xbeb5af37	-0.3548524
128	0x3e9bb0b0	0.3040824
129	0xbe6f9c60	-0.23399496
130	0x3f50a9e3	0.81509227
131	0x3d61f51b	0.05516539
132	0xbe251bf0	-0.16123939
133	0xbe4503a2	-0.19239667
134	0xc089b012	-4.302743
135	0x3d0a61ec	0.03378479
136	0x403f307b	2.987334
137	0x3e7202ff	0.23633955
138	0x3e2bc57f	0.16774558
139	0xbe8c4faa	-0.2740453
140	0xbfe7197e	-1.8054655
141	0x3fa46d7e	1.2845914
142	0xbe8f7394	-0.28017867
143	0xbea298be	-0.31757158
144	0xbe475e3e	-0.19469544
145	0xbe37b68f	-0.17940734
146	0x400ffcf4	2.249814
147	0xc0005bfc	-2.0056143
148	0x4039ff08	2.9061909
149	0xc0266343	-2.5998085
150	0x4030bb00	2.7614136
151	0xc02fea27	-2.7486665
152	0xbe54941a	-0.20759621
153	0x4008f40c	2.1398954
154	0xbf1a6228	-0.60306025
155	0x3f26afa7	0.65111774
156	0xbef98873	-0.48736915
157	0xc02baaea	-2.6823068
158	0x3d96199e	0.07329105
159	0x400e5f93	2.2245834
160	0xbd29716f	-0.041367944
161	0xbf8407a7	-1.0314835
162	0xbcf4bed4	-0.02987615
163	0x40160ffb	2.3447254
164	0x3eb1345a	0.34610254
165	0xbe3d277d	-0.18472095
166	0xbc6d660f	-0.014489665
167	0x3e524bb5	0.20536692
168	0xbd9cdbea	-0.07659133
169	0x3d50ccf4	0.05097671
170	0xbe343743	-0.17599206
171	0x3e5ebafc	0.21751016
172	0xc0206ccc	-2.5066404
173	0xbd1145f8	-0.035467118
174	0xc0304723	-2.7543418
175	0x403e8376	2.9767737
176	0xbfd2b045	-1.6460043
177	0x402284a9	2.539347
178	0x3d3520fa	0.044220902
179	0x402f6905	2.740785
180	0xc0557542	-3.3352818
181	0x402ebceb	2.7302806
182	0x3f546a5d	0.829748
183	0x3e93e4e6	0.28885573
184	0x3f0c8008	0.5488286
185	0xc023570a	-2.5521874
186	0x403bf18b	2.9366176
187	0xc03fae72	-2.9950223
188	0xc04348c7	-3.051317
189	0x3f78af3b	0.9714238
190	0xbf78a12d	-0.97120935
191	0xbf0c1105	-0.5471347
192	0xbd080359	-0.033206318
193	0x3e9cd852	0.3063379
194	0x3fea2388	1.8292093
195	0xbe864afc	-0.26229084
196	0x3ddeb020	0.10873437
197	0x4048fb2a	3.1403298
198	0x3e2da87c	0.16958803
199	0x3fff771b	1.9958223
200	0xbf14bfcb	-0.5810515
201	0x3db6659e	0.08906101
202	0x3ef0a3eb	0.4700006
203	0xc02ef6ce	-2.7338138
204	0xbe5f1fe4	-0.21789509
205	0xbe9c9736	-0.30584115
206	0x3e413220	0.18866777
207	0xbf81d4c3	-1.0143055
208	0xbe456d12	-0.19279888
209	0x3f329c45	0.697697
210	0x3fe6e6af	1.8039149
211	0xc0105a78	-2.2555218
212	0x3e10dcc4	0.14146715
213	0x3e4cf532	0.2001541
214	0xbde8ad87	-0.11361223
215	0xbd9b6def	-0.075893275
216	0xbfa2e996	-1.2727535
217	0x401568e5	2.3345273
218	0xc01913d0	-2.3918343
219	0x40037d6a	2.0545297
220	0xc047a180	-3.1192322
221	0x403c2299	2.9396117
222	0x3dc94aae	0.09828697
223	0xc04e4f18	-3.2235775
224	0x3ef0380b	0.46917757
225	0xbf14622f	-0.57962316
226	0x3f1050dd	0.5637339
227	0x3fc70a6a	1.5550053
228	0xbded3c02	-0.11583711
229	0xc00d408b	-2.2070644
230	0xbe192905	-0.14957054
231	0x3f03d781	0.5150071
232	0x3e2e5546	0.17024717
233	0xc01c0c4a	-2.43825
234	0xbdc8e952	-0.09810127
235	0x3fb01c16	1.3758571
236	0x3c73fe0a	0.014892111
237	0x3bd66f23	0.0065440102
238	0x3c9f6651	0.019457968
239	0xbe8e2833	-0.27765045
240	0x3e8e84d6	0.2783572
241	0xbedb3e13	-0.42820796
242	0x40297429	2.6477149
243	0x3e4ceeb8	0.20012939
244	0x404014ad	3.001262
245	0xc07f5adf	-3.9899213
246	0x3ff94cd9	1.9476577
247	0xc045f541	-3.093094
248	0x3dfd307a	0.12362762
249	0xc00c5edf	-2.1932905
250	0x406cd0c9	3.7002432
251	0xc05be2a1	-3.4357073
252	0xbf21fcf3	-0.63276595
253	0x3ea2c4d4	0.31790793
254	0xbecec1e4	-0.40382302
255	0x3fd2b0b5	1.6460177

model.8.bias f4 [70]
0	0x40545354	3.317586
1	0xbf89fdde	-1.0780599
2	0xc0172749	-2.3617728
3	0x4051be99	3.2772582
4	0x40281eb0	2.626873
5	0x3fef6ddd	1.8705403
6	0x3fad2ae5	1.3528715
7	0xc002ca92	-2.043614
8	0x40255cc1	2.5837862
9	0xbe726a4d	-0.23673363
10	0xc0153743	-2.331498
11	0xc032f5d3	-2.796254
12	0xc00c6d88	-2.1941853
13	0xc03c00e0	-2.9375534
14	0x4061d023	3.5283287
15	0xc0091cfd	-2.1423943
16	0x3ecac4e6	0.39603347
17	0xbfad9c7b	-1.3563379
18	0x3f89fc6a	1.0780156
19	0xc055913d	-3.3369896
20	0x40261d56	2.5955405
21	0x3fc6eeb0	1.5541592
22	0x402f7652	2.7415967
23	0xbfd0d4dc	-1.631496
24	0x3fe73057	1.8061627
25	0x402d18c4	2.7046366
26	0xbfa93bf8	-1.3221426
27	0xc0705710	-3.7553139
28	0x3da3a93e	0.07991265
29	0x3d8845d5	0.066539444
30	0x3f9a7388	1.2066507
31	0xc01003fd	-2.2502434
32	0xbf84ddf3	-1.0380234
33	0xbb6be534	-0.003599477
34	0x3fd5ea16	1.6712062
35	0x3f8d29c8	1.1028376
36	0x3f9cba08	1.2244272
37	0xbf24a576	-0.64314973
38	0xc06d800c	-3.7109404
39	0x3fbef2a3	1.4917797
40	0xc00841f5	-2.1290257
41	0xbfe6199f	-1.7976569
42	0xc049c958	-3.152914
43	0xbf2af38c	-0.66777873
44	0xc06f5db6	-3.7400947
45	0x40181a69	2.376612
46	0x3ea83a85	0.32857147
47	0x3e09f0de	0.1347079
48	0x3e91d690	0.2848401
49	0xbf7555d2	-0.95834076
50	0x3f935487	1.1510171
51	0xbff5b0c7	-1.9194573
52	0x4055b53b	3.3391864
53	0xbfa0ea6e	-1.2571542
54	0xbf41972f	-0.7562131
55	0x409f8e83	4.9861465
56	0x4051365d	3.268943
57	0x3f4ef1c5	0.8083766
58	0xbf801fd4	-1.0009713
59	0xbeabf031	-0.3358169
60	0x3f708732	0.9395629
61	0x4043c272	3.058743
62	0x3dd83966	0.10557823
63	0x3fd41349	1.6568385
64	0xc072e370	-3.7951317
65	0x40340c22	2.8132405
66	0x3ff6bf35	1.9277102
67	0x3f676048	0.9038129
68	0xbdd67a4c	-0.10472545
69	0xbfcc57de	-1.5964315

model.9.weight f4 [70]
0	0x3e2bdb76	0.16782936
1	0x3fccd9f7	1.6004018
2	0x3dda8cb5	0.10671369
3	0x3e0674e7	0.13130532
4	0x3de05c90	0.10955155
5	0x3e1403d1	0.14454581
6	0x3e11eb46	0.14249906
7	0x3e2de816	0.16983065
8	0x3df58f8b	0.11990269
9	0x3e216b12	0.157635
10	0x3dc8b872	0.09800805
11	0x40b78f00	5.736206
12	0x3e359ab8	0.17734802
13	0x3df0f83a	0.117660955
14	0x3dfe2266	0.12408905
15	0x3e0ad742	0.13558677
16	0x40c24394	6.0707493
17	0x3f93d193	1.1548332
18	0x3df55915	0.11979882
19	0x3e0c1900	0.13681412
20	0x3dcdf1e9	0.10055906
21	0x3de4a4dc	0.11164257
22	0x3dcfacbb	0.101403676
23	0x3ddf1c0c	0.108940214
24	0x3f886cd7	1.0658215
25	0x3e24a053	0.16076784
26	0x3e7db7bb	0.24777119
27	0x3dcfadde	0.101405844
28	0x3ddcc38d	0.10779486
29	0x3e090a79	0.13382901
30	0x3ee17c49	0.44040135
31	0x3e3c54e9	0.18391766
32	0x3e049185	0.12946136
33	0x3fdfa9e0	1.7473717
34	0x3fae4b2f	1.3616694
35	0x3e2c22d8	0.16810167
36	0x3dfeca06	0.12440877
37	0x3e4ce36f	0.20008634
38	0x3e093546	0.13399228
39	0x402f46ed	2.738704
40	0x3df18a36	0.1179394
41	0x3e1fa716	0.15591082
42	0x3df13118	0.11776942
43	0x3f7be321	0.98393446
44	0x3de14d7e	0.110011086
45	0x3dfe16af	0.1240667
46	0x3e2b6abd	0.16739936
47	0x3f697f09	0.91209465
48	0x3fb3f90c	1.4060378
49	0x402282e6	2.5392394
50	0x3f214374	0.6299355
51	0x3e19aa13	0.15006284
52	0x3dcb828a	0.09937008
53	0x401e1a1d	2.4703438
54	0x3e2db134	0.16962129
55	0x4022b83e	2.5424953
56	0x3ddb7301	0.10715295
57	0x3fa46708	1.2843943
58	0x3fd61e7c	1.6728053
59	0x3e58cda3	0.21172194
60	0x3f240304	0.640671
61	0x3df50c36	0.1196522
62	0x3f87364a	1.0563443
63	0x3e1b2b54	0.15153247
64	0x3ddb3633	0.10703697
65	0x3de56ed9	0.11202783
66	0x3de4661c	0.11152288
67	0x3e8de65c	0.27714813
68	0x3e165cd6	0.14683852
69	0x3dce467d	0.10072038

model.9.bias f4 [70]
0	0xbd411f75	-0.04714914
1	0xc09c92fd	-4.892943
2	0x3e0f9116	0.1402019
3	0xbdf6bb71	-0.1204747
4	0xbdcd893d	-0.10035942
5	0xbd89652d	-0.06708751
6	0xbc2f2114	-0.010689039
7	0x3d581b81	0.052760605
8	0xbe135f32	-0.14391783
9	0x3da92b1f	0.08260178
10	0x3db9ffe2	0.09082009
11	0xc031d8cb	-2.778857
12	0x3d02d1d7	0.0319384
13	0x3e13703c	0.14398283
14	0xbe21b1c5	-0.1579047
15	0x3d4c78a9	0.049919758
16	0x3e270f23	0.16314368
17	0x3fcbedab	1.5931906
18	0xbdb2b225	-0.087253846
19	0x3e14bf8b	0.14526193
20	0xbd9c74e6	-0.07639484
21	0xbe1902a0	-0.14942408
22	0xbe11bf7b	-0.142332
23	0x3dcb0c4f	0.09914457
24	0xc01359b9	-2.3023512
25	0xbd5e714e	-0.054307275
26	0x3c5bbdf2	0.013411986
27	0x3ddd83ba	0.108161405
28	0xbdb04897	-0.086075954
29	0x3cd01598	0.025400922
30	0x3e8dadb9	0.27671602
31	0x3d3701b9	0.044679377
32	0x3e09e56c	0.13466424
33	0x40ab5956	5.3546553
34	0xc056fcc9	-3.3591788
35	0xbe491b1a	-0.19639245
36	0x3d75caa0	0.06000769
37	0x3dce98cf	0.1008774
38	0x3dfa9f66	0.12237434
39	0x40562520	3.346016
40	0x3c60d942	0.013723673
41	0x3cce77e0	0.025203645
42	0x3dfd29ef	0.12361514
43	0x400bc22d	2.1837265
44	0x3df6e090	0.12054551
45	0xbe19edac	-0.15032071
46	0xbd555daf	-0.052091297
47	0xbf9fcaaf	-1.2483729
48	0xc081e68f	-4.0593944
49	0xc00ffbd4	-2.2497454
50	0xbfb46a9c	-1.4095035
51	0x3c5aac73	0.013346779
52	0xbdf085e6	-0.11744289
53	0xc04d72f5	-3.2101414
54	0x3da27e3f	0.07934236
55	0x4020fa9b	2.5152957
56	0xbe0952f6	-0.13410553
57	0xc0647a4a	-3.569964
58	0x404c84c1	3.1956027
59	0xbdf66ca2	-0.12032439
60	0x3f8275e0	1.0192223
61	0xbe14328d	-0.14472409
62	0xbfc3c2f7	-1.5293874
63	0xbd23f96a	-0.04003278
64	0x3e2713c4	0.16316134
65	0xbdf88173	-0.121340655
66	0xbdd56552	-0.10419716
67	0x3e9f5eff	0.31127164
68	0xbcfa8860	-0.030582607
69	0x3d41d7a4	0.04732479

model.9.running_mean f4 [70]
0	0xbf8218a8	-1.0163774
1	0xc1949bdc	-18.576103
2	0x410cb712	8.794695
3	0xc10a5fed	-8.648419
4	0xc0e16900	-7.0440674
5	0xbfdff86c	-1.7497687
6	0xc0826407	-4.0747104
7	0x40f4d15f	7.650558
8	0xc11b3e7c	-9.702755
9	0x410aefa6	8.683508
10	0x40f21393	7.5648894
11	0xc0f9a2ac	-7.8011074
12	0x40dd21fe	6.9103994
13	0x410eae82	8.917604
14	0xc106a0ee	-8.414289
15	0x400b13f0	2.173092
16	0xbeb34fe6	-0.35021895
17	0x40e3597f	7.104675
18	0xc0e9b353	-7.30314
19	0x41036ef0	8.214584
20	0xc0a8ef8b	-5.279241
21	0xc118eeba	-9.558283
22	0xc115afe1	-9.355439
23	0x410abf58	8.671715
24	0xc15260c2	-13.1486225
25	0xbfc30c43	-1.5238117
26	0x41591fc3	13.570254
27	0x40cb9fff	6.363281
28	0xc0fc8a19	-7.8918576
29	0x4085849e	4.1724386
30	0x4141eecd	12.120801
31	0x402b1374	2.6730623
32	0x4132d6b6	11.17742
33	0x418a7903	17.309088
34	0xc184eeae	-16.616543
35	0xc1672a44	-14.447819
36	0x3f135c67	0.5756287
37	0x41756140	15.336243
38	0x410a052a	8.626261
39	0x4151eefd	13.120847
40	0x402e0211	2.7188761
41	0x403aab3a	2.9167008
42	0x410c628b	8.774058
43	0x4160f2e6	14.059301
44	0x41001dd5	8.007283
45	0xc1151b7f	-9.319213
46	0xc07cbbd4	-3.948964
47	0xc0b4e3e8	-5.6528206
48	0xc1b51b83	-22.638433
49	0xc11f94c5	-9.973821
50	0xc1063829	-8.388711
51	0x40242ceb	2.5652416
52	0xc102360b	-8.138194
53	0xc13bcff0	-11.738266
54	0xbfaf63b2	-1.37023
55	0x417b91ee	15.723127
56	0xc0f82900	-7.755005
57	0xc18ea3b1	-17.829927
58	0x4170ff30	15.062302
59	0xc106d029	-8.42582
60	0x406151da	3.5206208
61	0xc10bc686	-8.735968
62	0xc0fd92b1	-7.9241567
63	0xc01ffa1d	-2.4996407
64	0x4107d80c	8.490246
65	0xc10d7811	-8.841813
66	0xc10fcf11	-8.988053
67	0xc11597a1	-9.349519
68	0x400e1cbf	2.2205045
69	0x40c0f24a	6.0295763

model.9.running_var f4 [70]
0	0x427cd1c8	63.204865
1	0x42572f7f	53.796383
2	0x429d7b5a	78.74092
3	0x42c792ff	99.7871
4	0x42dc8c0f	110.27355
5	0x424591b2	49.39228
6	0x42cb1310	101.53723
7	0x42d0dc27	104.429985
8	0x42cc7f91	102.24915
9	0x4303f8e0	131.97217
10	0x42f8aaa9	124.33332
11	0x41a29a1f	20.325254
12	0x42f7eb03	123.95901
13	0x42d06094	104.18863
14	0x42b06f79	88.21772
15	0x4285512c	66.65854
16	0x41fb5d97	31.420698
17	0x429abe8a	77.37215
18	0x431e00ef	158.00365
19	0x42b8159f	92.04223
20	0x4309ad3e	137.67673
21	0x42c38cbb	97.774864
22	0x42d2c24f	105.37951
23	0x42ecee7c	118.46579
24	0x4306fff8	134.99988
25	0x42762a1e	61.54113
26	0x4199a9e3	19.207952
27	0x42e872b2	116.224014
28	0x43199eaa	153.61978
29	0x42dae694	109.45035
30	0x41958881	18.691652
31	0x428335dc	65.605194
32	0x42bf46b7	95.638115
33	0x4259a3ce	54.409966
34	0x4284ebf2	66.46083
35	0x42426fc0	48.60913
36	0x42eab80d	117.359474
37	0x41f19265	30.196482
38	0x42cb62b4	101.69278
39	0x424be635	50.97481
40	0x42e6def8	115.435486
41	0x4277ea46	61.978783
42	0x42bf9bb9	95.804146
43	0x430dc0f9	141.7538
44	0x42e6349f	115.102776
45	0x42c6ccab	99.39974
46	0x42d55759	106.6706
47	0x42ce883e	103.2661
48	0x42ab7126	85.72099
49	0x41e01fc8	28.015518
50	0x4329f07c	169.93939
51	0x42979e6b	75.80941
52	0x42e11424	112.53934
53	0x42224fc0	40.57788
54	0x43035381	131.32619
55	0x415607ce	13.376905
56	0x42c45bee	98.17955
57	0x42a56ac4	82.70853
58	0x42cb649e	101.69652
59	0x420c0a53	35.010082
60	0x4313972b	147.5905
61	0x42a1ad67	80.83868
62	0x42b41d6b	90.05746
63	0x428467d2	66.202774
64	0x42c59feb	98.81234
65	0x42be74fe	95.2285
66	0x42ddf63e	110.98094
67	0x4304e278	132.88464
68	0x42e919e1	116.550545
69	0x431cea28	156.91467
