result/last_model_fun3.pth (torch, 43629 bytes, 7 tensors)

model.0.weight f4 [70, 2]
00000000: ff8d 4a41 2e2f af3d a9ea c8be f36c 82bb
00000010: 4655 bcbe 9d1a c6bb 8db5 0a3f 7154 7b3b
00000020: 5c09 0ac0 3ae0 f0bc 50d9 14bf 78a1 67bc
00000030: cb8e d53e 3e42 8c3c 5a9c 8d3f 0959 b83b
00000040: 926a 85bf 7857 dabc ea91 06c1 0c81 8fc1
00000050: 87d4 1ebf c0c3 9cbb 7da0 ce40 ca58 6a3d
00000060: 6b2e bd3e aebb ee3a b437 c340 685e 983d
00000070: 13ab 683f 1221 0a3c 19d8 b93e 68da 0f3b
00000080: 5934 f539 0789 b8ba 868d a23e db7f f33b
00000090: 161d 3d39 83d5 ba3a 8e37 2540 0550 1f3c
000000a0: 8ff1 8ebe aab4 89bc 85c1 d63e aaa7 693c
000000b0: f329 5fba c016 a93a 372d 9ebf 9bc5 2238
000000c0: 812c 923f 39d4 843c 5ef6 1ac0 c87e 63bc
000000d0: a593 903e 551a 9c3c 0517 f7bf f96d 9dbc
000000e0: a3d5 c4bf e202 983b 1bd9 b2bf e841 d9bc
000000f0: 9743 95be e135 5abc 72e9 ea3e 5f22 103b
00000100: 8270 0f40 6d31 943d ffdb a8be 3933 69bc
00000110: 0152 83ba 66c5 db3a 3a96 cabe 2fd6 96bb
00000120: 6eed ea3e 47a0 be3c c9d5 d8be d435 a5bc
00000130: 1a99 c1be e900 c3ba 44e5 0c41 7283 8c41
00000140: aebc c4c0 2be9 acbd 7be6 c8bf d54e adbc
00000150: 3539 2c3f 728b 8f3a cd0b 2641 9e5b 7241
00000160: 45c7 b6be 9e8e 2dbb 87cf babe b70d 2fbb
00000170: 4094 463b 7a79 88ba dd24 6240 8e56 d63c
00000180: 2c5f 39b9 87d8 a93a 2df3 3fb8 34dd 7339
00000190: e302 da3e ba2b 0e3c 2802 01bf d1cf 8fbb
000001a0: 7c13 5fbf 23fd 0ebb d614 6b40 abda 643d
000001b0: 3963 683e 13b2 143e f73e 3440 0b30 823d
000001c0: 13d1 143f f81b a63c 1f54 203f 775b 913c
000001d0: 9910 02c1 925b 26c1 7523 a7be 4150 f2bb
000001e0: 7426 253a 2bbb 99ba 01cf d4b9 96f7 97ba
000001f0: a4b1 b4ba 9aee 003b e7ca 28c1 608f 8ec1
00000200: 2ba8 c0c1 fc59 a5be 6ac4 a83e f762 103c
00000210: b395 b3be 3dda d2bb 6580 8940 d017 493d
00000220: b252 adbe ea7a 65bc 109e e83a f0ba 13bb
12.659667 0.08553921 -0.39241531 -0.003980273 -0.36783808 -0.006045653 0.54183275 0.0038349892
-2.1568213 -0.029403795 -0.5814409 -0.014137618 0.41710505 0.01712143 1.106334 0.005625848
-1.0423148 -0.026653036 -8.410624 -17.938011 -0.6204304 -0.0047840774 6.457091 0.057213582
0.36949477 0.0018213892 6.1005497 0.074398816 0.9088604 0.008430736 0.36297682 0.0021950249
0.00046769044 -0.0014078923 0.317486 0.007431013 0.0001803528 0.0014254305 2.5815158 0.009723668
-0.2791867 -0.01680978 0.4194452 0.014261166 -0.0008513026 0.0012900457 -1.2357548 3.8807844e-05
1.1419832 0.016214477 -2.421287 -0.0138852075 0.28237644 0.019055525 -1.93039 -0.019217478
-1.5377697 0.0046390155 -1.3972505 -0.026520684 -0.2915313 -0.01331851 0.4588123 0.0021993143
2.241242 0.0723599 -0.32980344 -0.014233404 -0.0010018946 0.0016767203 -0.3956774 -0.0046031694
0.4588427 0.023269786 -0.42350605 -0.020167269 -0.3781212 -0.0014877591 8.805973 17.564182
-6.148032 -0.08442911 -1.5695337 -0.021155754 0.6727479 0.0010951592 10.377881 15.1473675
-0.35698906 -0.0026482712 -0.36486456 -0.0026711056 0.0030300766 -0.0010412179 3.5335 0.02616432
-0.00017678429 0.0012958207 -4.5764424e-05 0.0002325669 0.42580327 0.008677417 -0.50393915 -0.0043887873
-0.87139106 -0.0021818362 3.6731467 0.0558726 0.226941 0.14521055 2.816343 0.0635682
0.5813152 0.020277008 0.6262836 0.01774381 -8.129052 -10.397356 -0.3264424 -0.007394821
0.00062999805 -0.0011728754 -0.0004059002 -0.0011594172 -0.0013785851 0.0019673468 -10.549537 -17.820007
-24.082113 -0.32295215 0.32962352 0.008812658 -0.3507515 -0.0064347074 4.296923 0.049094975
-0.33852154 -0.014006356 0.0017747302 -0.0022541843

model.0.bias f4 [70]
00000000: dec9 94bf ee8d 4240 97ee de3f 7362 f2bf
00000010: bf01 a53f b687 c23f 5e1b 60bf a7c1 11bf
00000020: e2c1 8c3f e7cf 06c0 5c16 b13f a07c 843f
00000030: caea 23c0 a462 d13f 74c5 e7bf 320d 1cc0
00000040: e39d 80b8 47c3 f9bf 40a0 183b a960 9fbf
00000050: 832a 783f f871 45bf 5f51 533a b17e fa3f
00000060: 95b4 edbf 57eb 523f 545e d7bf aeec 653f
00000070: d6fe 853f bd78 103f 3ac7 533f 4b4c e0bf
00000080: 2404 0f40 4e76 f83f 752e 53bb fcd4 4a40
00000090: 83f5 9fbf 1d4d 7f3f 168d 3140 162a 0340
000000a0: 5ff8 923e 8da8 873e 7d32 29c0 117e 7c40
000000b0: 5729 1340 bace 2340 ab83 44bc e64a f8be
000000c0: 7581 2ebb 2a77 1bbb 57c6 edbf b21c a43f
000000d0: a1aa 1740 301f bc3f adef e23f ee52 f73f
000000e0: fb2f 71bf 5180 46bf 68ef bfc0 e933 863f
000000f0: 47c6 70bb 7117 893b 1bd4 2fbb 1d70 80bf
00000100: c6c3 0c3e 34fe 56bf b725 1740 4f01 863f
00000110: 5a27 663f 051e e9bb
-1.1624105 3.0399127 1.7416562 -1.8936294 1.2891158 1.5197666 -0.8754176 -0.56936115
1.0996668 -2.1064394 1.3834949 1.0350533 -2.5612054 1.6358228 -1.8107133 -2.4383054
-6.132924e-05 -1.9512719 0.0023288876 -1.2451373 0.9693987 -0.7712703 0.00080611365 1.9569913
-1.8570734 0.8239035 -1.6825662 0.8981427 1.0468395 0.5643423 0.8272587 -1.7523283
2.2346277 1.9411104 -0.0032223735 3.1692495 -1.2496799 0.9972704 2.7742362 2.0494437
0.28705117 0.26495782 -2.6437066 3.9451945 2.2993982 2.5594926 -0.011994283 -0.48494643
-0.0026627455 -0.002372215 -1.8576154 1.2821257 2.3697894 1.4697018 1.7729393 1.9322183
-0.9421384 -0.77539545 -5.9979744 1.0484592 -0.0036739276 0.0041837026 -0.0026829306 -1.0034214
0.13746557 -0.83981633 2.361677 1.0469149 0.89903796 -0.0071141743

model.2.weight f4 [70, 70]
00000000: 76a5 d2be 1331 5ec0 6863 ffbe 58b6 8e3d
00000010: d9e3 3b3e 5dd8 debd e565 dcbe 670f 7dbe
00000020: dd5c db3d f4ce f43e 2721 89bc 9aa6 8bbe
00000030: 1735 0540 bf43 aabe b8d5 8f3c 3c99 d03f
00000040: 8f6f c3bb 14b8 3c3f 36f9 213d 3358 7bbe
00000050: 5171 5f3d 70ce e1be a15a b03b 7931 243e
00000060: 3755 b5be bbdd dc3e 34e8 433e 4f4b 553e
00000070: aa8a b23e 7cd8 fe3e dadf 513d 2074 a93e
00000080: 246a 89be ea2b 4dbf 950e b63b 5726 1dc0
00000090: 7520 2fbd 30be 0e3e f0e2 0fc0 2c5a 01bf
000000a0: e584 823e 403f 633e c086 b43e 7f46 74be
000000b0: 01d3 b4bf 0351 edbf d138 26bd 7f10 b8be
000000c0: e984 58bb 5495 6339 2515 fa3e 86e2 ffbb
000000d0: 35c5 94bd 444e 85be 9186 b1be 4955 a2be
000000e0: d26c b0be e55b 92bc fd74 9d3e 3fb1 7e3d
000000f0: 7475 98bc dd69 40ba 55f4 ba3b 0189 c03e
00000100: c578 ad3e e31d 08bf 5ee2 a7bf 23ce 78be
00000110: a2de 7f3e bc4d 2abd f98c 1ebf 8290 0ebf
00000120: 5a09 aebe a9ff e13e cc57 023f ee7a 23be
00000130: dbe5 adbe 0658 5bbf 0195 133e 5a11 0a3f
00000140: 5aad 3cbe 1f2f 42bf d352 9e3e ae15 4bbf
00000150: 0336 a73e 78ec 813e 4849 25bf 57ac ca3e
00000160: d954 89be 07b0 3ebf c3b6 07be 0b5e 97be
00000170: c2b3 85be 2c91 c1be 36ec 9ebe 0e8f 023f
00000180: 5783 66be 105d 063f d1b6 ba3e c76e 013f
00000190: 5dde 9f3e 78d1 593e 3a50 4cbf 7253 cfbe
000001a0: 6b9d 983e 0d2a 1abf d7e6 c83e 24fc 96be
000001b0: 8dad 24bf 0355 31bf d001 6d3f 82de 6c3f
000001c0: 5c24 973e 190c 3cbf 506d d7be 75e4 eebe
000001d0: d516 83be 4c0a 6dbf 8416 b4be a9a7 bcbe
000001e0: ecdd c33e 7e41 2ebe c61a 8fbe 8878 33bf
000001f0: f970 58bf c34c 41bf a1bc f2be cc9d 543e
00000200: 785a 5d3f 93e1 4dbe 73bb 0f3e e116 33be
00000210: 800e 2bbe eca8 123f 8ed7 493f 529c 8bbe
00000220: 877c f93c 2803 4bbf 467d a53e a3e5 2a3e
00000230: 17c9 9dbf 46e6 e1be cc55 debe 922a 003f
00000240: d9e8 3f3f 71c4 dbbe 1e54 a0be e774 d3be
00000250: c6c5 653f a483 b43e 8157 e3bd ce98 43bf
00000260: 3314 fb3e 5e46 41bf 4e00 c23e 8c50 a53e
00000270: 8c50 043f 1c0c b73e 6a6a 423d 5cc8 c9bf
00000280: 0d76 20bd 0ce4 3bbe e0ad d7be 7695 5bbe
00000290: e66e e53d 27f6 533f 02ee 493e 9a4f 493f
000002a0: 06a2 123f 9f83 0c3f 49bf 0cbe f20d e73e
000002b0: 1913 1fbf 3d77 d6be fcc4 353f 82fe babe
000002c0: 640b a53e c64e bebd 58b6 9fbe 1197 18bf
000002d0: c22a db3f 276e b73f 4452 ae3e 5253 29bf
000002e0: a4cd adbe a654 cbbe c723 d2bd 08f8 bfbf
000002f0: ab32 ff3e 9bfd 4cbe 287f 9c3e 0446 02be
00000300: 617f f3be c47b 2abf cc91 2dbf 09bb 30bf
00000310: fc48 93bf 22ef 833d ffb0 1e3f 4ce0 87be
00000320: 2826 603e b07a 053f af2c 063e 4c34 ad3e
00000330: af7d 493f eb49 003f 429c d9bd 8030 4bbf
00000340: e19d 39bc c0ba f6bd 3d68 00bf 7f49 adbe
00000350: e9cf c2be 27f4 d33e aab8 dd3e 3291 90be
00000360: fdc6 12be 6fdf 3cbf 52f4 3e3f 37ee d13e
00000370: 044a 81be 539f 1bbf ecb5 b93e e441 1bbf
00000380: 2f26 7e3e abc5 a73e 826c 24bf 770c cc3e
00000390: c7fb ccbd c980 63bf aaf3 69be 229c 12bf
000003a0: 2c75 bebe d9d9 5abe 7bcc 7dbe bedd df3e
000003b0: cbd4 9fbd 2c48 0e3f cd76 453e 80be 963e
000003c0: 6701 f73d 4188 ba3e e34c 2ebf 2947 a0be
000003d0: 33d9 413e ec5a bcbe 5d0a 173f 6111 58be
000003e0: c101 8dbe cd2f ecbe 5660 7a3f 1178 613f
000003f0: 6a1f ef3e f8a9 08bf 866a 94be a2e9 93be
-0.41141862 -3.4717453 -0.49880528 0.06968373 0.18348636 -0.10881112 -0.4304649 -0.24712907
0.10711072 0.47814143 -0.016739441 -0.27275544 2.0813653 -0.3325481 0.017557964 1.6296763
-0.0059642266 0.7371838 0.039544307 -0.24545364 0.054551426 -0.44102812 0.0053818976 0.16034497
-0.35416576 0.43137917 0.19131547 0.20829509 0.34871417 0.4977454 0.051238872 0.3309641
-0.2683879 -0.8014513 0.0055559375 -2.455465 -0.042755563 0.13939738 -2.2482262 -0.50528216
0.25492015 0.22192097 0.35259056 -0.23855017 -1.4126893 -1.8540348 -0.040581528 -0.35950086
-0.0033038205 0.00021704036 0.48844257 -0.007808986 -0.07264177 -0.26036274 -0.3467298 -0.31705692
-0.34458023 -0.017866084 0.30753317 0.062180754 -0.018610694 -0.00073399936 0.005705396 0.37604526
0.33881202 -0.53170604 -1.3115957 -0.24297385 0.24987271 -0.04157804 -0.6193386 -0.5568925
-0.3399151 0.44140366 0.5091522 -0.15964863 -0.33964428 -0.8568119 0.14412309 0.53932726
-0.18425503 -0.7585315 0.30922565 -0.79329956 0.32658395 0.25375724 -0.64564943 0.3958461
-0.26822546 -0.74487346 -0.13253312 -0.29563937 -0.26113707 -0.3780607 -0.3103959 0.50999534
-0.2251104 0.5248575 0.36467603 0.5055966 0.31224337 0.21271312 -0.79809916 -0.4049335
0.298076 -0.60220414 0.39238617 -0.29489243 -0.6432732 -0.6927034 0.9258089 0.9252702
0.29519928 -0.7345596 -0.42075586 -0.46658674 -0.25603357 -0.92593837 -0.35173428 -0.36846665
0.3825525 -0.17017171 -0.27950114 -0.7010579 -0.8454738 -0.75507754 -0.47409537 0.2076332
0.8646617 -0.20105581 0.1403635 -0.17489196 -0.1670475 0.57289004 0.78844535 -0.272677
0.030454887 -0.7930169 0.3232214 0.16689162 -1.2326993 -0.44120997 -0.43424833 0.5006496
0.7496467 -0.4292331 -0.31314176 -0.41300127 0.89754903 0.35256684 -0.111006744 -0.76405036
0.49038848 -0.75497997 0.37890857 0.32288015 0.51685405 0.35751426 0.047464766 -1.576427
-0.039175082 -0.18348712 -0.42124844 -0.21443734 0.11202793 0.82797474 0.19719699 0.7863709
0.5727848 0.5488834 -0.13744844 0.45127827 -0.62138516 -0.41887847 0.710037 -0.365223
0.32235253 -0.092923686 -0.31193805 -0.5960551 1.7122424 1.4330491 0.3404714 -0.6614276
-0.33945954 -0.3971302 -0.1026073 -1.4997568 0.49843344 -0.20018618 0.30565763 -0.12722021
-0.4755812 -0.665951 -0.67800593 -0.69035393 -1.1506648 0.06442095 0.61988825 -0.26538312
0.21889555 0.5214033 0.13102983 0.33828962 0.787074 0.5011279 -0.10625507 -0.7937088
-0.011329145 -0.120473385 -0.50159055 -0.33845136 -0.38049248 0.4139721 0.4330495 -0.28235775
-0.1433372 -0.7377843 0.74591553 0.41002056 -0.25251782 -0.60789984 0.36271608 -0.60647416
0.24819253 0.32767996 -0.6422807 0.3985326 -0.1000896 -0.88868386 -0.22846857 -0.5726949
-0.3719877 -0.21372165 -0.24785034 0.43723863 -0.07804259 0.55578876 0.192836 0.29442215
0.12060814 0.36432078 -0.6808607 -0.3130429 0.18930511 -0.36788118 0.5900019 -0.2110038
-0.275404 -0.4613022 0.97803247 0.8807383 0.46703655 -0.5338435 -0.2898752 -0.28889185

model.2.bias f4 [70]
00000000: 2b36 e1be 8113 29bf 80ae 0cbf 351c 16bf
00000010: ea65 34bf 3894 b6bf 8db0 56be 8484 513e
00000020: b635 14bf 003f aabe bac7 fcbe bb57 89bd
00000030: dcbb 27bd 0fc7 293f b7e7 043f 31e2 1fbf
00000040: 53d7 febe a216 2b3f bdd8 46bf 34ef 18bf
00000050: 5227 0abf 7f3b 213f 25ac 24bf 255d fd3e
00000060: a12a 1cbf 85c3 053f cd55 403d 3ad7 1ebf
00000070: 1a24 14be 88a1 0b3f cfbe 93bd 1cc2 48bf
00000080: 0bc0 f63e bd7e 8fbd 547c 2b3f 36f3 35bf
00000090: 63cb 233f 44c9 333e b136 683f 335e 403f
000000a0: 446e 14bf 20ab 06be 925e 373f 460a 1f3f
000000b0: d2f0 5ebf 6600 213f 45d0 ae3e 55fa b33e
000000c0: c161 873f a499 223f dd87 26bf 59e9 203f
000000d0: 5862 1c3f 5238 ebbe 08e6 1c3f aad9 f33e
000000e0: d425 3fbf 6cb6 1abf 5796 d53d 6560 44bf
000000f0: 9a7d a13e f1a4 1cbf 4b9b 53bf 6784 63be
00000100: 1c18 203f 1982 1cbf 4edc 023d 224b 513e
00000110: d2b2 0ebf 0d78 d73e
-0.4398664 -0.66045386 -0.54953766 -0.5863679 -0.7046801 -1.4263983 -0.20965786 0.20460707
-0.57894456 -0.3325119 -0.4937113 -0.067061864 -0.04095064 0.66319364 0.5191607 -0.62454516
-0.49773654 0.6683141 -0.77674466 -0.59739995 -0.5396625 0.6298141 -0.6432517 0.49485126
-0.61002547 0.52251464 0.046956826 -0.6204716 -0.14466897 0.5454335 -0.07214128 -0.7842119
0.48193392 -0.07006595 0.66986585 -0.71074235 0.6398222 0.17557245 0.9070845 0.75143737
-0.5798075 -0.13151217 0.7162868 0.6212505 -0.8708621 0.6289123 0.34143272 0.35151926
1.0576707 0.63515687 -0.6505106 0.6285606 0.6108756 -0.45941406 0.612885 0.47627002
-0.74667096 -0.60434604 0.10429066 -0.76709586 0.3154114 -0.6118918 -0.82658833 -0.22218476
0.6253679 -0.61136013 0.03194838 0.20438817 -0.5574161 0.4208378

model.4.weight f4 [70, 70]
00000000: c265 5a3e abb0 29be e1f5 453e 1360 8e3e
00000010: 77e8 37be be45 92bd 4379 cd3d 55e1 313f
00000020: 782b c5be 2d36 043d 71b6 733e 4f33 19be
00000030: 5b2c debf a7ff dc3e b863 93bd 739a 7c3e
00000040: c04e 8cbe 2d97 d7bd b449 7f3e bab2 803e
00000050: e74f 88be 85bc 4a3e 0b62 4b3e c674 2a3e
00000060: b1fe 51be b473 43be dd90 52bf 543f 29be
00000070: 5f41 aa3f b81a 45bd fc20 97bf 16b7 e1bd
00000080: afb6 07be c085 cf3f ecd2 11be be03 9fbe
00000090: f212 1dbe 35fa bb3e 4774 cebd 7547 553e
000000a0: 4da7 96be 590c 233f 6620 9bbe 6497 b43e
000000b0: de29 3c3e f598 e1bd 92bd a43b accd 5fbe
000000c0: 8689 f1bd dda7 a93b cd05 3b3e 0ee9 bf3e
000000d0: 79a5 ed3c 1a6e 84be 7234 edbd 69eb 25be
000000e0: 213d 973d 5cbd 37be 2b13 db3e c1df 95be
000000f0: e834 9fbe bab2 59be 6b78 c7be aa6e 933e
00000100: b521 8cbe 6256 c3be 0f80 9b3e 08cb fc3c
00000110: 7ab4 7cbe 74dd 6fbd dfaf cb38 63b1 d1be
00000120: e72e 343d c92b 08be 5cb8 04bf 2aab 7f3e
00000130: b455 52be a2bc 3c3d a13a f1be ce67 15bd
00000140: cb42 52bb 610a ab3d 7c4f a83d 2a93 fdbd
00000150: e1d0 e23d 6d38 893d 5452 d6be cb1e d03e
00000160: 9b4e f1bd 7e14 173d e11d e4be 7fce f03e
00000170: 825d 16bd e569 a83e 58d1 05bf 8d53 083e
00000180: 0abf 9f3d 4014 f5be bafa 22be 508d f93c
00000190: f293 c33d 419b babe 8038 213e b0e8 4fbe
000001a0: 04dd d2bd 0565 e3be 3e72 87bc 1457 0cbe
000001b0: 822f 49bd 37d4 b43e 78e1 ebbe 33d5 873c
000001c0: 3309 debd 60f1 ac3e 1df0 ef3c ed38 f3bb
000001d0: 93c0 aa3d 9ec9 19bd e97a 4a3e 2cb7 ed3e
000001e0: 62a6 5ebe 9bca 013f a490 053f 7576 dc3d
000001f0: 0c5e 09bd c9f8 0abe 4b78 953c d1e5 04bf
00000200: 7876 3dbe 328b d1be 7873 a4bc 2f1d 05bf
00000210: 2e9a 05bf f7bd 9cbd fda3 a83d decd b6be
00000220: 1ca7 38be fe05 f5bd b8f1 d8be 6407 ad3d
00000230: 9561 e9bd 243d 143f 993b 8b3c 58dd 2f3d
00000240: 7ed8 193f be92 f4bd 8053 043e 5688 78bd
00000250: 8742 0f3f e564 833d 00e8 b73c a82b ec3d
00000260: 0fc9 3c3c 1b5c 96bd 4a4f d83c 8b58 d3bd
00000270: 8563 fc3e f175 63bf 79f6 993d 7779 4f3c
00000280: 77e4 113f 5dca 03bf 3795 a03d fe5e fdbe
00000290: 32d1 253f 1958 1bbe 08d7 42bd 9f70 103f
000002a0: 0b77 f9ba 7dbc 28be 8fda 763c 2b02 733f
000002b0: 8935 13be 48aa b4ba 2d2e 8a3d 21be 143f
000002c0: f476 d6bd 44bf f53d adac 79bd f15e 22bf
000002d0: 9417 1f3f b842 c63d 3ef6 1b3d a7ae 0cbf
000002e0: 2dfd 223e 9f5f fbbd 84b3 db3b 867e a6bc
000002f0: 5d64 77be 8f37 65bf 46a9 673e 8af3 1ebf
00000300: 7704 5abf 7c97 e8bd ce27 afbd 856e e03d
00000310: 22d7 003d 1514 e53e 7e31 153d 45f4 f43e
00000320: 3dc4 b9bd 8cad 263f 7433 cb3e 37e6 8c3d
00000330: 360c 0abe 95ae 233f c858 81bd 7dd4 1abe
00000340: 9d9a 0d3f 009b d93d 5de7 6ebc 6baa e5be
00000350: 21e5 12bd a444 c0bd 897e bbbe 5d5b 913e
00000360: 5038 f3bd d77c e0bb 6625 c0be d7be d7bd
00000370: 4ba0 583d 84f5 6a3d 0568 0a3e 7ebd 45be
00000380: d06b f53d ae31 933d 9e79 a7be c067 d33e
00000390: d864 3abc 613f 3dbe 35cc f2be 46ce c93e
000003a0: 612c d83d 1608 dd3e cd91 04bf 8ef9 c23d
000003b0: d438 853b 3518 ffbe 1ac3 3cbe 6b14 7e3e
000003c0: a67b d03b 0778 ccbe df93 1b3d ba89 143d
000003d0: b505 ad3d 7be3 ccbe a049 a13c f0ce 2cbc
000003e0: 663f 533d 9d6b b13e ec0f e0be 85b9 26be
000003f0: 2fcb 3c3c 6186 a13e 44aa 14be 6050 1b3e
0.2132788 -0.165713 0.19332077 0.27807674 -0.17959772 -0.071422085 0.100328945 0.69484454
-0.38509727 0.03227823 0.23800065 -0.14960979 -1.7357286 0.43163797 -0.07196754 0.24668293
-0.2740383 -0.10526881 0.2493046 0.25136358 -0.2662346 0.19798477 0.19861619 0.16646108
-0.20507313 -0.19087106 -0.82252294 -0.16528064 1.33012 -0.048121184 -1.1806941 -0.11021249
-0.13253282 1.6212692 -0.14240617 -0.31057543 -0.15339258 0.3671433 -0.10080772 0.2082804
-0.29424515 0.63690716 -0.30298156 0.35271752 0.18375346 -0.11015502 0.0050274814 -0.21855801
-0.11793809 0.0051774816 0.18263932 0.37482494 0.029009568 -0.2586525 -0.11582269 -0.16203083
0.07384706 -0.17943329 0.42788061 -0.29272273 -0.31095052 -0.21259585 -0.3895906 0.28795367
-0.27369466 -0.38151842 0.30371138 0.030858532 -0.24678221 -0.058560804 9.712553e-05 -0.40955648
0.043990042 -0.13297953 -0.5184381 0.24967638 -0.20540506 0.04607833 -0.47115043 -0.03647595
-0.0032083269 0.08351589 0.082182854 -0.12381585 0.11074997 0.067002155 -0.41859686 0.40648493
-0.11782571 0.036884777 -0.44554046 0.47032544 -0.03671027 0.3289329 -0.5227256 0.13313122
0.0780011 -0.47867012 -0.15915957 0.03046289 0.09549703 -0.36446574 0.1574421 -0.20303607
-0.10296062 -0.4441301 -0.016533967 -0.13705093 -0.049117573 0.35318157 -0.46070457 0.016581153
-0.10841598 0.33777905 0.0292893 -0.0074225576 0.08337512 -0.037545793 0.19773449 0.46428812
-0.21743158 0.50699776 0.5217383 0.107647814 -0.033536956 -0.13571467 0.018245837 -0.5191317
-0.18502223 -0.4092651 -0.020074591 -0.51997656 -0.52188385 -0.076534204 0.08234403 -0.3570394
-0.18032497 -0.119640335 -0.42371917 0.08448675 -0.113955654 0.57905793 0.016996192 0.0429357
0.60095966 -0.11942051 0.12922478 -0.060676895 0.5596089 0.064157285 0.022449493 0.11531764
0.0115225455 -0.073417865 0.026404995 -0.103196226 0.49294677 -0.8885184 0.07517714 0.012663237
0.56989235 -0.51480657 0.078409605 -0.49486536 0.6477233 -0.15170325 -0.04756835 0.56421846
-0.001903267 -0.16478153 0.015066757 0.94925183 -0.14375891 -0.0013783658 0.067470886 0.58102614
-0.10471907 0.11999372 -0.060955692 -0.6342612 0.6214535 0.09680694 0.03807663 -0.54954
0.15916891 -0.12274098 0.0067047495 -0.020324003 -0.2415938 -0.895379 0.22623166 -0.6209036
-0.8516306 -0.11357018 -0.08552514 0.1095858 0.031455167 0.44741884 0.036424153 0.47842613
-0.090706326 0.6510856 0.39687693 0.068798475 -0.1348122 0.63938266 -0.06315762 -0.1512012
0.55314046 0.10625267 -0.0145815285 -0.4485658 -0.035863046 -0.09388092 -0.36619976 0.28390017
-0.11875975 -0.0068508196 -0.37528533 -0.10534447 0.052887242 0.05736305 0.13516243 -0.19310567
0.11983454 0.0718721 -0.32709974 0.41290092 -0.011376582 -0.18481208 -0.47421423 0.39415187
0.105553396 0.43170232 -0.51784974 0.09520255 0.0040656123 -0.49823156 -0.184338 0.24812476
0.0063623963 -0.39935324 0.037982818 0.03626416 0.08448354 -0.40017304 0.019688427 -0.010547385
0.051574133 0.34652415 -0.43762147 -0.16281708 0.011523052 0.31547835 -0.14518076 0.1516738

model.4.bias f4 [70]
00000000: 1ad7 583e 5382 8a3e 9230 eebe c72d b83e
00000010: f5b6 e6be e508 143f e9f4 213d 6280 c93e
00000020: d7da d43e 1644 87be 5250 d73e 652d 8bbe
00000030: a8bd ec3d 7daa db3e b22f d43e a0e4 cc3e
00000040: 29a0 cc3e 710f bfbe 3768 94be 8c0d d8bd
00000050: 5253 99bd efb4 eabe e696 b33e 6dd7 dcbe
00000060: a264 afbe c909 253e 1d04 0ebd ade3 9ebe
00000070: 633c f73e f4d3 9b3e c97a 6b3e f49a f1be
00000080: 9042 293f 1ac6 aa3e 2dd2 70be b7f7 c5be
00000090: ca11 8d3e 00fc 123e 0fac cd3e a604 d5be
000000a0: 790e 1b3e 66b3 dbbe 7366 fc3e 00da 9b3e
000000b0: 9222 b63e 787b 15be fc74 f33e 60f8 a73d
000000c0: d58b f73e 55ac f13e 47fd d6be 9ff1 b63e
000000d0: 5093 b9be 99c5 88bd b11d 973e 3aa8 a33d
000000e0: 7bc6 a23e 4705 efbe 2391 d93d e7f1 043f
000000f0: d900 a0be 24f8 8d3e cc0a 9a3e 0c3e d7be
00000100: 6c86 b4bd 5fd6 f83e dc13 a43d dfdb a3be
00000110: f50b a73e dfb7 f73e
0.21175805 0.27052554 -0.4652143 0.35972425 -0.4506146 0.5782607 0.039540205 0.3935576
0.41573212 -0.26419133 0.42053467 -0.2718307 0.115596116 0.4290351 0.4144264 0.40018177
0.39965943 -0.37316468 -0.2898576 -0.10549459 -0.07486595 -0.45841166 0.35076064 -0.43133107
-0.34256464 0.16117014 -0.03467189 -0.31033078 0.4828826 0.30435145 0.22996058 -0.47188532
0.6611719 0.33354264 -0.23517676 -0.38665554 0.27552634 0.14353943 0.40170333 -0.4160511
0.1514224 -0.42910308 0.49296913 0.30439758 0.3557325 -0.14597881 0.4755019 0.08201671
0.4834887 0.4720179 -0.4199011 0.35731217 -0.36245203 -0.06678314 0.2951484 0.07991071
0.31792054 -0.46683714 0.10623386 0.51931614 -0.31250647 0.2772838 0.30086362 -0.42039526
-0.088147014 0.48601052 0.080116004 -0.32003686 0.3262631 0.4838247

model.6.weight f4 [1, 70]
00000000: 87b1 7d41 4e84 2641 88aa 25c1 f395 2641
00000010: df2b 25c1 1c67 2541 781c c141 6dde 2641
00000020: e6d7 2541 9831 27c1 1c25 c241 88b1 c3c1
00000030: 5c3c bc41 9cfd 2541 0660 2641 d345 2641
00000040: af0d 2741 7614 26c1 2324 26c1 98e9 b741
00000050: 49da bc41 ebdc 26c1 ef8d 2641 bd0d 26c1
00000060: 1b0e 26c1 a9fa bb41 bba1 ac41 29b2 26c1
00000070: 78fe 2541 e85a 2541 2689 b2c1 6d1e 27c1
00000080: 48cd 2541 3691 2641 9850 26c1 312c 27c1
00000090: cfe7 2641 4542 b6c1 b705 2741 c0df 25c1
000000a0: 0067 b741 0e1b 27c1 bae3 2541 ca77 c141
000000b0: 2a93 2541 2da5 ac41 10dd 2641 8561 b4c1
000000c0: f5a1 2641 1678 2541 cab9 25c1 a88a 2541
000000d0: 8f1c 26c1 1018 c3c1 919a b1c1 410d b9c1
000000e0: 313a 2641 3b5b 26c1 d26b b5c1 2499 2541
000000f0: bb0e 26c1 6750 c141 7774 2641 ad2a 26c1
00000100: e1b9 ba41 7f9a 2641 caf1 bf41 c4d8 26c1
00000110: 43ee 2541 8619 2641
15.855842 10.407301 -10.354134 10.411609 -10.323211 10.337673 24.1389 10.429303
10.36521 -10.449608 24.26812 -24.461685 23.529472 10.374416 10.398443 10.392047
10.440841 -10.379995 -10.383822 22.98906 23.606585 -10.428935 10.409652 -10.378354
-10.378444 23.497393 21.57897 -10.418496 10.374626 10.334694 -22.316967 -10.444928
10.3626175 10.410452 -10.394676 -10.448289 10.431594 -22.782358 10.438895 -10.367126
22.925293 -10.444105 10.368097 24.18349 10.348429 21.580652 10.42897 -22.547617
10.41454 10.341818 -10.357859 10.346352 -10.381972 -24.38675 -22.200472 -23.131472
10.389207 -10.397273 -22.677647 10.349888 -10.378596 24.164259 10.403434 -10.385419
23.340761 10.412719 23.993061 -10.427921 10.370669 10.381231
