result/model.pth (torch, 43323 bytes, 7 tensors)

model.0.weight f4 [70, 1]
000000 31 61 b8 bf 90 16 94 bf 8e ba 31 3f c7 1f c1 bf
       -1.440466 -1.1569386 0.69425285 -1.5087823
000010 a6 3b a4 3f 15 99 16 3f e8 a4 61 bf ec 61 3d 3f
       1.2830703 0.58827335 -0.8814225 0.7397754
000020 8b 61 66 bf 9a 9a 91 bf b0 e2 32 bf 2d b0 46 bf
       -0.8999259 -1.1375306 -0.6987715 -0.7761257
000030 f6 16 b4 3f 95 05 bf bf 7e c9 7a bf 3c 01 2b bf
       1.4069507 -1.4923579 -0.979637 -0.6679876
000040 03 08 33 bf 72 96 14 bf b9 d0 b4 3f cb f3 85 3f
       -0.699341 -0.5804206 1.4126197 1.0465025
000050 50 c5 de be 1c 33 95 bf 81 98 2d 3f 29 e8 64 bf
       -0.43509912 -1.1656222 0.6781083 -0.8941675
000060 24 ca 96 3f 0c cd 19 bf 6c 25 7e bf 81 d9 bf bf
       1.1780438 -0.600785 -0.9927585 -1.4988252
000070 05 d9 41 bf 1a b8 ba bf 78 4c 27 bf 27 18 a9 bf
       -0.7572177 -1.4587433 -0.6535106 -1.3210496
000080 c3 93 11 3f 74 e6 0e bf 86 72 94 bf ed 0b 00 bf
       0.5686609 -0.55820394 -1.159745 -0.500182
000090 10 27 42 3f a1 42 50 bf 23 23 0d bf b6 1a b0 3f
       0.75840855 -0.8135167 -0.5513174 1.3758152
0000a0 fa d4 87 3f 68 c7 0d bf 29 e8 38 3f fb 41 b9 bf
       1.061187 -0.55382395 0.7222925 -1.4473261
0000b0 09 7a 1e bf e5 81 3b be 6a 92 08 3f 98 7f 5c bf
       -0.6190496 -0.1831127 0.5334841 -0.8613219
0000c0 fe 74 24 bf 15 4b 0f bf 2b bb bb bf 29 6f 89 bf
       -0.64241016 -0.5597394 -1.4666494 -1.0737048
0000d0 9f 0a 97 3f a9 9b 38 3f 4e 18 1a 3f d2 2b 3e bf
       1.1800116 0.7211252 0.60193336 -0.74285614
0000e0 6f 8b 32 3f 54 db b7 bf 83 90 fb be 3a 04 27 3f
       0.6974401 -1.4363809 -0.4913369 0.65240824
0000f0 d1 8e 03 bf 54 7c 1e 3f 3d b9 c7 bf 18 48 0a bf
       -0.51389796 0.6190846 -1.5603405 -0.54016256
000100 49 f0 a1 3f 5e 03 66 3f e1 4d 29 bf be 10 4e bf
       1.2651454 0.8984889 -0.6613446 -0.80494297
000110 1e 25 4c 3f 26 c9 0e 3f
       0.79744136 0.5577568

model.0.bias f4 [70]
000000 fe a2 ab be a5 78 6a 3f 19 ec c9 be 4d 9b 56 3e
       -0.3352279 0.9159034 -0.3943794 0.2095768
000010 80 37 1b 3f fb f8 ec be 14 f0 8c 3f 36 b3 8e 3f
       0.6063156 -0.46283707 1.1010766 1.1148441
000020 8f a8 f9 bf 58 9e 60 bf 78 10 ad bf 41 36 92 3f
       -1.9504565 -0.87741613 -1.3520651 1.1422807
000030 82 75 dd be b8 db 80 be 53 7a 8f bf 54 c7 4c 3e
       -0.43253714 -0.25167632 -1.1209205 0.19997913
000040 9c 1f 9f 3f af b4 e3 be a7 72 1a bf df 11 38 3e
       1.2431521 -0.44473788 -0.60331196 0.17975567
000050 36 3d 9e 3e 7d 10 83 be 6d 30 4f 3f 70 4c 0f 3f
       0.30906075 -0.25598517 0.80933267 0.5597601
000060 7a 64 63 3d 87 44 a0 be b5 c9 32 3f af 57 34 3f
       0.055515744 -0.31302282 0.6983903 0.70446295
000070 29 d9 b4 bf bd 27 f9 3e af 6c 89 3f dd 8b 34 bf
       -1.4128772 0.4866313 1.0736293 -0.70525914
000080 c4 b0 9c 3e 2d f2 0e 3f 85 9c 2e be ad 1f d4 3e
       0.3060361 0.5583828 -0.17051895 0.41430417
000090 d3 37 9c 3f 13 5c c9 bf 9e 76 0d 3f f4 8c 18 3f
       1.2204536 -1.5731224 0.5525912 0.5959008
0000a0 2a 90 8b 3f 6d 02 3d bf 2c cb 80 3f 5a 8f ba 3e
       1.090337 -0.73831826 1.0062003 0.36437494
0000b0 f8 b9 68 3f cb 06 01 bf 73 bf e2 be 0c 6f ab be
       0.90908766 -0.5040099 -0.4428669 -0.3348316
0000c0 51 11 89 bf 64 38 16 bf 35 34 c9 be 40 d1 b5 be
       -1.070841 -0.58679795 -0.39297643 -0.35511208
0000d0 f1 e1 f9 be 0f da 52 be 1d 58 35 bf a3 b3 a8 3f
       -0.48805192 -0.20590995 -0.70837575 1.3179821
0000e0 38 52 70 3f 7a b4 45 be a8 b4 b2 bd 13 70 04 3f
       0.93875456 -0.19307128 -0.08725864 0.5173351
0000f0 c0 0b a8 3e eb 38 c8 3e 97 03 f8 3e 6a 6b 4d be
       0.32821465 0.39105925 0.4844024 -0.20060506
000100 5a 11 84 3f c7 5b e0 3f 29 91 8f 3f 3d 03 c8 3e
       1.0317795 1.7528008 1.1216174 0.3906497
000110 34 93 b2 3f 46 2b b7 be
       1.3951173 -0.35775203

model.2.weight f4 [70, 70]
000000 e8 e8 ed be 8e 39 9c bf 7c ae 38 3f 46 7e 3e bf
       -0.46466756 -1.2205064 0.7214124 -0.7441143
000010 e9 be 80 bd 4e 24 6d 3f b5 81 b5 bf 35 7c 3b 3e
       -0.06286413 0.9263352 -1.4180208 0.183091
000020 f4 6c 4d bf fa 51 2d bf 66 72 9c bf 5c 37 c8 bf
       -0.80244374 -0.6770321 -1.2222412 -1.5641894
000030 92 1a ff 3d 31 e7 ed be 2b c9 1c bf 36 25 9e bf
       0.1245624 -0.46465448 -0.6124446 -1.2355106
000040 b4 f5 c4 bf 7f cb 96 bf 1f 95 15 3e 0d 20 84 3e
       -1.5387483 -1.1780852 0.14607666 0.25805703
000050 87 81 71 bf 1b fa 4a bf 51 58 7e 3e dc 49 a9 bf
       -0.9433827 -0.7928788 0.24838378 -1.3225665
000060 0b e6 38 3e 8e 2b 9f bf d2 eb 99 bf a9 2b 39 bf
       0.18056504 -1.2435167 -1.2025092 -0.72332245
000070 89 57 7d bf cd c1 5c bf 5e e9 c7 bf 77 cb ef be
       -0.98961693 -0.86233217 -1.5618093 -0.4683492
000080 e2 8c 41 3e 89 60 ba bf ab b9 31 bf 33 48 9a bf
       0.18901399 -1.456071 -0.6942393 -1.2053283
000090 0c ea a5 3d 09 5d 50 bf 3d 21 b5 bf 47 55 a8 bc
       0.081012815 -0.8139196 -1.4150769 -0.020548476
0000a0 69 d2 93 bd 1e d0 9d bf 31 fd ab 3d cc 92 24 bf
       -0.07217867 -1.2329137 0.08397902 -0.64286494
0000b0 ec de b9 bf eb 71 39 bf dd 83 a2 3f ee bd 81 bf
       -1.4521155 -0.7243945 1.2696491 -1.0136087
0000c0 09 fc 8f bf de e7 a5 bf 61 da ea be a3 1d 61 bf
       -1.124879 -1.2961385 -0.45869735 -0.8793585
0000d0 01 31 95 3e db 3e 2b 3f 03 54 86 3f 3d bf cf bf
       0.2913895 0.66892785 1.0494388 -1.6230236
0000e0 71 a0 5d 3e 6f 68 0c bf b9 0b 90 bf 47 16 de 3e
       0.21643235 -0.54846853 -1.1253577 0.4337637
0000f0 06 7e 9f bf 4c 48 c1 3e 73 2d 2f bf 24 0d a8 bf
       -1.2460334 0.3775047 -0.68428725 -1.312901
000100 6c fd 0f be 5b f4 94 3c f1 51 b0 bf 42 ad 9a bf
       -0.14061517 0.018182924 -1.3775007 -1.2084124
000110 d5 49 4d bd 2f f3 7a 3f 48 0e c0 be 1c f5 49 be
       -0.05011924 0.9802732 -0.37510896 -0.19722408
000120 31 9e b5 3e cd 4a 8c be 16 59 65 3e 7c a0 4e 3e
       0.35472253 -0.27400818 0.22397265 0.20178407
000130 86 7c 15 be 0a 84 a0 3c 23 16 74 be 6f 15 8a be
       -0.14598283 0.019594211 -0.2383657 -0.26969478
000140 fc 76 f3 bd 2c 35 7b be 72 66 a6 3e c5 f7 8d be
       -0.11887929 -0.24532002 0.32500035 -0.27728096
000150 6f e4 86 be 18 1b 83 be cd d3 d3 bd ec eb f9 3c
       -0.26346156 -0.25606608 -0.10343132 0.030508004
000160 9b 97 a4 3e 0a 75 7e 3e b4 8a ae 3c 19 d4 80 be
       0.32146916 0.24849334 0.021306373 -0.25161818
000170 69 24 a8 3d 5d af 38 be 47 ff e1 3e 89 9c c9 bd
       0.0821007 -0.18035646 0.44140074 -0.0984431
000180 37 88 66 be 2d 61 ce bd 5b 9b 44 be 7f 0c 0c be
       -0.225129 -0.100771286 -0.19199888 -0.13676642
000190 30 f0 2a be 3c 09 d4 be 34 3d 93 3d 3e 85 65 bd
       -0.16693187 -0.41413295 0.07189408 -0.056035273
0001a0 55 38 a3 be dc 68 15 bd 35 57 25 3b 1c d0 83 be
       -0.31878915 -0.036476955 0.0025228981 -0.25744712
0001b0 61 40 92 bd bb 1d cb 3e a4 71 83 3e d2 04 12 be
       -0.071411856 0.3967112 0.25672638 -0.14259651
0001c0 c5 82 ca 3d f0 e8 b8 be fc 0d 35 be 72 17 b2 3d
       0.098882236 -0.36115217 -0.17681116 0.08695878
0001d0 3e 48 77 3e 03 42 a5 be 81 58 5b bd 6e ec 3c bd
       0.24148652 -0.32276925 -0.0535512 -0.046123914
0001e0 82 5b b4 be da 27 48 be 3f 69 bd 3e 0b 75 69 3e
       -0.35226065 -0.19546452 0.3699436 0.22798555
0001f0 90 74 a7 3e 2c 44 60 be 25 2d 00 3e 2b cc 4e be
       0.32706118 -0.21901006 0.12517221 -0.20195071
000200 2a 6c 1f be 14 e5 0c 3e 77 e9 21 be 3b b2 90 3e
       -0.15568605 0.13759261 -0.15811716 0.2826098
000210 c6 db a4 be 07 d9 1e be db 84 c2 3e d0 d1 37 3e
       -0.32198924 -0.15512477 0.37991986 0.17951131
000220 2b 41 85 bd ff 06 92 bd 0f 79 92 3c 64 c8 00 3e
       -0.065065704 -0.07130241 0.01787999 0.12576443
000230 04 a9 30 3e 8b 4c 4a be 37 40 fe be 12 59 af 3c
       0.17251974 -0.19755761 -0.49658367 0.021404777
000240 0b ff c4 be ec 9c eb be 18 13 be bd 1e 23 f8 be
       -0.38475832 -0.4601816 -0.092809856 -0.48464292
000250 27 75 27 3f 9c f1 7f 3e 82 4d e5 3e dd 1c 62 be
       0.65413135 0.2499451 0.44785696 -0.22081323
000260 e6 dc 66 be b4 8e 1d 3e e6 68 b0 3e 3b 34 a8 bd
       -0.22545204 0.15386468 0.3445503 -0.08213087
000270 60 49 2e be 84 d0 42 3e d4 0a aa be c2 c1 03 bf
       -0.17020178 0.19024855 -0.33211386 -0.51467526
000280 d1 0d f2 ba c6 ac 17 3e 2e bc 0d bf 4d 9e 13 be
       -0.0018467252 0.14812002 -0.55365264 -0.14415856
000290 30 d7 8a be 03 4f 96 3d 4a c5 cc 3c eb f8 9e bd
       -0.271173 0.07339289 0.024996419 -0.07762321
0002a0 48 0b 11 3f 7b cc 14 be a0 f1 3b be ad 01 1c 3e
       0.5665784 -0.14531128 -0.18353891 0.15235014
0002b0 a4 65 ca be ab 0a ca 3b a2 4a a3 3d 76 1a 72 bd
       -0.3953067 0.0061658225 0.079732195 -0.059107266
0002c0 eb 94 1f bf 1d 08 09 3f de 0c e8 bd d9 59 eb be
       -0.62336606 0.53528005 -0.11330579 -0.45966986
0002d0 46 32 08 bf f2 5f a5 3d b1 aa 00 bf cd 4e 51 3d
       -0.5320171 0.08074941 -0.50260454 0.05110054
0002e0 ef d1 01 3d 29 51 11 be bd ba 18 bf e5 71 49 3e
       0.03169435 -0.14191116 -0.5965994 0.19672354
0002f0 f8 65 d2 3e 00 74 03 3e d4 f9 63 3d 70 16 09 3e
       0.4109342 0.12837219 0.055658177 0.13387465
000300 25 68 c4 be 92 98 c5 be c8 41 cc be 74 de 6a be
       -0.38360706 -0.38592964 -0.39893937 -0.22936422
000310 0f a8 e7 be 98 c2 0d 3e a7 94 ac 3d fd 49 13 bf
       -0.45245406 0.13843763 0.08426791 -0.5753477
000320 80 ee d2 3c 10 2e ed be 77 45 af bd 87 8a 71 3e
       0.025748491 -0.46324205 -0.08558171 0.23588
000330 87 f4 f4 be b7 d4 12 bf 0f 41 32 be ad 50 b8 bd
       -0.4784281 -0.5735583 -0.1740763 -0.08999763
000340 30 aa 1f bf f7 9c f9 be fc 54 f9 bd 2d 51 7e be
       -0.6236906 -0.48752567 -0.121744126 -0.24835654
000350 ba 71 66 3d 27 09 ae be d6 ed 65 bd e7 00 b6 bc
       0.0562608 -0.33991358 -0.05613502 -0.022217227
000360 1f e3 75 be 29 86 56 bd 05 70 e7 bd 5f 03 2e be
       -0.24012421 -0.05237404 -0.11300663 -0.16993473
000370 d1 28 b3 bd d8 5e 31 be ab 96 10 3e 4a 6f 9e be
       -0.087480195 -0.17321336 0.14119975 -0.30944282
000380 d4 1a da bd e0 15 f6 bd 0c 66 99 be 98 b3 33 be
       -0.10649648 -0.12015891 -0.29960668 -0.17548978
000390 23 bf 3a 3d b2 17 ea 3d 49 b4 90 be ad 49 b1 be
       0.04559244 0.11430301 -0.28262547 -0.34626523
0003a0 51 e1 3c bd 9f 7e 01 be 11 2a 73 bc bc d3 28 be
       -0.046113316 -0.12645958 -0.014841572 -0.1648702
0003b0 9c 73 82 be fc d6 8b be b3 16 f7 bd da ac 8e be
       -0.25478828 -0.27312458 -0.120648764 -0.2786625
0003c0 0a fe a3 be f0 71 10 be 9a 98 98 3d 39 70 8b be
       -0.32029754 -0.14105964 0.074509814 -0.27234057
0003d0 8c 93 07 be 95 70 e1 bd 41 9b 80 bb 8d 8a 2c be
       -0.13239878 -0.110078014 -0.0039247577 -0.16849728
0003e0 0b 92 8b be 42 97 d3 3d f1 bc 88 3d 7c 40 3b be
       -0.2725986 0.103315845 0.06676663 -0.18286318
0003f0 f3 bc 01 be 52 2d a4 be a4 72 81 be 03 f5 6e be
       -0.12669735 -0.32065827 -0.25282776 -0.23335652

model.2.bias f4 [70]
000000 2f 5c d5 be 81 d7 09 3e 65 cf 21 be 5b 89 61 be
       -0.41671893 0.13461114 -0.15801771 -0.22025053
000010 75 e9 9e bd 46 4a b2 bd 12 3c 19 bd a4 5b f0 be
       -0.07759372 -0.08705573 -0.037410803 -0.46944916
000020 f1 24 47 be ce f5 9c bd 54 f7 14 be ee 25 38 3d
       -0.19447686 -0.07664071 -0.14547473 0.044958048
000030 db 72 91 bd 4e 96 44 be 96 b2 c2 bd c1 04 25 be
       -0.07101985 -0.19197962 -0.09506719 -0.16115095
000040 3f 29 20 be bc e7 56 3c ed da 8d be 24 24 b7 bd
       -0.15640734 0.013116773 -0.2770609 -0.0894244
000050 9d 36 3a be 8b 83 4b be c7 ca a9 bd 38 c1 3e bd
       -0.18184896 -0.19874398 -0.0829063 -0.046570987
000060 50 14 5a be 61 1d 6f be 0d 52 95 bc e7 d8 98 3c
       -0.21296811 -0.23351051 -0.018227601 0.018658115
000070 aa 43 07 be e2 f3 56 be 3c 94 46 be 97 69 05 be
       -0.13209406 -0.20991471 -0.19392484 -0.1302856
000080 fe 6f 40 3c 5f ed 89 be 5a 9e a6 bc 38 3d ee bb
       0.011745451 -0.26938912 -0.02033918 -0.0072704814
000090 9e f1 23 be 4e 0a 30 be dc 02 92 bd 0f ef a7 3c
       -0.16010138 -0.17191431 -0.07129452 0.020499734
0000a0 1a c9 93 bd 09 21 e3 bd 3c 95 dd be fd f0 3d be
       -0.072160915 -0.11090285 -0.4327792 -0.18548961
0000b0 53 68 29 be c0 04 3b be 53 01 0b be 48 68 7d bd
       -0.16543703 -0.1826353 -0.13574724 -0.06186703
0000c0 4b e2 53 be 66 a6 49 be 92 bc 3a 3e ec c9 a8 bc
       -0.20691793 -0.19692382 0.18235996 -0.020604096
0000d0 e2 1e 48 bd 51 d4 a3 bd 81 8f b8 bd f6 a3 a4 bd
       -0.048857577 -0.079994805 -0.09011746 -0.080390856
0000e0 b2 b5 71 bb 86 f1 74 be 94 94 eb bd 39 c9 3a be
       -0.003688198 -0.23920259 -0.115029484 -0.18240823
0000f0 f2 95 47 be 3e 5f a5 bc 47 b0 66 be 7b 7d 5d bd
       -0.19490793 -0.020187017 -0.22528182 -0.054074746
000100 fd 4f 6a bd 1a bd eb bd 85 03 04 bd b4 30 06 bd
       -0.05720519 -0.11510678 -0.03222992 -0.03276129
000110 93 cb b2 3d dd d8 39 be
       0.08730235 -0.18149133

model.4.weight f4 [70, 70]
000000 18 d4 e1 be 86 ec a1 bd c5 e1 61 bd 59 2b 49 3c
       -0.44107127 -0.079064414 -0.05514695 0.012278401
000010 88 57 c9 bc 32 7e 55 bd 8b 46 11 be e3 61 8b 3d
       -0.024577871 -0.052122302 -0.14187066 0.0680578
000020 58 a0 4b 3d d6 f0 ad bd e6 4e 0b 3d d4 64 20 be
       0.049713463 -0.084932014 0.03401079 -0.15663463
000030 f1 4e 92 ba 29 ed 84 bd 34 1d 9a 3d 63 41 0f be
       -0.0011162442 -0.06490547 0.07525101 -0.13989787
000040 94 1f 04 3d 8e ab 6a 3c a7 24 36 3d cb 84 63 be
       0.032256678 0.014323128 0.04446855 -0.22218625
000050 57 06 e6 bd b9 bf 36 be bb ee b6 bd 20 c0 f8 bd
       -0.11231678 -0.17846574 -0.08932253 -0.1214602
000060 5d e5 10 be 2b 71 9b be 2f 08 e1 3d d2 d1 10 be
       -0.14149995 -0.30359778 0.10987889 -0.1414254
000070 08 8a 81 b9 7f f2 cb bd 6b 59 6d bd e1 be 10 be
       -0.0002470764 -0.09958362 -0.057946604 -0.14135315
000080 f2 6b 10 be ec f9 0a be 13 05 6e bc 6a e4 1c 3d
       -0.14103678 -0.135719 -0.014527577 0.03830377
000090 32 ca b6 bc 40 7a 07 be a0 03 a2 3d ad 9c 59 3d
       -0.022313211 -0.13230228 0.07910848 0.053127933
0000a0 36 f2 32 bd 5f 63 f6 bc d7 57 06 3e 73 41 0b bc
       -0.04368802 -0.03007668 0.13119446 -0.008499491
0000b0 c2 7c 1c 3d f0 26 e0 bd 42 03 bf bd 47 7d 1b be
       0.038204916 -0.10944927 -0.09326793 -0.15184508
0000c0 c5 58 27 be a2 27 40 be 67 20 92 bd c6 a5 d3 bd
       -0.16342457 -0.18765119 -0.071350865 -0.10334353
0000d0 27 1c dc bd 50 06 e2 3c 5f d8 ab 3b 7d 5d 26 be
       -0.10747557 0.0275909 0.0052442993 -0.162466
0000e0 4b 72 27 be 09 07 03 be 23 45 8f 3d 4b 34 18 3c
       -0.16352193 -0.12795652 0.06995609 0.009289811
0000f0 1c 82 6d 3d eb d9 c0 bd cc 2d 9a 3d 24 8e cb 3d
       0.05798541 -0.094165646 0.07528266 0.099392205
000100 15 e4 bc bd c4 69 98 3d a2 0b 6c be ad da 86 3d
       -0.09223191 0.07442048 -0.23051313 0.06584678
000110 f3 97 d5 bc b6 38 17 3d a4 46 01 3f 97 db 45 be
       -0.026073432 0.03691932 0.50498414 -0.19322048
000120 17 e6 4f be 12 93 7e bd 08 45 9c bd 9c 04 13 be
       -0.20302616 -0.062151976 -0.07630354 -0.14357227
000130 a6 e2 08 3d 21 1b a2 be a9 00 96 be da e2 d3 bd
       0.033419274 -0.31661323 -0.2929738 -0.10346003
000140 1d c7 ce 3b 7c a6 a8 bd f3 67 16 3d 98 f8 af 3b
       0.0063103572 -0.082348794 0.036720227 0.005370211
000150 52 20 88 bd 40 92 ea 3d db 50 0f 3e b0 77 85 bb
       -0.066467896 0.11453676 0.13995688 -0.0040731058
000160 bb 9e 91 bd 55 f2 eb 3d d2 d1 3f bd d6 04 19 bb
       -0.071103536 0.115208305 -0.04683096 -0.002334883
000170 a7 12 a3 bd a0 ce af bd 95 6c 3a bd 45 27 ae 3e
       -0.07962542 -0.085843325 -0.04551371 0.34014335
000180 85 b4 12 3a 65 73 06 be 5a 57 72 bd bc 56 f3 bd
       0.00055963575 -0.13129957 -0.059165336 -0.11881778
000190 49 b8 ed 3c 6c 61 c3 3d 70 03 0c 3d 60 70 3e 3d
       0.029018538 0.09540066 0.034182966 0.046493888
0001a0 fc 76 70 39 81 69 22 bc 2d 0a b8 3d f6 5d 5f 3d
       0.00022932509 -0.009912849 0.08986316 0.054532968
0001b0 5e ca ab 3d 97 f8 4c bd a1 65 f7 bb 98 5e b8 3d
       0.08388208 -0.05004176 -0.007549957 0.09002417
0001c0 87 80 ea be 01 84 91 3d 9a 5f c8 bd 28 79 14 bd
       -0.45801184 0.07105256 -0.097838596 -0.036248356
0001d0 aa 6d 9b 3c 0d 78 2b 3d 26 e7 46 3e 9e b0 81 3d
       0.01897319 0.041862536 0.19424114 0.06332515
0001e0 77 fd 27 be c8 e6 00 bb 4f 42 b9 3b 91 69 60 3d
       -0.16405283 -0.0019668806 0.0056536566 0.054788176
0001f0 d0 b2 b9 bd 7a 86 fb 3c 45 8d cc 3d a2 28 91 3d
       -0.09067309 0.030703772 0.099878825 0.07087828
000200 de b0 d6 be 0d 51 84 3d 06 f9 c4 be 71 a2 93 3d
       -0.41931814 0.06460772 -0.3847124 0.072087176
000210 63 99 a5 bd a0 03 10 bc 51 52 b3 bd cd 80 fd bd
       -0.08085897 -0.008789927 -0.08755935 -0.123780824
000220 a1 4e 93 bd c2 fd fd 3c b6 cf 01 be 6a c6 b5 bd
       -0.07192732 0.03100479 -0.12676892 -0.08875735
000230 46 bb 1e 3c d4 bc 27 be 7e a8 56 bd 3e cd 8a 3d
       0.009688204 -0.16380626 -0.05240678 0.06777428
000240 44 fb 21 3c 88 f3 b1 bd b1 78 0d be b8 9e 44 be
       0.009886567 -0.08689028 -0.13815571 -0.19201171
000250 27 b8 b2 bb 8f f5 fe bd 27 e7 28 bd e6 56 a2 bd
       -0.0054540816 -0.1244918 -0.04123607 -0.07926731
000260 e2 fa d2 bc 63 98 a1 3c 92 26 02 be f8 e0 11 be
       -0.025754396 0.019725984 -0.12710026 -0.14245975
000270 f2 26 1b be ef 7f 3e be e8 5c fe bc 6a 3b be 3d
       -0.15151575 -0.1860349 -0.03105016 0.09288676
000280 31 ba 0b bd 1c 35 6c bd d9 ec 0e be 6d f9 cd bd
       -0.034113113 -0.057667837 -0.13957538 -0.1005734
000290 6b 51 a9 bd a3 25 0e 3e 7d 23 fa bd 24 11 03 be
       -0.08267482 0.13881545 -0.122138 -0.12799507
0002a0 f8 d3 1a be 77 b5 1e 3d cb ed 88 3d a9 19 18 be
       -0.15119922 0.038747277 0.066859804 -0.14853539
0002b0 54 e5 f2 bd 78 f3 87 bd 34 52 2a be e0 26 0c be
       -0.11860147 -0.06638235 -0.1663292 -0.13686705
0002c0 a8 72 d0 bd ab 90 35 be 7c 13 93 bc d8 67 a9 bc
       -0.10178119 -0.17730968 -0.017953627 -0.0206794
0002d0 4e 86 35 bd 40 b1 3a bd c6 2d 36 be 79 d3 2b be
       -0.044317536 -0.045579195 -0.17790899 -0.16779889
0002e0 d3 20 a2 3d 37 5f 9b bd 31 52 b1 3d c0 5e 1d be
       0.07916417 -0.0758652 0.08658255 -0.15368176
0002f0 05 48 0b bd 82 c1 9d bc 98 86 02 be 36 e5 d5 bb
       -0.03400423 -0.01925731 -0.12746656 -0.006527568
000300 07 d6 aa 3d 53 03 b9 bc 33 ec c7 3d cf 7d 0d be
       0.08341604 -0.022584593 0.09761848 -0.13817523
000310 eb 6a b4 3d 7d c2 cd 3d c1 07 1a be a2 69 9d bd
       0.088094555 0.10046861 -0.1504202 -0.076861635
000320 4f 2b 85 bc d4 d7 80 bc 54 ac 13 bd 92 25 4a bd
       -0.016256003 -0.015727915 -0.036053017 -0.049352236
000330 4b 60 f4 bd 83 59 f5 bd e6 25 b9 3d 65 d3 ae 3d
       -0.11932429 -0.11979964 0.09040432 0.08536414
000340 1e 15 c6 bd 99 ab ad bd a1 ff 05 bf 7f 41 7f bd
       -0.096719965 -0.08479995 -0.52343184 -0.06231832
000350 c6 b9 39 3d ec 89 1b 3d a0 a0 3c 3d 09 4f cb 3d
       0.045343183 0.03797333 0.04605162 0.09927184
000360 bb 1d da bd 15 f6 aa 3e b4 38 6f 3e f3 31 1c be
       -0.10650202 0.3339087 0.23361474 -0.15253429
000370 58 da de bd 2e d5 05 be 91 6c 97 bd c4 f6 c5 3d
       -0.108814895 -0.13069603 -0.07393754 0.096662074
000380 ba 34 3d bc 95 f9 bc bd 02 90 5f 3d 33 e6 3f bc
       -0.0115482155 -0.092272915 0.054580696 -0.011712599
000390 cb c2 d5 3d 11 2d 00 be e3 99 1f 3e b8 8c ef bb
       0.104375444 -0.12517191 0.15586047 -0.007310476
0003a0 1b 24 38 be aa 26 3d 3c 1f 41 66 bd 0e 51 ba be
       -0.17982523 0.011544863 -0.056214448 -0.36389965
0003b0 61 88 e7 3d 88 59 96 39 c1 91 b1 3c 97 c2 2e 3e
       0.11305309 0.00028676935 0.021675946 0.17066418
0003c0 a8 56 0b 3d c2 44 75 bd 27 3a 4b 3d 62 0c 9f bd
       0.03401819 -0.059880026 0.049616005 -0.07766034
0003d0 49 e3 dd bb 98 21 47 3d 53 4e 9e bd 8a 50 06 be
       -0.0067714793 0.048616022 -0.07729783 -0.1311666
0003e0 0b 9d 5b 3c c3 c9 d1 3d 9b 85 10 3e 21 ec be bd
       0.013404141 0.10243561 0.14113466 -0.09322382
0003f0 64 d8 91 3e fa 2c 84 3d c2 5c 06 be 52 98 0e be
       0.28485405 0.06453891 -0.13121322 -0.13925293

model.4.bias f4 [70]
000000 57 2b c9 3c 4d 5c a6 bc 28 16 af bc 26 21 03 be
       0.024556799 -0.020307684 -0.02137287 -0.12805614
000010 fd 56 10 be 6a 9e a4 3d f8 37 a7 3d 96 25 62 3c
       -0.14095683 0.080380276 0.08164972 0.0138029065
000020 88 97 b1 bd c4 d8 8d bd 57 a4 c1 bd 97 56 77 bc
       -0.086714804 -0.069261104 -0.094551735 -0.015096328
000030 4b d1 68 3d b0 76 87 3c e0 d4 d0 bd 24 d7 b6 bd
       0.056840222 0.016536087 -0.10196853 -0.089277536
000040 87 28 6f bd e9 fa 9e bd a0 e7 0a be d4 26 d2 bd
       -0.05838826 -0.07762701 -0.1356492 -0.10261312
000050 03 02 97 b9 36 af 20 be 25 1e 25 be 36 73 5d bd
       -0.00028802463 -0.15691838 -0.1612478 -0.05406495
000060 7b 10 32 3d 13 cb 71 be b3 d6 bc bc 44 3f 94 3c
       0.04347275 -0.23612623 -0.023051595 0.018096574
000070 20 20 db bd 06 24 02 bd de d2 cc bd b5 c9 e2 bc
       -0.10699487 -0.031772636 -0.10001157 -0.027684072
000080 a6 a7 8b bd ee fe 45 3d 16 8c b3 bc 66 0b 63 be
       -0.06819086 0.048338823 -0.021917384 -0.22172317
000090 ad 78 75 be a0 92 c6 3c 5e 93 e8 bd 7f 7c 25 bd
       -0.23971815 0.024239838 -0.11356233 -0.04040193
0000a0 6d 4a 6a be 37 e7 e6 bd f9 e6 b6 3d 93 88 77 be
       -0.22879954 -0.112745695 0.08930773 -0.24173193
0000b0 6e 8c 8c 3d 9e 4b 16 3d e6 89 b0 bd e7 52 3c 3d
       0.06862722 0.036693208 -0.08620052 0.0459775
0000c0 28 32 3a be f6 b9 47 3d 34 a8 13 3d 31 c0 c9 bd
       -0.18183196 0.04876133 0.036049083 -0.09851111
0000d0 b8 8d 9c 3d ff aa 7d 3d 86 56 27 be cf 47 05 be
       0.07644218 0.061930653 -0.163416 -0.13015674
0000e0 80 86 20 bd bd 79 d9 bd a5 7a 6c be ec 02 f2 bb
       -0.03919077 -0.10618923 -0.2309366 -0.007385602
0000f0 87 79 1e be 32 7f 7d 3d 16 73 0f be 21 d2 2c bd
       -0.15476047 0.06188888 -0.14008746 -0.042192582
000100 81 49 b5 3d e7 e6 74 bd 33 34 8f bd bd 6d cf bd
       0.088519104 -0.059790518 -0.06992378 -0.10128353
000110 83 cd a5 bd 72 ca 04 be
       -0.08095839 -0.12967852

model.6.weight f4 [1, 70]
000000 fd 50 1d 3d 60 ce cc bd a8 7f 95 bc a6 e5 56 3d
       0.038407315 -0.100003004 -0.018249348 0.052465104
000010 d8 31 da bd 47 96 ca bd 1c ba 05 3e b3 32 3e bd
       -0.10654038 -0.098919444 0.13059276 -0.04643507
000020 f0 fd b3 bd 0c 72 07 3e 89 f5 f4 3d c6 da ad 3d
       -0.08788669 0.13227099 0.119608946 0.08488993
000030 83 22 e3 bd 32 4b ac bd 00 b6 9b 3d f6 1d 9b 3b
       -0.11090567 -0.0841278 0.07603073 0.004733796
000040 bf 97 1d be 03 ed f2 3c f9 7c be bd 19 a9 ad 3c
       -0.15389918 0.029654032 -0.093011804 0.021198796
000050 78 f4 f8 bd 27 b6 71 3d 67 b0 de bc 1f 21 1d 3d
       -0.12156004 0.059011605 -0.027183725 0.038361665
000060 7c fc c9 3d 75 c3 ff 3d d7 1f ed 3d d7 77 d3 3d
       0.09862611 0.12488452 0.115783386 0.10325592
000070 87 c3 3d 3e e0 6b d5 3d f5 ed 1c be a1 7d a5 bd
       0.18531619 0.10420966 -0.15325148 -0.080806024
000080 d9 81 b0 bd 92 e0 8f bd ee a3 c9 bd 8b 98 db 3b
       -0.086185165 -0.07025255 -0.0984572 0.006701534
000090 a8 e5 0e 3e 2f 12 c1 3d bf c6 34 bd 5f 28 57 bd
       0.13954794 0.09427296 -0.04413485 -0.052528735
0000a0 ed b2 48 3b 90 5a e9 3d d7 09 15 3e b8 14 6f bb
       0.0030624226 0.113942266 0.14554535 -0.0036480855
0000b0 52 f7 06 3e ca 66 0b 3d d2 be 93 3d 01 e4 02 be
       0.13180283 0.034033574 0.072141305 -0.12782289
0000c0 df a1 90 bc 46 4c dc 3d 8a 9d c6 bd d9 b4 7e 3d
       -0.017655311 0.107567355 -0.09698017 0.06218419
0000d0 34 1e ea 3d 3c 8f ef 3d a5 0f 8e 3d 71 1a 2a 3d
       0.11431542 0.11697242 0.06936578 0.041529123
0000e0 b1 1c df bd e9 b0 ce 3b 73 38 86 3b c9 3c 10 bd
       -0.10894144 0.0063077104 0.0040960847 -0.03521422
0000f0 58 68 c3 3d d8 9a 09 be 84 df 0e bd 5f 84 6b 3c
       0.09541386 -0.13437974 -0.03488113 0.014374821
000100 9d 46 99 bd 86 c8 04 bd 5d 5a 64 3d 82 57 db bc
       -0.074841715 -0.032417797 0.05575024 -0.026775125
000110 e9 fd 09 be 99 1d 16 3e
       -0.13475765 0.14659728
